…
I0110 11:34:45.158331 55253 net.cpp:49] Initializing net from parameters: 
name: "Inception_v4"
state {
  phase: TRAIN
}
layer {
  name: "data"
  type: "ImageData"
  top: "data"
  top: "label"
  include {
    phase: TRAIN
  }
  transform_param {
    mirror: true
    crop_size: 299
    mean_value: 103.939
    mean_value: 116.779
    mean_value: 123.68
  }
  image_data_param {
    source: "/mnt/lustre/yangkunlin/kaggle_camera/data/train_aug.txt"
    batch_size: 10
    shuffle: true
    root_folder: "/mnt/lustre/yangkunlin/kaggle_camera/data/train_aug"
  }
}
layer {
  name: "conv1_3x3_s2"
  type: "Convolution"
  bottom: "data"
  top: "conv1_3x3_s2"
  convolution_param {
    num_output: 32
    bias_term: false
    pad: 0
    kernel_size: 3
    stride: 2
  }
}
layer {
  name: "conv1_3x3_s2_bn"
  type: "BatchNorm"
  bottom: "conv1_3x3_s2"
  top: "conv1_3x3_s2"
  batch_norm_param {
    use_global_stats: false
    eps: 0.001
  }
}
layer {
  name: "conv1_3x3_s2_scale"
  type: "Scale"
  bottom: "conv1_3x3_s2"
  top: "conv1_3x3_s2"
  scale_param {
    bias_term: true
  }
}
layer {
  name: "conv1_3x3_s2_relu"
  type: "ReLU"
  bottom: "conv1_3x3_s2"
  top: "conv1_3x3_s2"
}
layer {
  name: "conv2_3x3_s1"
  type: "Convolution"
  bottom: "conv1_3x3_s2"
  top: "conv2_3x3_s1"
  convolution_param {
    num_output: 32
    bias_term: false
    pad: 0
    kernel_size: 3
    stride: 1
  }
}
layer {
  name: "conv2_3x3_s1_bn"
  type: "BatchNorm"
  bottom: "conv2_3x3_s1"
  top: "conv2_3x3_s1"
  batch_norm_param {
    use_global_stats: false
    eps: 0.001
  }
}
layer {
  name: "conv2_3x3_s1_scale"
  type: "Scale"
  bottom: "conv2_3x3_s1"
  top: "conv2_3x3_s1"
  scale_param {
    bias_term: true
  }
}
layer {
  name: "conv2_3x3_s1_relu"
  type: "ReLU"
  bottom: "conv2_3x3_s1"
  top: "conv2_3x3_s1"
}
layer {
  name: "conv3_3x3_s1"
  type: "Convolution"
  bottom: "conv2_3x3_s1"
  top: "conv3_3x3_s1"
  convolution_param {
    num_output: 64
    bias_term: false
    pad: 1
    kernel_size: 3
    stride: 1
  }
}
layer {
  name: "conv3_3x3_s1_bn"
  type: "BatchNorm"
  bottom: "conv3_3x3_s1"
  top: "conv3_3x3_s1"
  batch_norm_param {
    use_global_stats: false
    eps: 0.001
  }
}
layer {
  name: "conv3_3x3_s1_scale"
  type: "Scale"
  bottom: "conv3_3x3_s1"
  top: "conv3_3x3_s1"
  scale_param {
    bias_term: true
  }
}
layer {
  name: "conv3_3x3_s1_relu"
  type: "ReLU"
  bottom: "conv3_3x3_s1"
  top: "conv3_3x3_s1"
}
layer {
  name: "inception_stem1_3x3_s2"
  type: "Convolution"
  bottom: "conv3_3x3_s1"
  top: "inception_stem1_3x3_s2"
  convolution_param {
    num_output: 96
    bias_term: false
    pad: 0
    kernel_size: 3
    stride: 2
  }
}
layer {
  name: "inception_stem1_3x3_s2_bn"
  type: "BatchNorm"
  bottom: "inception_stem1_3x3_s2"
  top: "inception_stem1_3x3_s2"
  batch_norm_param {
    use_global_stats: false
    eps: 0.001
  }
}
layer {
  name: "inception_stem1_3x3_s2_scale"
  type: "Scale"
  bottom: "inception_stem1_3x3_s2"
  top: "inception_stem1_3x3_s2"
  scale_param {
    bias_term: true
  }
}
layer {
  name: "inception_stem1_3x3_s2_relu"
  type: "ReLU"
  bottom: "inception_stem1_3x3_s2"
  top: "inception_stem1_3x3_s2"
}
layer {
  name: "inception_stem1_pool"
  type: "Pooling"
  bottom: "conv3_3x3_s1"
  top: "inception_stem1_pool"
  pooling_param {
    pool: MAX
    kernel_size: 3
    stride: 2
  }
}
layer {
  name: "inception_stem1"
  type: "Concat"
  bottom: "inception_stem1_pool"
  bottom: "inception_stem1_3x3_s2"
  top: "inception_stem1"
}
layer {
  name: "inception_stem2_3x3_reduce"
  type: "Convolution"
  bottom: "inception_stem1"
  top: "inception_stem2_3x3_reduce"
  convolution_param {
    num_output: 64
    bias_term: false
    pad: 0
    kernel_size: 1
    stride: 1
  }
}
layer {
  name: "inception_stem2_3x3_reduce_bn"
  type: "BatchNorm"
  bottom: "inception_stem2_3x3_reduce"
  top: "inception_stem2_3x3_reduce"
  batch_norm_param {
    use_global_stats: false
    eps: 0.001
  }
}
layer {
  name: "inception_stem2_3x3_reduce_scale"
  type: "Scale"
  bottom: "inception_stem2_3x3_reduce"
  top: "inception_stem2_3x3_reduce"
  scale_param {
    bias_term: true
  }
}
layer {
  name: "inception_stem2_3x3_reduce_relu"
  type: "ReLU"
  bottom: "inception_stem2_3x3_reduce"
  top: "inception_stem2_3x3_reduce"
}
layer {
  name: "inception_stem2_3x3"
  type: "Convolution"
  bottom: "inception_stem2_3x3_reduce"
  top: "inception_stem2_3x3"
  convolution_param {
    num_output: 96
    bias_term: false
    pad: 0
    kernel_size: 3
    stride: 1
  }
}
layer {
  name: "inception_stem2_3x3_bn"
  type: "BatchNorm"
  bottom: "inception_stem2_3x3"
  top: "inception_stem2_3x3"
  batch_norm_param {
    use_global_stats: false
    eps: 0.001
  }
}
layer {
  name: "inception_stem2_3x3_scale"
  type: "Scale"
  bottom: "inception_stem2_3x3"
  top: "inception_stem2_3x3"
  scale_param {
    bias_term: true
  }
}
layer {
  name: "inception_stem2_3x3_relu"
  type: "ReLU"
  bottom: "inception_stem2_3x3"
  top: "inception_stem2_3x3"
}
layer {
  name: "inception_stem2_1x7_reduce"
  type: "Convolution"
  bottom: "inception_stem1"
  top: "inception_stem2_1x7_reduce"
  convolution_param {
    num_output: 64
    bias_term: false
    pad: 0
    kernel_size: 1
    stride: 1
  }
}
layer {
  name: "inception_stem2_1x7_reduce_bn"
  type: "BatchNorm"
  bottom: "inception_stem2_1x7_reduce"
  top: "inception_stem2_1x7_reduce"
  batch_norm_param {
    use_global_stats: false
    eps: 0.001
  }
}
layer {
  name: "inception_stem2_1x7_reduce_scale"
  type: "Scale"
  bottom: "inception_stem2_1x7_reduce"
  top: "inception_stem2_1x7_reduce"
  scale_param {
    bias_term: true
  }
}
layer {
  name: "inception_stem2_1x7_reduce_relu"
  type: "ReLU"
  bottom: "inception_stem2_1x7_reduce"
  top: "inception_stem2_1x7_reduce"
}
layer {
  name: "inception_stem2_1x7"
  type: "Convolution"
  bottom: "inception_stem2_1x7_reduce"
  top: "inception_stem2_1x7"
  convolution_param {
    num_output: 64
    bias_term: false
    stride: 1
    pad_h: 0
    pad_w: 3
    kernel_h: 1
    kernel_w: 7
  }
}
layer {
  name: "inception_stem2_1x7_bn"
  type: "BatchNorm"
  bottom: "inception_stem2_1x7"
  top: "inception_stem2_1x7"
  batch_norm_param {
    use_global_stats: false
    eps: 0.001
  }
}
layer {
  name: "inception_stem2_1x7_scale"
  type: "Scale"
  bottom: "inception_stem2_1x7"
  top: "inception_stem2_1x7"
  scale_param {
    bias_term: true
  }
}
layer {
  name: "inception_stem2_1x7_relu"
  type: "ReLU"
  bottom: "inception_stem2_1x7"
  top: "inception_stem2_1x7"
}
layer {
  name: "inception_stem2_7x1"
  type: "Convolution"
  bottom: "inception_stem2_1x7"
  top: "inception_stem2_7x1"
  convolution_param {
    num_output: 64
    bias_term: false
    stride: 1
    pad_h: 3
    pad_w: 0
    kernel_h: 7
    kernel_w: 1
  }
}
layer {
  name: "inception_stem2_7x1_bn"
  type: "BatchNorm"
  bottom: "inception_stem2_7x1"
  top: "inception_stem2_7x1"
  batch_norm_param {
    use_global_stats: false
    eps: 0.001
  }
}
layer {
  name: "inception_stem2_7x1_scale"
  type: "Scale"
  bottom: "inception_stem2_7x1"
  top: "inception_stem2_7x1"
  scale_param {
    bias_term: true
  }
}
layer {
  name: "inception_stem2_7x1_relu"
  type: "ReLU"
  bottom: "inception_stem2_7x1"
  top: "inception_stem2_7x1"
}
layer {
  name: "inception_stem2_3x3_2"
  type: "Convolution"
  bottom: "inception_stem2_7x1"
  top: "inception_stem2_3x3_2"
  convolution_param {
    num_output: 96
    bias_term: false
    pad: 0
    kernel_size: 3
    stride: 1
  }
}
layer {
  name: "inception_stem2_3x3_2_bn"
  type: "BatchNorm"
  bottom: "inception_stem2_3x3_2"
  top: "inception_stem2_3x3_2"
  batch_norm_param {
    use_global_stats: false
    eps: 0.001
  }
}
layer {
  name: "inception_stem2_3x3_2_scale"
  type: "Scale"
  bottom: "inception_stem2_3x3_2"
  top: "inception_stem2_3x3_2"
  scale_param {
    bias_term: true
  }
}
layer {
  name: "inception_stem2_3x3_2_relu"
  type: "ReLU"
  bottom: "inception_stem2_3x3_2"
  top: "inception_stem2_3x3_2"
}
layer {
  name: "inception_stem2"
  type: "Concat"
  bottom: "inception_stem2_3x3"
  bottom: "inception_stem2_3x3_2"
  top: "inception_stem2"
}
layer {
  name: "inception_stem3_3x3_s2"
  type: "Convolution"
  bottom: "inception_stem2"
  top: "inception_stem3_3x3_s2"
  convolution_param {
    num_output: 192
    bias_term: false
    pad: 0
    kernel_size: 3
    stride: 2
  }
}
layer {
  name: "inception_stem3_3x3_s2_bn"
  type: "BatchNorm"
  bottom: "inception_stem3_3x3_s2"
  top: "inception_stem3_3x3_s2"
  batch_norm_param {
    use_global_stats: false
    eps: 0.001
  }
}
layer {
  name: "inception_stem3_3x3_s2_scale"
  type: "Scale"
  bottom: "inception_stem3_3x3_s2"
  top: "inception_stem3_3x3_s2"
  scale_param {
    bias_term: true
  }
}
layer {
  name: "inception_stem3_3x3_s2_relu"
  type: "ReLU"
  bottom: "inception_stem3_3x3_s2"
  top: "inception_stem3_3x3_s2"
}
layer {
  name: "inception_stem3_pool"
  type: "Pooling"
  bottom: "inception_stem2"
  top: "inception_stem3_pool"
  pooling_param {
    pool: MAX
    kernel_size: 3
    stride: 2
  }
}
layer {
  name: "inception_stem3"
  type: "Concat"
  bottom: "inception_stem3_3x3_s2"
  bottom: "inception_stem3_pool"
  top: "inception_stem3"
}
layer {
  name: "inception_a1_1x1_2"
  type: "Convolution"
  bottom: "inception_stem3"
  top: "inception_a1_1x1_2"
  convolution_param {
    num_output: 96
    bias_term: false
    pad: 0
    kernel_size: 1
    stride: 1
  }
}
layer {
  name: "inception_a1_1x1_2_bn"
  type: "BatchNorm"
  bottom: "inception_a1_1x1_2"
  top: "inception_a1_1x1_2"
  batch_norm_param {
    use_global_stats: false
    eps: 0.001
  }
}
layer {
  name: "inception_a1_1x1_2_scale"
  type: "Scale"
  bottom: "inception_a1_1x1_2"
  top: "inception_a1_1x1_2"
  scale_param {
    bias_term: true
  }
}
layer {
  name: "inception_a1_1x1_2_relu"
  type: "ReLU"
  bottom: "inception_a1_1x1_2"
  top: "inception_a1_1x1_2"
}
layer {
  name: "inception_a1_3x3_reduce"
  type: "Convolution"
  bottom: "inception_stem3"
  top: "inception_a1_3x3_reduce"
  convolution_param {
    num_output: 64
    bias_term: false
    pad: 0
    kernel_size: 1
    stride: 1
  }
}
layer {
  name: "inception_a1_3x3_reduce_bn"
  type: "BatchNorm"
  bottom: "inception_a1_3x3_reduce"
  top: "inception_a1_3x3_reduce"
  batch_norm_param {
    use_global_stats: false
    eps: 0.001
  }
}
layer {
  name: "inception_a1_3x3_reduce_scale"
  type: "Scale"
  bottom: "inception_a1_3x3_reduce"
  top: "inception_a1_3x3_reduce"
  scale_param {
    bias_term: true
  }
}
layer {
  name: "inception_a1_3x3_reduce_relu"
  type: "ReLU"
  bottom: "inception_a1_3x3_reduce"
  top: "inception_a1_3x3_reduce"
}
layer {
  name: "inception_a1_3x3"
  type: "Convolution"
  bottom: "inception_a1_3x3_reduce"
  top: "inception_a1_3x3"
  convolution_param {
    num_output: 96
    bias_term: false
    pad: 1
    kernel_size: 3
    stride: 1
  }
}
layer {
  name: "inception_a1_3x3_bn"
  type: "BatchNorm"
  bottom: "inception_a1_3x3"
  top: "inception_a1_3x3"
  batch_norm_param {
    use_global_stats: false
    eps: 0.001
  }
}
layer {
  name: "inception_a1_3x3_scale"
  type: "Scale"
  bottom: "inception_a1_3x3"
  top: "inception_a1_3x3"
  scale_param {
    bias_term: true
  }
}
layer {
  name: "inception_a1_3x3_relu"
  type: "ReLU"
  bottom: "inception_a1_3x3"
  top: "inception_a1_3x3"
}
layer {
  name: "inception_a1_3x3_2_reduce"
  type: "Convolution"
  bottom: "inception_stem3"
  top: "inception_a1_3x3_2_reduce"
  convolution_param {
    num_output: 64
    bias_term: false
    pad: 0
    kernel_size: 1
    stride: 1
  }
}
layer {
  name: "inception_a1_3x3_2_reduce_bn"
  type: "BatchNorm"
  bottom: "inception_a1_3x3_2_reduce"
  top: "inception_a1_3x3_2_reduce"
  batch_norm_param {
    use_global_stats: false
    eps: 0.001
  }
}
layer {
  name: "inception_a1_3x3_2_reduce_scale"
  type: "Scale"
  bottom: "inception_a1_3x3_2_reduce"
  top: "inception_a1_3x3_2_reduce"
  scale_param {
    bias_term: true
  }
}
layer {
  name: "inception_a1_3x3_2_reduce_relu"
  type: "ReLU"
  bottom: "inception_a1_3x3_2_reduce"
  top: "inception_a1_3x3_2_reduce"
}
layer {
  name: "inception_a1_3x3_2"
  type: "Convolution"
  bottom: "inception_a1_3x3_2_reduce"
  top: "inception_a1_3x3_2"
  convolution_param {
    num_output: 96
    bias_term: false
    pad: 1
    kernel_size: 3
    stride: 1
  }
}
layer {
  name: "inception_a1_3x3_2_bn"
  type: "BatchNorm"
  bottom: "inception_a1_3x3_2"
  top: "inception_a1_3x3_2"
  batch_norm_param {
    use_global_stats: false
    eps: 0.001
  }
}
layer {
  name: "inception_a1_3x3_2_scale"
  type: "Scale"
  bottom: "inception_a1_3x3_2"
  top: "inception_a1_3x3_2"
  scale_param {
    bias_term: true
  }
}
layer {
  name: "inception_a1_3x3_2_relu"
  type: "ReLU"
  bottom: "inception_a1_3x3_2"
  top: "inception_a1_3x3_2"
}
layer {
  name: "inception_a1_3x3_3"
  type: "Convolution"
  bottom: "inception_a1_3x3_2"
  top: "inception_a1_3x3_3"
  convolution_param {
    num_output: 96
    bias_term: false
    pad: 1
    kernel_size: 3
    stride: 1
  }
}
layer {
  name: "inception_a1_3x3_3_bn"
  type: "BatchNorm"
  bottom: "inception_a1_3x3_3"
  top: "inception_a1_3x3_3"
  batch_norm_param {
    use_global_stats: false
    eps: 0.001
  }
}
layer {
  name: "inception_a1_3x3_3_scale"
  type: "Scale"
  bottom: "inception_a1_3x3_3"
  top: "inception_a1_3x3_3"
  scale_param {
    bias_term: true
  }
}
layer {
  name: "inception_a1_3x3_3_relu"
  type: "ReLU"
  bottom: "inception_a1_3x3_3"
  top: "inception_a1_3x3_3"
}
layer {
  name: "inception_a1_pool_ave"
  type: "Pooling"
  bottom: "inception_stem3"
  top: "inception_a1_pool_ave"
  pooling_param {
    pool: AVE
    kernel_size: 3
    stride: 1
    pad: 1
  }
}
layer {
  name: "inception_a1_1x1"
  type: "Convolution"
  bottom: "inception_a1_pool_ave"
  top: "inception_a1_1x1"
  convolution_param {
    num_output: 96
    bias_term: false
    pad: 0
    kernel_size: 1
    stride: 1
  }
}
layer {
  name: "inception_a1_1x1_bn"
  type: "BatchNorm"
  bottom: "inception_a1_1x1"
  top: "inception_a1_1x1"
  batch_norm_param {
    use_global_stats: false
    eps: 0.001
  }
}
layer {
  name: "inception_a1_1x1_scale"
  type: "Scale"
  bottom: "inception_a1_1x1"
  top: "inception_a1_1x1"
  scale_param {
    bias_term: true
  }
}
layer {
  name: "inception_a1_1x1_relu"
  type: "ReLU"
  bottom: "inception_a1_1x1"
  top: "inception_a1_1x1"
}
layer {
  name: "inception_a1_concat"
  type: "Concat"
  bottom: "inception_a1_1x1_2"
  bottom: "inception_a1_3x3"
  bottom: "inception_a1_3x3_3"
  bottom: "inception_a1_1x1"
  top: "inception_a1_concat"
}
layer {
  name: "inception_a2_1x1_2"
  type: "Convolution"
  bottom: "inception_a1_concat"
  top: "inception_a2_1x1_2"
  convolution_param {
    num_output: 96
    bias_term: false
    pad: 0
    kernel_size: 1
    stride: 1
  }
}
layer {
  name: "inception_a2_1x1_2_bn"
  type: "BatchNorm"
  bottom: "inception_a2_1x1_2"
  top: "inception_a2_1x1_2"
  batch_norm_param {
    use_global_stats: false
    eps: 0.001
  }
}
layer {
  name: "inception_a2_1x1_2_scale"
  type: "Scale"
  bottom: "inception_a2_1x1_2"
  top: "inception_a2_1x1_2"
  scale_param {
    bias_term: true
  }
}
layer {
  name: "inception_a2_1x1_2_relu"
  type: "ReLU"
  bottom: "inception_a2_1x1_2"
  top: "inception_a2_1x1_2"
}
layer {
  name: "inception_a2_3x3_reduce"
  type: "Convolution"
  bottom: "inception_a1_concat"
  top: "inception_a2_3x3_reduce"
  convolution_param {
    num_output: 64
    bias_term: false
    pad: 0
    kernel_size: 1
    stride: 1
  }
}
layer {
  name: "inception_a2_3x3_reduce_bn"
  type: "BatchNorm"
  bottom: "inception_a2_3x3_reduce"
  top: "inception_a2_3x3_reduce"
  batch_norm_param {
    use_global_stats: false
    eps: 0.001
  }
}
layer {
  name: "inception_a2_3x3_reduce_scale"
  type: "Scale"
  bottom: "inception_a2_3x3_reduce"
  top: "inception_a2_3x3_reduce"
  scale_param {
    bias_term: true
  }
}
layer {
  name: "inception_a2_3x3_reduce_relu"
  type: "ReLU"
  bottom: "inception_a2_3x3_reduce"
  top: "inception_a2_3x3_reduce"
}
layer {
  name: "inception_a2_3x3"
  type: "Convolution"
  bottom: "inception_a2_3x3_reduce"
  top: "inception_a2_3x3"
  convolution_param {
    num_output: 96
    bias_term: false
    pad: 1
    kernel_size: 3
    stride: 1
  }
}
layer {
  name: "inception_a2_3x3_bn"
  type: "BatchNorm"
  bottom: "inception_a2_3x3"
  top: "inception_a2_3x3"
  batch_norm_param {
    use_global_stats: false
    eps: 0.001
  }
}
layer {
  name: "inception_a2_3x3_scale"
  type: "Scale"
  bottom: "inception_a2_3x3"
  top: "inception_a2_3x3"
  scale_param {
    bias_term: true
  }
}
layer {
  name: "inception_a2_3x3_relu"
  type: "ReLU"
  bottom: "inception_a2_3x3"
  top: "inception_a2_3x3"
}
layer {
  name: "inception_a2_3x3_2_reduce"
  type: "Convolution"
  bottom: "inception_a1_concat"
  top: "inception_a2_3x3_2_reduce"
  convolution_param {
    num_output: 64
    bias_term: false
    pad: 0
    kernel_size: 1
    stride: 1
  }
}
layer {
  name: "inception_a2_3x3_2_reduce_bn"
  type: "BatchNorm"
  bottom: "inception_a2_3x3_2_reduce"
  top: "inception_a2_3x3_2_reduce"
  batch_norm_param {
    use_global_stats: false
    eps: 0.001
  }
}
layer {
  name: "inception_a2_3x3_2_reduce_scale"
  type: "Scale"
  bottom: "inception_a2_3x3_2_reduce"
  top: "inception_a2_3x3_2_reduce"
  scale_param {
    bias_term: true
  }
}
layer {
  name: "inception_a2_3x3_2_reduce_relu"
  type: "ReLU"
  bottom: "inception_a2_3x3_2_reduce"
  top: "inception_a2_3x3_2_reduce"
}
layer {
  name: "inception_a2_3x3_2"
  type: "Convolution"
  bottom: "inception_a2_3x3_2_reduce"
  top: "inception_a2_3x3_2"
  convolution_param {
    num_output: 96
    bias_term: false
    pad: 1
    kernel_size: 3
    stride: 1
  }
}
layer {
  name: "inception_a2_3x3_2_bn"
  type: "BatchNorm"
  bottom: "inception_a2_3x3_2"
  top: "inception_a2_3x3_2"
  batch_norm_param {
    use_global_stats: false
    eps: 0.001
  }
}
layer {
  name: "inception_a2_3x3_2_scale"
  type: "Scale"
  bottom: "inception_a2_3x3_2"
  top: "inception_a2_3x3_2"
  scale_param {
    bias_term: true
  }
}
layer {
  name: "inception_a2_3x3_2_relu"
  type: "ReLU"
  bottom: "inception_a2_3x3_2"
  top: "inception_a2_3x3_2"
}
layer {
  name: "inception_a2_3x3_3"
  type: "Convolution"
  bottom: "inception_a2_3x3_2"
  top: "inception_a2_3x3_3"
  convolution_param {
    num_output: 96
    bias_term: false
    pad: 1
    kernel_size: 3
    stride: 1
  }
}
layer {
  name: "inception_a2_3x3_3_bn"
  type: "BatchNorm"
  bottom: "inception_a2_3x3_3"
  top: "inception_a2_3x3_3"
  batch_norm_param {
    use_global_stats: false
    eps: 0.001
  }
}
layer {
  name: "inception_a2_3x3_3_scale"
  type: "Scale"
  bottom: "inception_a2_3x3_3"
  top: "inception_a2_3x3_3"
  scale_param {
    bias_term: true
  }
}
layer {
  name: "inception_a2_3x3_3_relu"
  type: "ReLU"
  bottom: "inception_a2_3x3_3"
  top: "inception_a2_3x3_3"
}
layer {
  name: "inception_a2_pool_ave"
  type: "Pooling"
  bottom: "inception_a1_concat"
  top: "inception_a2_pool_ave"
  pooling_param {
    pool: AVE
    kernel_size: 3
    stride: 1
    pad: 1
  }
}
layer {
  name: "inception_a2_1x1"
  type: "Convolution"
  bottom: "inception_a2_pool_ave"
  top: "inception_a2_1x1"
  convolution_param {
    num_output: 96
    bias_term: false
    pad: 0
    kernel_size: 1
    stride: 1
  }
}
layer {
  name: "inception_a2_1x1_bn"
  type: "BatchNorm"
  bottom: "inception_a2_1x1"
  top: "inception_a2_1x1"
  batch_norm_param {
    use_global_stats: false
    eps: 0.001
  }
}
layer {
  name: "inception_a2_1x1_scale"
  type: "Scale"
  bottom: "inception_a2_1x1"
  top: "inception_a2_1x1"
  scale_param {
    bias_term: true
  }
}
layer {
  name: "inception_a2_1x1_relu"
  type: "ReLU"
  bottom: "inception_a2_1x1"
  top: "inception_a2_1x1"
}
layer {
  name: "inception_a2_concat"
  type: "Concat"
  bottom: "inception_a2_1x1_2"
  bottom: "inception_a2_3x3"
  bottom: "inception_a2_3x3_3"
  bottom: "inception_a2_1x1"
  top: "inception_a2_concat"
}
layer {
  name: "inception_a3_1x1_2"
  type: "Convolution"
  bottom: "inception_a2_concat"
  top: "inception_a3_1x1_2"
  convolution_param {
    num_output: 96
    bias_term: false
    pad: 0
    kernel_size: 1
    stride: 1
  }
}
layer {
  name: "inception_a3_1x1_2_bn"
  type: "BatchNorm"
  bottom: "inception_a3_1x1_2"
  top: "inception_a3_1x1_2"
  batch_norm_param {
    use_global_stats: false
    eps: 0.001
  }
}
layer {
  name: "inception_a3_1x1_2_scale"
  type: "Scale"
  bottom: "inception_a3_1x1_2"
  top: "inception_a3_1x1_2"
  scale_param {
    bias_term: true
  }
}
layer {
  name: "inception_a3_1x1_2_relu"
  type: "ReLU"
  bottom: "inception_a3_1x1_2"
  top: "inception_a3_1x1_2"
}
layer {
  name: "inception_a3_3x3_reduce"
  type: "Convolution"
  bottom: "inception_a2_concat"
  top: "inception_a3_3x3_reduce"
  convolution_param {
    num_output: 64
    bias_term: false
    pad: 0
    kernel_size: 1
    stride: 1
  }
}
layer {
  name: "inception_a3_3x3_reduce_bn"
  type: "BatchNorm"
  bottom: "inception_a3_3x3_reduce"
  top: "inception_a3_3x3_reduce"
  batch_norm_param {
    use_global_stats: false
    eps: 0.001
  }
}
layer {
  name: "inception_a3_3x3_reduce_scale"
  type: "Scale"
  bottom: "inception_a3_3x3_reduce"
  top: "inception_a3_3x3_reduce"
  scale_param {
    bias_term: true
  }
}
layer {
  name: "inception_a3_3x3_reduce_relu"
  type: "ReLU"
  bottom: "inception_a3_3x3_reduce"
  top: "inception_a3_3x3_reduce"
}
layer {
  name: "inception_a3_3x3"
  type: "Convolution"
  bottom: "inception_a3_3x3_reduce"
  top: "inception_a3_3x3"
  convolution_param {
    num_output: 96
    bias_term: false
    pad: 1
    kernel_size: 3
    stride: 1
  }
}
layer {
  name: "inception_a3_3x3_bn"
  type: "BatchNorm"
  bottom: "inception_a3_3x3"
  top: "inception_a3_3x3"
  batch_norm_param {
    use_global_stats: false
    eps: 0.001
  }
}
layer {
  name: "inception_a3_3x3_scale"
  type: "Scale"
  bottom: "inception_a3_3x3"
  top: "inception_a3_3x3"
  scale_param {
    bias_term: true
  }
}
layer {
  name: "inception_a3_3x3_relu"
  type: "ReLU"
  bottom: "inception_a3_3x3"
  top: "inception_a3_3x3"
}
layer {
  name: "inception_a3_3x3_2_reduce"
  type: "Convolution"
  bottom: "inception_a2_concat"
  top: "inception_a3_3x3_2_reduce"
  convolution_param {
    num_output: 64
    bias_term: false
    pad: 0
    kernel_size: 1
    stride: 1
  }
}
layer {
  name: "inception_a3_3x3_2_reduce_bn"
  type: "BatchNorm"
  bottom: "inception_a3_3x3_2_reduce"
  top: "inception_a3_3x3_2_reduce"
  batch_norm_param {
    use_global_stats: false
    eps: 0.001
  }
}
layer {
  name: "inception_a3_3x3_2_reduce_scale"
  type: "Scale"
  bottom: "inception_a3_3x3_2_reduce"
  top: "inception_a3_3x3_2_reduce"
  scale_param {
    bias_term: true
  }
}
layer {
  name: "inception_a3_3x3_2_reduce_relu"
  type: "ReLU"
  bottom: "inception_a3_3x3_2_reduce"
  top: "inception_a3_3x3_2_reduce"
}
layer {
  name: "inception_a3_3x3_2"
  type: "Convolution"
  bottom: "inception_a3_3x3_2_reduce"
  top: "inception_a3_3x3_2"
  convolution_param {
    num_output: 96
    bias_term: false
    pad: 1
    kernel_size: 3
    stride: 1
  }
}
layer {
  name: "inception_a3_3x3_2_bn"
  type: "BatchNorm"
  bottom: "inception_a3_3x3_2"
  top: "inception_a3_3x3_2"
  batch_norm_param {
    use_global_stats: false
    eps: 0.001
  }
}
layer {
  name: "inception_a3_3x3_2_scale"
  type: "Scale"
  bottom: "inception_a3_3x3_2"
  top: "inception_a3_3x3_2"
  scale_param {
    bias_term: true
  }
}
layer {
  name: "inception_a3_3x3_2_relu"
  type: "ReLU"
  bottom: "inception_a3_3x3_2"
  top: "inception_a3_3x3_2"
}
layer {
  name: "inception_a3_3x3_3"
  type: "Convolution"
  bottom: "inception_a3_3x3_2"
  top: "inception_a3_3x3_3"
  convolution_param {
    num_output: 96
    bias_term: false
    pad: 1
    kernel_size: 3
    stride: 1
  }
}
layer {
  name: "inception_a3_3x3_3_bn"
  type: "BatchNorm"
  bottom: "inception_a3_3x3_3"
  top: "inception_a3_3x3_3"
  batch_norm_param {
    use_global_stats: false
    eps: 0.001
  }
}
layer {
  name: "inception_a3_3x3_3_scale"
  type: "Scale"
  bottom: "inception_a3_3x3_3"
  top: "inception_a3_3x3_3"
  scale_param {
    bias_term: true
  }
}
layer {
  name: "inception_a3_3x3_3_relu"
  type: "ReLU"
  bottom: "inception_a3_3x3_3"
  top: "inception_a3_3x3_3"
}
layer {
  name: "inception_a3_pool_ave"
  type: "Pooling"
  bottom: "inception_a2_concat"
  top: "inception_a3_pool_ave"
  pooling_param {
    pool: AVE
    kernel_size: 3
    stride: 1
    pad: 1
  }
}
layer {
  name: "inception_a3_1x1"
  type: "Convolution"
  bottom: "inception_a3_pool_ave"
  top: "inception_a3_1x1"
  convolution_param {
    num_output: 96
    bias_term: false
    pad: 0
    kernel_size: 1
    stride: 1
  }
}
layer {
  name: "inception_a3_1x1_bn"
  type: "BatchNorm"
  bottom: "inception_a3_1x1"
  top: "inception_a3_1x1"
  batch_norm_param {
    use_global_stats: false
    eps: 0.001
  }
}
layer {
  name: "inception_a3_1x1_scale"
  type: "Scale"
  bottom: "inception_a3_1x1"
  top: "inception_a3_1x1"
  scale_param {
    bias_term: true
  }
}
layer {
  name: "inception_a3_1x1_relu"
  type: "ReLU"
  bottom: "inception_a3_1x1"
  top: "inception_a3_1x1"
}
layer {
  name: "inception_a3_concat"
  type: "Concat"
  bottom: "inception_a3_1x1_2"
  bottom: "inception_a3_3x3"
  bottom: "inception_a3_3x3_3"
  bottom: "inception_a3_1x1"
  top: "inception_a3_concat"
}
layer {
  name: "inception_a4_1x1_2"
  type: "Convolution"
  bottom: "inception_a3_concat"
  top: "inception_a4_1x1_2"
  convolution_param {
    num_output: 96
    bias_term: false
    pad: 0
    kernel_size: 1
    stride: 1
  }
}
layer {
  name: "inception_a4_1x1_2_bn"
  type: "BatchNorm"
  bottom: "inception_a4_1x1_2"
  top: "inception_a4_1x1_2"
  batch_norm_param {
    use_global_stats: false
    eps: 0.001
  }
}
layer {
  name: "inception_a4_1x1_2_scale"
  type: "Scale"
  bottom: "inception_a4_1x1_2"
  top: "inception_a4_1x1_2"
  scale_param {
    bias_term: true
  }
}
layer {
  name: "inception_a4_1x1_2_relu"
  type: "ReLU"
  bottom: "inception_a4_1x1_2"
  top: "inception_a4_1x1_2"
}
layer {
  name: "inception_a4_3x3_reduce"
  type: "Convolution"
  bottom: "inception_a3_concat"
  top: "inception_a4_3x3_reduce"
  convolution_param {
    num_output: 64
    bias_term: false
    pad: 0
    kernel_size: 1
    stride: 1
  }
}
layer {
  name: "inception_a4_3x3_reduce_bn"
  type: "BatchNorm"
  bottom: "inception_a4_3x3_reduce"
  top: "inception_a4_3x3_reduce"
  batch_norm_param {
    use_global_stats: false
    eps: 0.001
  }
}
layer {
  name: "inception_a4_3x3_reduce_scale"
  type: "Scale"
  bottom: "inception_a4_3x3_reduce"
  top: "inception_a4_3x3_reduce"
  scale_param {
    bias_term: true
  }
}
layer {
  name: "inception_a4_3x3_reduce_relu"
  type: "ReLU"
  bottom: "inception_a4_3x3_reduce"
  top: "inception_a4_3x3_reduce"
}
layer {
  name: "inception_a4_3x3"
  type: "Convolution"
  bottom: "inception_a4_3x3_reduce"
  top: "inception_a4_3x3"
  convolution_param {
    num_output: 96
    bias_term: false
    pad: 1
    kernel_size: 3
    stride: 1
  }
}
layer {
  name: "inception_a4_3x3_bn"
  type: "BatchNorm"
  bottom: "inception_a4_3x3"
  top: "inception_a4_3x3"
  batch_norm_param {
    use_global_stats: false
    eps: 0.001
  }
}
layer {
  name: "inception_a4_3x3_scale"
  type: "Scale"
  bottom: "inception_a4_3x3"
  top: "inception_a4_3x3"
  scale_param {
    bias_term: true
  }
}
layer {
  name: "inception_a4_3x3_relu"
  type: "ReLU"
  bottom: "inception_a4_3x3"
  top: "inception_a4_3x3"
}
layer {
  name: "inception_a4_3x3_2_reduce"
  type: "Convolution"
  bottom: "inception_a3_concat"
  top: "inception_a4_3x3_2_reduce"
  convolution_param {
    num_output: 64
    bias_term: false
    pad: 0
    kernel_size: 1
    stride: 1
  }
}
layer {
  name: "inception_a4_3x3_2_reduce_bn"
  type: "BatchNorm"
  bottom: "inception_a4_3x3_2_reduce"
  top: "inception_a4_3x3_2_reduce"
  batch_norm_param {
    use_global_stats: false
    eps: 0.001
  }
}
layer {
  name: "inception_a4_3x3_2_reduce_scale"
  type: "Scale"
  bottom: "inception_a4_3x3_2_reduce"
  top: "inception_a4_3x3_2_reduce"
  scale_param {
    bias_term: true
  }
}
layer {
  name: "inception_a4_3x3_2_reduce_relu"
  type: "ReLU"
  bottom: "inception_a4_3x3_2_reduce"
  top: "inception_a4_3x3_2_reduce"
}
layer {
  name: "inception_a4_3x3_2"
  type: "Convolution"
  bottom: "inception_a4_3x3_2_reduce"
  top: "inception_a4_3x3_2"
  convolution_param {
    num_output: 96
    bias_term: false
    pad: 1
    kernel_size: 3
    stride: 1
  }
}
layer {
  name: "inception_a4_3x3_2_bn"
  type: "BatchNorm"
  bottom: "inception_a4_3x3_2"
  top: "inception_a4_3x3_2"
  batch_norm_param {
    use_global_stats: false
    eps: 0.001
  }
}
layer {
  name: "inception_a4_3x3_2_scale"
  type: "Scale"
  bottom: "inception_a4_3x3_2"
  top: "inception_a4_3x3_2"
  scale_param {
    bias_term: true
  }
}
layer {
  name: "inception_a4_3x3_2_relu"
  type: "ReLU"
  bottom: "inception_a4_3x3_2"
  top: "inception_a4_3x3_2"
}
layer {
  name: "inception_a4_3x3_3"
  type: "Convolution"
  bottom: "inception_a4_3x3_2"
  top: "inception_a4_3x3_3"
  convolution_param {
    num_output: 96
    bias_term: false
    pad: 1
    kernel_size: 3
    stride: 1
  }
}
layer {
  name: "inception_a4_3x3_3_bn"
  type: "BatchNorm"
  bottom: "inception_a4_3x3_3"
  top: "inception_a4_3x3_3"
  batch_norm_param {
    use_global_stats: false
    eps: 0.001
  }
}
layer {
  name: "inception_a4_3x3_3_scale"
  type: "Scale"
  bottom: "inception_a4_3x3_3"
  top: "inception_a4_3x3_3"
  scale_param {
    bias_term: true
  }
}
layer {
  name: "inception_a4_3x3_3_relu"
  type: "ReLU"
  bottom: "inception_a4_3x3_3"
  top: "inception_a4_3x3_3"
}
layer {
  name: "inception_a4_pool_ave"
  type: "Pooling"
  bottom: "inception_a3_concat"
  top: "inception_a4_pool_ave"
  pooling_param {
    pool: AVE
    kernel_size: 3
    stride: 1
    pad: 1
  }
}
layer {
  name: "inception_a4_1x1"
  type: "Convolution"
  bottom: "inception_a4_pool_ave"
  top: "inception_a4_1x1"
  con
I0110 11:34:45.160462 55253 layer_factory.hpp:77] Creating layer data
I0110 11:34:45.188340 55253 net.cpp:91] Creating Layer data
I0110 11:34:45.188411 55253 net.cpp:399] data -> data
I0110 11:34:45.188491 55253 net.cpp:399] data -> label
I0110 11:34:45.195293 55253 image_data_layer.cpp:38] Opening file /mnt/lustre/yangkunlin/kaggle_camera/data/train_aug.txt
I0110 11:34:45.267423 55253 image_data_layer.cpp:51] Shuffling data
I0110 11:34:45.279659 55253 image_data_layer.cpp:56] A total of 19800 images.
I0110 11:34:46.578665 55253 image_data_layer.cpp:83] output data size: 10,3,299,299
I0110 11:34:46.619271 55253 net.cpp:141] Setting up data
I0110 11:34:46.619315 55253 net.cpp:148] Top shape: 10 3 299 299 (2682030)
I0110 11:34:46.619323 55253 net.cpp:148] Top shape: 10 (10)
I0110 11:34:46.619325 55253 net.cpp:156] Memory required for data: 10728160
I0110 11:34:46.619333 55253 layer_factory.hpp:77] Creating layer conv1_3x3_s2
I0110 11:34:46.619379 55253 net.cpp:91] Creating Layer conv1_3x3_s2
I0110 11:34:46.619390 55253 net.cpp:425] conv1_3x3_s2 <- data
I0110 11:34:46.619407 55253 net.cpp:399] conv1_3x3_s2 -> conv1_3x3_s2
I0110 11:34:47.614933 55253 net.cpp:141] Setting up conv1_3x3_s2
I0110 11:34:47.614979 55253 net.cpp:148] Top shape: 10 32 149 149 (7104320)
I0110 11:34:47.614984 55253 net.cpp:156] Memory required for data: 39145440
I0110 11:34:47.615049 55253 layer_factory.hpp:77] Creating layer conv1_3x3_s2_bn
I0110 11:34:47.627010 55253 net.cpp:91] Creating Layer conv1_3x3_s2_bn
I0110 11:34:47.627043 55253 net.cpp:425] conv1_3x3_s2_bn <- conv1_3x3_s2
I0110 11:34:47.627063 55253 net.cpp:386] conv1_3x3_s2_bn -> conv1_3x3_s2 (in-place)
I0110 11:34:47.657337 55253 net.cpp:141] Setting up conv1_3x3_s2_bn
I0110 11:34:47.657354 55253 net.cpp:148] Top shape: 10 32 149 149 (7104320)
I0110 11:34:47.657377 55253 net.cpp:156] Memory required for data: 67562720
I0110 11:34:47.657389 55253 layer_factory.hpp:77] Creating layer conv1_3x3_s2_scale
I0110 11:34:47.657449 55253 net.cpp:91] Creating Layer conv1_3x3_s2_scale
I0110 11:34:47.657457 55253 net.cpp:425] conv1_3x3_s2_scale <- conv1_3x3_s2
I0110 11:34:47.657464 55253 net.cpp:386] conv1_3x3_s2_scale -> conv1_3x3_s2 (in-place)
I0110 11:34:47.657524 55253 layer_factory.hpp:77] Creating layer conv1_3x3_s2_scale
I0110 11:34:47.657727 55253 net.cpp:141] Setting up conv1_3x3_s2_scale
I0110 11:34:47.657739 55253 net.cpp:148] Top shape: 10 32 149 149 (7104320)
I0110 11:34:47.657742 55253 net.cpp:156] Memory required for data: 95980000
I0110 11:34:47.657752 55253 layer_factory.hpp:77] Creating layer conv1_3x3_s2_relu
I0110 11:34:47.657764 55253 net.cpp:91] Creating Layer conv1_3x3_s2_relu
I0110 11:34:47.657769 55253 net.cpp:425] conv1_3x3_s2_relu <- conv1_3x3_s2
I0110 11:34:47.657775 55253 net.cpp:386] conv1_3x3_s2_relu -> conv1_3x3_s2 (in-place)
I0110 11:34:47.658747 55253 net.cpp:141] Setting up conv1_3x3_s2_relu
I0110 11:34:47.658759 55253 net.cpp:148] Top shape: 10 32 149 149 (7104320)
I0110 11:34:47.658763 55253 net.cpp:156] Memory required for data: 124397280
I0110 11:34:47.658785 55253 layer_factory.hpp:77] Creating layer conv2_3x3_s1
I0110 11:34:47.658798 55253 net.cpp:91] Creating Layer conv2_3x3_s1
I0110 11:34:47.658802 55253 net.cpp:425] conv2_3x3_s1 <- conv1_3x3_s2
I0110 11:34:47.658808 55253 net.cpp:399] conv2_3x3_s1 -> conv2_3x3_s1
I0110 11:34:47.661785 55253 net.cpp:141] Setting up conv2_3x3_s1
I0110 11:34:47.661800 55253 net.cpp:148] Top shape: 10 32 147 147 (6914880)
I0110 11:34:47.661804 55253 net.cpp:156] Memory required for data: 152056800
I0110 11:34:47.661811 55253 layer_factory.hpp:77] Creating layer conv2_3x3_s1_bn
I0110 11:34:47.661820 55253 net.cpp:91] Creating Layer conv2_3x3_s1_bn
I0110 11:34:47.661823 55253 net.cpp:425] conv2_3x3_s1_bn <- conv2_3x3_s1
I0110 11:34:47.661829 55253 net.cpp:386] conv2_3x3_s1_bn -> conv2_3x3_s1 (in-place)
I0110 11:34:47.662019 55253 net.cpp:141] Setting up conv2_3x3_s1_bn
I0110 11:34:47.662048 55253 net.cpp:148] Top shape: 10 32 147 147 (6914880)
I0110 11:34:47.662055 55253 net.cpp:156] Memory required for data: 179716320
I0110 11:34:47.662082 55253 layer_factory.hpp:77] Creating layer conv2_3x3_s1_scale
I0110 11:34:47.662093 55253 net.cpp:91] Creating Layer conv2_3x3_s1_scale
I0110 11:34:47.662098 55253 net.cpp:425] conv2_3x3_s1_scale <- conv2_3x3_s1
I0110 11:34:47.662103 55253 net.cpp:386] conv2_3x3_s1_scale -> conv2_3x3_s1 (in-place)
I0110 11:34:47.662158 55253 layer_factory.hpp:77] Creating layer conv2_3x3_s1_scale
I0110 11:34:47.662300 55253 net.cpp:141] Setting up conv2_3x3_s1_scale
I0110 11:34:47.662310 55253 net.cpp:148] Top shape: 10 32 147 147 (6914880)
I0110 11:34:47.662313 55253 net.cpp:156] Memory required for data: 207375840
I0110 11:34:47.662320 55253 layer_factory.hpp:77] Creating layer conv2_3x3_s1_relu
I0110 11:34:47.662331 55253 net.cpp:91] Creating Layer conv2_3x3_s1_relu
I0110 11:34:47.662335 55253 net.cpp:425] conv2_3x3_s1_relu <- conv2_3x3_s1
I0110 11:34:47.662341 55253 net.cpp:386] conv2_3x3_s1_relu -> conv2_3x3_s1 (in-place)
I0110 11:34:47.663216 55253 net.cpp:141] Setting up conv2_3x3_s1_relu
I0110 11:34:47.663230 55253 net.cpp:148] Top shape: 10 32 147 147 (6914880)
I0110 11:34:47.663250 55253 net.cpp:156] Memory required for data: 235035360
I0110 11:34:47.663256 55253 layer_factory.hpp:77] Creating layer conv3_3x3_s1
I0110 11:34:47.663266 55253 net.cpp:91] Creating Layer conv3_3x3_s1
I0110 11:34:47.663270 55253 net.cpp:425] conv3_3x3_s1 <- conv2_3x3_s1
I0110 11:34:47.663308 55253 net.cpp:399] conv3_3x3_s1 -> conv3_3x3_s1
I0110 11:34:47.664000 55253 net.cpp:141] Setting up conv3_3x3_s1
I0110 11:34:47.664011 55253 net.cpp:148] Top shape: 10 64 147 147 (13829760)
I0110 11:34:47.664016 55253 net.cpp:156] Memory required for data: 290354400
I0110 11:34:47.664021 55253 layer_factory.hpp:77] Creating layer conv3_3x3_s1_bn
I0110 11:34:47.664052 55253 net.cpp:91] Creating Layer conv3_3x3_s1_bn
I0110 11:34:47.664057 55253 net.cpp:425] conv3_3x3_s1_bn <- conv3_3x3_s1
I0110 11:34:47.664063 55253 net.cpp:386] conv3_3x3_s1_bn -> conv3_3x3_s1 (in-place)
I0110 11:34:47.664263 55253 net.cpp:141] Setting up conv3_3x3_s1_bn
I0110 11:34:47.664271 55253 net.cpp:148] Top shape: 10 64 147 147 (13829760)
I0110 11:34:47.664275 55253 net.cpp:156] Memory required for data: 345673440
I0110 11:34:47.664283 55253 layer_factory.hpp:77] Creating layer conv3_3x3_s1_scale
I0110 11:34:47.664290 55253 net.cpp:91] Creating Layer conv3_3x3_s1_scale
I0110 11:34:47.664294 55253 net.cpp:425] conv3_3x3_s1_scale <- conv3_3x3_s1
I0110 11:34:47.664299 55253 net.cpp:386] conv3_3x3_s1_scale -> conv3_3x3_s1 (in-place)
I0110 11:34:47.664333 55253 layer_factory.hpp:77] Creating layer conv3_3x3_s1_scale
I0110 11:34:47.664453 55253 net.cpp:141] Setting up conv3_3x3_s1_scale
I0110 11:34:47.664461 55253 net.cpp:148] Top shape: 10 64 147 147 (13829760)
I0110 11:34:47.664464 55253 net.cpp:156] Memory required for data: 400992480
I0110 11:34:47.664474 55253 layer_factory.hpp:77] Creating layer conv3_3x3_s1_relu
I0110 11:34:47.664484 55253 net.cpp:91] Creating Layer conv3_3x3_s1_relu
I0110 11:34:47.664487 55253 net.cpp:425] conv3_3x3_s1_relu <- conv3_3x3_s1
I0110 11:34:47.664492 55253 net.cpp:386] conv3_3x3_s1_relu -> conv3_3x3_s1 (in-place)
I0110 11:34:47.665439 55253 net.cpp:141] Setting up conv3_3x3_s1_relu
I0110 11:34:47.665472 55253 net.cpp:148] Top shape: 10 64 147 147 (13829760)
I0110 11:34:47.665493 55253 net.cpp:156] Memory required for data: 456311520
I0110 11:34:47.665499 55253 layer_factory.hpp:77] Creating layer conv3_3x3_s1_conv3_3x3_s1_relu_0_split
I0110 11:34:47.665547 55253 net.cpp:91] Creating Layer conv3_3x3_s1_conv3_3x3_s1_relu_0_split
I0110 11:34:47.665556 55253 net.cpp:425] conv3_3x3_s1_conv3_3x3_s1_relu_0_split <- conv3_3x3_s1
I0110 11:34:47.665563 55253 net.cpp:399] conv3_3x3_s1_conv3_3x3_s1_relu_0_split -> conv3_3x3_s1_conv3_3x3_s1_relu_0_split_0
I0110 11:34:47.665570 55253 net.cpp:399] conv3_3x3_s1_conv3_3x3_s1_relu_0_split -> conv3_3x3_s1_conv3_3x3_s1_relu_0_split_1
I0110 11:34:47.665630 55253 net.cpp:141] Setting up conv3_3x3_s1_conv3_3x3_s1_relu_0_split
I0110 11:34:47.665642 55253 net.cpp:148] Top shape: 10 64 147 147 (13829760)
I0110 11:34:47.665645 55253 net.cpp:148] Top shape: 10 64 147 147 (13829760)
I0110 11:34:47.665648 55253 net.cpp:156] Memory required for data: 566949600
I0110 11:34:47.665652 55253 layer_factory.hpp:77] Creating layer inception_stem1_3x3_s2
I0110 11:34:47.665662 55253 net.cpp:91] Creating Layer inception_stem1_3x3_s2
I0110 11:34:47.665665 55253 net.cpp:425] inception_stem1_3x3_s2 <- conv3_3x3_s1_conv3_3x3_s1_relu_0_split_0
I0110 11:34:47.665673 55253 net.cpp:399] inception_stem1_3x3_s2 -> inception_stem1_3x3_s2
I0110 11:34:47.668131 55253 net.cpp:141] Setting up inception_stem1_3x3_s2
I0110 11:34:47.668181 55253 net.cpp:148] Top shape: 10 96 73 73 (5115840)
I0110 11:34:47.668187 55253 net.cpp:156] Memory required for data: 587412960
I0110 11:34:47.668198 55253 layer_factory.hpp:77] Creating layer inception_stem1_3x3_s2_bn
I0110 11:34:47.668211 55253 net.cpp:91] Creating Layer inception_stem1_3x3_s2_bn
I0110 11:34:47.668216 55253 net.cpp:425] inception_stem1_3x3_s2_bn <- inception_stem1_3x3_s2
I0110 11:34:47.668225 55253 net.cpp:386] inception_stem1_3x3_s2_bn -> inception_stem1_3x3_s2 (in-place)
I0110 11:34:47.668473 55253 net.cpp:141] Setting up inception_stem1_3x3_s2_bn
I0110 11:34:47.668483 55253 net.cpp:148] Top shape: 10 96 73 73 (5115840)
I0110 11:34:47.668485 55253 net.cpp:156] Memory required for data: 607876320
I0110 11:34:47.668494 55253 layer_factory.hpp:77] Creating layer inception_stem1_3x3_s2_scale
I0110 11:34:47.668540 55253 net.cpp:91] Creating Layer inception_stem1_3x3_s2_scale
I0110 11:34:47.668545 55253 net.cpp:425] inception_stem1_3x3_s2_scale <- inception_stem1_3x3_s2
I0110 11:34:47.668551 55253 net.cpp:386] inception_stem1_3x3_s2_scale -> inception_stem1_3x3_s2 (in-place)
I0110 11:34:47.668607 55253 layer_factory.hpp:77] Creating layer inception_stem1_3x3_s2_scale
I0110 11:34:47.668808 55253 net.cpp:141] Setting up inception_stem1_3x3_s2_scale
I0110 11:34:47.668817 55253 net.cpp:148] Top shape: 10 96 73 73 (5115840)
I0110 11:34:47.668819 55253 net.cpp:156] Memory required for data: 628339680
I0110 11:34:47.668836 55253 layer_factory.hpp:77] Creating layer inception_stem1_3x3_s2_relu
I0110 11:34:47.668849 55253 net.cpp:91] Creating Layer inception_stem1_3x3_s2_relu
I0110 11:34:47.668853 55253 net.cpp:425] inception_stem1_3x3_s2_relu <- inception_stem1_3x3_s2
I0110 11:34:47.668864 55253 net.cpp:386] inception_stem1_3x3_s2_relu -> inception_stem1_3x3_s2 (in-place)
I0110 11:34:47.669117 55253 net.cpp:141] Setting up inception_stem1_3x3_s2_relu
I0110 11:34:47.669127 55253 net.cpp:148] Top shape: 10 96 73 73 (5115840)
I0110 11:34:47.669131 55253 net.cpp:156] Memory required for data: 648803040
I0110 11:34:47.669136 55253 layer_factory.hpp:77] Creating layer inception_stem1_pool
I0110 11:34:47.669188 55253 net.cpp:91] Creating Layer inception_stem1_pool
I0110 11:34:47.669196 55253 net.cpp:425] inception_stem1_pool <- conv3_3x3_s1_conv3_3x3_s1_relu_0_split_1
I0110 11:34:47.669203 55253 net.cpp:399] inception_stem1_pool -> inception_stem1_pool
I0110 11:34:47.669286 55253 net.cpp:141] Setting up inception_stem1_pool
I0110 11:34:47.669294 55253 net.cpp:148] Top shape: 10 64 73 73 (3410560)
I0110 11:34:47.669298 55253 net.cpp:156] Memory required for data: 662445280
I0110 11:34:47.669319 55253 layer_factory.hpp:77] Creating layer inception_stem1
I0110 11:34:47.669327 55253 net.cpp:91] Creating Layer inception_stem1
I0110 11:34:47.669330 55253 net.cpp:425] inception_stem1 <- inception_stem1_pool
I0110 11:34:47.669335 55253 net.cpp:425] inception_stem1 <- inception_stem1_3x3_s2
I0110 11:34:47.669340 55253 net.cpp:399] inception_stem1 -> inception_stem1
I0110 11:34:47.671350 55253 net.cpp:141] Setting up inception_stem1
I0110 11:34:47.671366 55253 net.cpp:148] Top shape: 10 160 73 73 (8526400)
I0110 11:34:47.671370 55253 net.cpp:156] Memory required for data: 696550880
I0110 11:34:47.671375 55253 layer_factory.hpp:77] Creating layer inception_stem1_inception_stem1_0_split
I0110 11:34:47.671382 55253 net.cpp:91] Creating Layer inception_stem1_inception_stem1_0_split
I0110 11:34:47.671386 55253 net.cpp:425] inception_stem1_inception_stem1_0_split <- inception_stem1
I0110 11:34:47.671408 55253 net.cpp:399] inception_stem1_inception_stem1_0_split -> inception_stem1_inception_stem1_0_split_0
I0110 11:34:47.671417 55253 net.cpp:399] inception_stem1_inception_stem1_0_split -> inception_stem1_inception_stem1_0_split_1
I0110 11:34:47.671464 55253 net.cpp:141] Setting up inception_stem1_inception_stem1_0_split
I0110 11:34:47.671473 55253 net.cpp:148] Top shape: 10 160 73 73 (8526400)
I0110 11:34:47.671476 55253 net.cpp:148] Top shape: 10 160 73 73 (8526400)
I0110 11:34:47.671479 55253 net.cpp:156] Memory required for data: 764762080
I0110 11:34:47.671483 55253 layer_factory.hpp:77] Creating layer inception_stem2_3x3_reduce
I0110 11:34:47.671500 55253 net.cpp:91] Creating Layer inception_stem2_3x3_reduce
I0110 11:34:47.671505 55253 net.cpp:425] inception_stem2_3x3_reduce <- inception_stem1_inception_stem1_0_split_0
I0110 11:34:47.671511 55253 net.cpp:399] inception_stem2_3x3_reduce -> inception_stem2_3x3_reduce
I0110 11:34:47.673297 55253 net.cpp:141] Setting up inception_stem2_3x3_reduce
I0110 11:34:47.673312 55253 net.cpp:148] Top shape: 10 64 73 73 (3410560)
I0110 11:34:47.673316 55253 net.cpp:156] Memory required for data: 778404320
I0110 11:34:47.673322 55253 layer_factory.hpp:77] Creating layer inception_stem2_3x3_reduce_bn
I0110 11:34:47.673331 55253 net.cpp:91] Creating Layer inception_stem2_3x3_reduce_bn
I0110 11:34:47.673348 55253 net.cpp:425] inception_stem2_3x3_reduce_bn <- inception_stem2_3x3_reduce
I0110 11:34:47.673365 55253 net.cpp:386] inception_stem2_3x3_reduce_bn -> inception_stem2_3x3_reduce (in-place)
I0110 11:34:47.673555 55253 net.cpp:141] Setting up inception_stem2_3x3_reduce_bn
I0110 11:34:47.673563 55253 net.cpp:148] Top shape: 10 64 73 73 (3410560)
I0110 11:34:47.673566 55253 net.cpp:156] Memory required for data: 792046560
I0110 11:34:47.673580 55253 layer_factory.hpp:77] Creating layer inception_stem2_3x3_reduce_scale
I0110 11:34:47.673589 55253 net.cpp:91] Creating Layer inception_stem2_3x3_reduce_scale
I0110 11:34:47.673593 55253 net.cpp:425] inception_stem2_3x3_reduce_scale <- inception_stem2_3x3_reduce
I0110 11:34:47.673597 55253 net.cpp:386] inception_stem2_3x3_reduce_scale -> inception_stem2_3x3_reduce (in-place)
I0110 11:34:47.673633 55253 layer_factory.hpp:77] Creating layer inception_stem2_3x3_reduce_scale
I0110 11:34:47.673758 55253 net.cpp:141] Setting up inception_stem2_3x3_reduce_scale
I0110 11:34:47.673764 55253 net.cpp:148] Top shape: 10 64 73 73 (3410560)
I0110 11:34:47.673768 55253 net.cpp:156] Memory required for data: 805688800
I0110 11:34:47.673774 55253 layer_factory.hpp:77] Creating layer inception_stem2_3x3_reduce_relu
I0110 11:34:47.673784 55253 net.cpp:91] Creating Layer inception_stem2_3x3_reduce_relu
I0110 11:34:47.673789 55253 net.cpp:425] inception_stem2_3x3_reduce_relu <- inception_stem2_3x3_reduce
I0110 11:34:47.673799 55253 net.cpp:386] inception_stem2_3x3_reduce_relu -> inception_stem2_3x3_reduce (in-place)
I0110 11:34:47.673960 55253 net.cpp:141] Setting up inception_stem2_3x3_reduce_relu
I0110 11:34:47.673970 55253 net.cpp:148] Top shape: 10 64 73 73 (3410560)
I0110 11:34:47.673974 55253 net.cpp:156] Memory required for data: 819331040
I0110 11:34:47.673976 55253 layer_factory.hpp:77] Creating layer inception_stem2_3x3
I0110 11:34:47.673990 55253 net.cpp:91] Creating Layer inception_stem2_3x3
I0110 11:34:47.673995 55253 net.cpp:425] inception_stem2_3x3 <- inception_stem2_3x3_reduce
I0110 11:34:47.674001 55253 net.cpp:399] inception_stem2_3x3 -> inception_stem2_3x3
I0110 11:34:47.675379 55253 net.cpp:141] Setting up inception_stem2_3x3
I0110 11:34:47.675391 55253 net.cpp:148] Top shape: 10 96 71 71 (4839360)
I0110 11:34:47.675412 55253 net.cpp:156] Memory required for data: 838688480
I0110 11:34:47.675418 55253 layer_factory.hpp:77] Creating layer inception_stem2_3x3_bn
I0110 11:34:47.675426 55253 net.cpp:91] Creating Layer inception_stem2_3x3_bn
I0110 11:34:47.675429 55253 net.cpp:425] inception_stem2_3x3_bn <- inception_stem2_3x3
I0110 11:34:47.675441 55253 net.cpp:386] inception_stem2_3x3_bn -> inception_stem2_3x3 (in-place)
I0110 11:34:47.675627 55253 net.cpp:141] Setting up inception_stem2_3x3_bn
I0110 11:34:47.675635 55253 net.cpp:148] Top shape: 10 96 71 71 (4839360)
I0110 11:34:47.675638 55253 net.cpp:156] Memory required for data: 858045920
I0110 11:34:47.675650 55253 layer_factory.hpp:77] Creating layer inception_stem2_3x3_scale
I0110 11:34:47.675658 55253 net.cpp:91] Creating Layer inception_stem2_3x3_scale
I0110 11:34:47.675662 55253 net.cpp:425] inception_stem2_3x3_scale <- inception_stem2_3x3
I0110 11:34:47.675667 55253 net.cpp:386] inception_stem2_3x3_scale -> inception_stem2_3x3 (in-place)
I0110 11:34:47.675704 55253 layer_factory.hpp:77] Creating layer inception_stem2_3x3_scale
I0110 11:34:47.675812 55253 net.cpp:141] Setting up inception_stem2_3x3_scale
I0110 11:34:47.675818 55253 net.cpp:148] Top shape: 10 96 71 71 (4839360)
I0110 11:34:47.675822 55253 net.cpp:156] Memory required for data: 877403360
I0110 11:34:47.675827 55253 layer_factory.hpp:77] Creating layer inception_stem2_3x3_relu
I0110 11:34:47.675839 55253 net.cpp:91] Creating Layer inception_stem2_3x3_relu
I0110 11:34:47.675843 55253 net.cpp:425] inception_stem2_3x3_relu <- inception_stem2_3x3
I0110 11:34:47.675853 55253 net.cpp:386] inception_stem2_3x3_relu -> inception_stem2_3x3 (in-place)
I0110 11:34:47.676007 55253 net.cpp:141] Setting up inception_stem2_3x3_relu
I0110 11:34:47.676025 55253 net.cpp:148] Top shape: 10 96 71 71 (4839360)
I0110 11:34:47.676033 55253 net.cpp:156] Memory required for data: 896760800
I0110 11:34:47.676038 55253 layer_factory.hpp:77] Creating layer inception_stem2_1x7_reduce
I0110 11:34:47.676045 55253 net.cpp:91] Creating Layer inception_stem2_1x7_reduce
I0110 11:34:47.676050 55253 net.cpp:425] inception_stem2_1x7_reduce <- inception_stem1_inception_stem1_0_split_1
I0110 11:34:47.676055 55253 net.cpp:399] inception_stem2_1x7_reduce -> inception_stem2_1x7_reduce
I0110 11:34:47.677449 55253 net.cpp:141] Setting up inception_stem2_1x7_reduce
I0110 11:34:47.677464 55253 net.cpp:148] Top shape: 10 64 73 73 (3410560)
I0110 11:34:47.677486 55253 net.cpp:156] Memory required for data: 910403040
I0110 11:34:47.677491 55253 layer_factory.hpp:77] Creating layer inception_stem2_1x7_reduce_bn
I0110 11:34:47.677498 55253 net.cpp:91] Creating Layer inception_stem2_1x7_reduce_bn
I0110 11:34:47.677502 55253 net.cpp:425] inception_stem2_1x7_reduce_bn <- inception_stem2_1x7_reduce
I0110 11:34:47.677507 55253 net.cpp:386] inception_stem2_1x7_reduce_bn -> inception_stem2_1x7_reduce (in-place)
I0110 11:34:47.677676 55253 net.cpp:141] Setting up inception_stem2_1x7_reduce_bn
I0110 11:34:47.677683 55253 net.cpp:148] Top shape: 10 64 73 73 (3410560)
I0110 11:34:47.677686 55253 net.cpp:156] Memory required for data: 924045280
I0110 11:34:47.677692 55253 layer_factory.hpp:77] Creating layer inception_stem2_1x7_reduce_scale
I0110 11:34:47.677707 55253 net.cpp:91] Creating Layer inception_stem2_1x7_reduce_scale
I0110 11:34:47.677711 55253 net.cpp:425] inception_stem2_1x7_reduce_scale <- inception_stem2_1x7_reduce
I0110 11:34:47.677716 55253 net.cpp:386] inception_stem2_1x7_reduce_scale -> inception_stem2_1x7_reduce (in-place)
I0110 11:34:47.677755 55253 layer_factory.hpp:77] Creating layer inception_stem2_1x7_reduce_scale
I0110 11:34:47.677872 55253 net.cpp:141] Setting up inception_stem2_1x7_reduce_scale
I0110 11:34:47.677880 55253 net.cpp:148] Top shape: 10 64 73 73 (3410560)
I0110 11:34:47.677882 55253 net.cpp:156] Memory required for data: 937687520
I0110 11:34:47.677893 55253 layer_factory.hpp:77] Creating layer inception_stem2_1x7_reduce_relu
I0110 11:34:47.677901 55253 net.cpp:91] Creating Layer inception_stem2_1x7_reduce_relu
I0110 11:34:47.677906 55253 net.cpp:425] inception_stem2_1x7_reduce_relu <- inception_stem2_1x7_reduce
I0110 11:34:47.677917 55253 net.cpp:386] inception_stem2_1x7_reduce_relu -> inception_stem2_1x7_reduce (in-place)
I0110 11:34:47.678076 55253 net.cpp:141] Setting up inception_stem2_1x7_reduce_relu
I0110 11:34:47.678086 55253 net.cpp:148] Top shape: 10 64 73 73 (3410560)
I0110 11:34:47.678088 55253 net.cpp:156] Memory required for data: 951329760
I0110 11:34:47.678092 55253 layer_factory.hpp:77] Creating layer inception_stem2_1x7
I0110 11:34:47.678112 55253 net.cpp:91] Creating Layer inception_stem2_1x7
I0110 11:34:47.678117 55253 net.cpp:425] inception_stem2_1x7 <- inception_stem2_1x7_reduce
I0110 11:34:47.678120 55253 net.cpp:399] inception_stem2_1x7 -> inception_stem2_1x7
I0110 11:34:47.679441 55253 net.cpp:141] Setting up inception_stem2_1x7
I0110 11:34:47.679455 55253 net.cpp:148] Top shape: 10 64 73 73 (3410560)
I0110 11:34:47.679476 55253 net.cpp:156] Memory required for data: 964972000
I0110 11:34:47.679481 55253 layer_factory.hpp:77] Creating layer inception_stem2_1x7_bn
I0110 11:34:47.679496 55253 net.cpp:91] Creating Layer inception_stem2_1x7_bn
I0110 11:34:47.679500 55253 net.cpp:425] inception_stem2_1x7_bn <- inception_stem2_1x7
I0110 11:34:47.679512 55253 net.cpp:386] inception_stem2_1x7_bn -> inception_stem2_1x7 (in-place)
I0110 11:34:47.679687 55253 net.cpp:141] Setting up inception_stem2_1x7_bn
I0110 11:34:47.679697 55253 net.cpp:148] Top shape: 10 64 73 73 (3410560)
I0110 11:34:47.679699 55253 net.cpp:156] Memory required for data: 978614240
I0110 11:34:47.679707 55253 layer_factory.hpp:77] Creating layer inception_stem2_1x7_scale
I0110 11:34:47.679713 55253 net.cpp:91] Creating Layer inception_stem2_1x7_scale
I0110 11:34:47.679716 55253 net.cpp:425] inception_stem2_1x7_scale <- inception_stem2_1x7
I0110 11:34:47.679733 55253 net.cpp:386] inception_stem2_1x7_scale -> inception_stem2_1x7 (in-place)
I0110 11:34:47.679772 55253 layer_factory.hpp:77] Creating layer inception_stem2_1x7_scale
I0110 11:34:47.679883 55253 net.cpp:141] Setting up inception_stem2_1x7_scale
I0110 11:34:47.679889 55253 net.cpp:148] Top shape: 10 64 73 73 (3410560)
I0110 11:34:47.679893 55253 net.cpp:156] Memory required for data: 992256480
I0110 11:34:47.679898 55253 layer_factory.hpp:77] Creating layer inception_stem2_1x7_relu
I0110 11:34:47.679913 55253 net.cpp:91] Creating Layer inception_stem2_1x7_relu
I0110 11:34:47.679916 55253 net.cpp:425] inception_stem2_1x7_relu <- inception_stem2_1x7
I0110 11:34:47.679920 55253 net.cpp:386] inception_stem2_1x7_relu -> inception_stem2_1x7 (in-place)
I0110 11:34:47.680771 55253 net.cpp:141] Setting up inception_stem2_1x7_relu
I0110 11:34:47.680784 55253 net.cpp:148] Top shape: 10 64 73 73 (3410560)
I0110 11:34:47.680805 55253 net.cpp:156] Memory required for data: 1005898720
I0110 11:34:47.680809 55253 layer_factory.hpp:77] Creating layer inception_stem2_7x1
I0110 11:34:47.680819 55253 net.cpp:91] Creating Layer inception_stem2_7x1
I0110 11:34:47.680822 55253 net.cpp:425] inception_stem2_7x1 <- inception_stem2_1x7
I0110 11:34:47.680827 55253 net.cpp:399] inception_stem2_7x1 -> inception_stem2_7x1
I0110 11:34:47.681789 55253 net.cpp:141] Setting up inception_stem2_7x1
I0110 11:34:47.681803 55253 net.cpp:148] Top shape: 10 64 73 73 (3410560)
I0110 11:34:47.681823 55253 net.cpp:156] Memory required for data: 1019540960
I0110 11:34:47.681838 55253 layer_factory.hpp:77] Creating layer inception_stem2_7x1_bn
I0110 11:34:47.681844 55253 net.cpp:91] Creating Layer inception_stem2_7x1_bn
I0110 11:34:47.681848 55253 net.cpp:425] inception_stem2_7x1_bn <- inception_stem2_7x1
I0110 11:34:47.681854 55253 net.cpp:386] inception_stem2_7x1_bn -> inception_stem2_7x1 (in-place)
I0110 11:34:47.682034 55253 net.cpp:141] Setting up inception_stem2_7x1_bn
I0110 11:34:47.682041 55253 net.cpp:148] Top shape: 10 64 73 73 (3410560)
I0110 11:34:47.682044 55253 net.cpp:156] Memory required for data: 1033183200
I0110 11:34:47.682051 55253 layer_factory.hpp:77] Creating layer inception_stem2_7x1_scale
I0110 11:34:47.682063 55253 net.cpp:91] Creating Layer inception_stem2_7x1_scale
I0110 11:34:47.682068 55253 net.cpp:425] inception_stem2_7x1_scale <- inception_stem2_7x1
I0110 11:34:47.682075 55253 net.cpp:386] inception_stem2_7x1_scale -> inception_stem2_7x1 (in-place)
I0110 11:34:47.682108 55253 layer_factory.hpp:77] Creating layer inception_stem2_7x1_scale
I0110 11:34:47.682231 55253 net.cpp:141] Setting up inception_stem2_7x1_scale
I0110 11:34:47.682238 55253 net.cpp:148] Top shape: 10 64 73 73 (3410560)
I0110 11:34:47.682241 55253 net.cpp:156] Memory required for data: 1046825440
I0110 11:34:47.682246 55253 layer_factory.hpp:77] Creating layer inception_stem2_7x1_relu
I0110 11:34:47.682250 55253 net.cpp:91] Creating Layer inception_stem2_7x1_relu
I0110 11:34:47.682253 55253 net.cpp:425] inception_stem2_7x1_relu <- inception_stem2_7x1
I0110 11:34:47.682260 55253 net.cpp:386] inception_stem2_7x1_relu -> inception_stem2_7x1 (in-place)
I0110 11:34:47.683109 55253 net.cpp:141] Setting up inception_stem2_7x1_relu
I0110 11:34:47.683121 55253 net.cpp:148] Top shape: 10 64 73 73 (3410560)
I0110 11:34:47.683125 55253 net.cpp:156] Memory required for data: 1060467680
I0110 11:34:47.683145 55253 layer_factory.hpp:77] Creating layer inception_stem2_3x3_2
I0110 11:34:47.683151 55253 net.cpp:91] Creating Layer inception_stem2_3x3_2
I0110 11:34:47.683154 55253 net.cpp:425] inception_stem2_3x3_2 <- inception_stem2_7x1
I0110 11:34:47.683162 55253 net.cpp:399] inception_stem2_3x3_2 -> inception_stem2_3x3_2
I0110 11:34:47.684530 55253 net.cpp:141] Setting up inception_stem2_3x3_2
I0110 11:34:47.684545 55253 net.cpp:148] Top shape: 10 96 71 71 (4839360)
I0110 11:34:47.684548 55253 net.cpp:156] Memory required for data: 1079825120
I0110 11:34:47.684576 55253 layer_factory.hpp:77] Creating layer inception_stem2_3x3_2_bn
I0110 11:34:47.684594 55253 net.cpp:91] Creating Layer inception_stem2_3x3_2_bn
I0110 11:34:47.684599 55253 net.cpp:425] inception_stem2_3x3_2_bn <- inception_stem2_3x3_2
I0110 11:34:47.684607 55253 net.cpp:386] inception_stem2_3x3_2_bn -> inception_stem2_3x3_2 (in-place)
I0110 11:34:47.684790 55253 net.cpp:141] Setting up inception_stem2_3x3_2_bn
I0110 11:34:47.684798 55253 net.cpp:148] Top shape: 10 96 71 71 (4839360)
I0110 11:34:47.684800 55253 net.cpp:156] Memory required for data: 1099182560
I0110 11:34:47.684808 55253 layer_factory.hpp:77] Creating layer inception_stem2_3x3_2_scale
I0110 11:34:47.684825 55253 net.cpp:91] Creating Layer inception_stem2_3x3_2_scale
I0110 11:34:47.684830 55253 net.cpp:425] inception_stem2_3x3_2_scale <- inception_stem2_3x3_2
I0110 11:34:47.684837 55253 net.cpp:386] inception_stem2_3x3_2_scale -> inception_stem2_3x3_2 (in-place)
I0110 11:34:47.684871 55253 layer_factory.hpp:77] Creating layer inception_stem2_3x3_2_scale
I0110 11:34:47.684993 55253 net.cpp:141] Setting up inception_stem2_3x3_2_scale
I0110 11:34:47.685000 55253 net.cpp:148] Top shape: 10 96 71 71 (4839360)
I0110 11:34:47.685003 55253 net.cpp:156] Memory required for data: 1118540000
I0110 11:34:47.685014 55253 layer_factory.hpp:77] Creating layer inception_stem2_3x3_2_relu
I0110 11:34:47.685021 55253 net.cpp:91] Creating Layer inception_stem2_3x3_2_relu
I0110 11:34:47.685024 55253 net.cpp:425] inception_stem2_3x3_2_relu <- inception_stem2_3x3_2
I0110 11:34:47.685039 55253 net.cpp:386] inception_stem2_3x3_2_relu -> inception_stem2_3x3_2 (in-place)
I0110 11:34:47.685201 55253 net.cpp:141] Setting up inception_stem2_3x3_2_relu
I0110 11:34:47.685209 55253 net.cpp:148] Top shape: 10 96 71 71 (4839360)
I0110 11:34:47.685212 55253 net.cpp:156] Memory required for data: 1137897440
I0110 11:34:47.685216 55253 layer_factory.hpp:77] Creating layer inception_stem2
I0110 11:34:47.685221 55253 net.cpp:91] Creating Layer inception_stem2
I0110 11:34:47.685225 55253 net.cpp:425] inception_stem2 <- inception_stem2_3x3
I0110 11:34:47.685228 55253 net.cpp:425] inception_stem2 <- inception_stem2_3x3_2
I0110 11:34:47.685235 55253 net.cpp:399] inception_stem2 -> inception_stem2
I0110 11:34:47.685257 55253 net.cpp:141] Setting up inception_stem2
I0110 11:34:47.685263 55253 net.cpp:148] Top shape: 10 192 71 71 (9678720)
I0110 11:34:47.685266 55253 net.cpp:156] Memory required for data: 1176612320
I0110 11:34:47.685268 55253 layer_factory.hpp:77] Creating layer inception_stem2_inception_stem2_0_split
I0110 11:34:47.685276 55253 net.cpp:91] Creating Layer inception_stem2_inception_stem2_0_split
I0110 11:34:47.685278 55253 net.cpp:425] inception_stem2_inception_stem2_0_split <- inception_stem2
I0110 11:34:47.685290 55253 net.cpp:399] inception_stem2_inception_stem2_0_split -> inception_stem2_inception_stem2_0_split_0
I0110 11:34:47.685297 55253 net.cpp:399] inception_stem2_inception_stem2_0_split -> inception_stem2_inception_stem2_0_split_1
I0110 11:34:47.685330 55253 net.cpp:141] Setting up inception_stem2_inception_stem2_0_split
I0110 11:34:47.685336 55253 net.cpp:148] Top shape: 10 192 71 71 (9678720)
I0110 11:34:47.685339 55253 net.cpp:148] Top shape: 10 192 71 71 (9678720)
I0110 11:34:47.685343 55253 net.cpp:156] Memory required for data: 1254042080
I0110 11:34:47.685345 55253 layer_factory.hpp:77] Creating layer inception_stem3_3x3_s2
I0110 11:34:47.685353 55253 net.cpp:91] Creating Layer inception_stem3_3x3_s2
I0110 11:34:47.685358 55253 net.cpp:425] inception_stem3_3x3_s2 <- inception_stem2_inception_stem2_0_split_0
I0110 11:34:47.685362 55253 net.cpp:399] inception_stem3_3x3_s2 -> inception_stem3_3x3_s2
I0110 11:34:47.688799 55253 net.cpp:141] Setting up inception_stem3_3x3_s2
I0110 11:34:47.688815 55253 net.cpp:148] Top shape: 10 192 35 35 (2352000)
I0110 11:34:47.688819 55253 net.cpp:156] Memory required for data: 1263450080
I0110 11:34:47.688825 55253 layer_factory.hpp:77] Creating layer inception_stem3_3x3_s2_bn
I0110 11:34:47.688841 55253 net.cpp:91] Creating Layer inception_stem3_3x3_s2_bn
I0110 11:34:47.688858 55253 net.cpp:425] inception_stem3_3x3_s2_bn <- inception_stem3_3x3_s2
I0110 11:34:47.688866 55253 net.cpp:386] inception_stem3_3x3_s2_bn -> inception_stem3_3x3_s2 (in-place)
I0110 11:34:47.690397 55253 net.cpp:141] Setting up inception_stem3_3x3_s2_bn
I0110 11:34:47.690410 55253 net.cpp:148] Top shape: 10 192 35 35 (2352000)
I0110 11:34:47.690413 55253 net.cpp:156] Memory required for data: 1272858080
I0110 11:34:47.690423 55253 layer_factory.hpp:77] Creating layer inception_stem3_3x3_s2_scale
I0110 11:34:47.690429 55253 net.cpp:91] Creating Layer inception_stem3_3x3_s2_scale
I0110 11:34:47.690433 55253 net.cpp:425] inception_stem3_3x3_s2_scale <- inception_stem3_3x3_s2
I0110 11:34:47.690438 55253 net.cpp:386] inception_stem3_3x3_s2_scale -> inception_stem3_3x3_s2 (in-place)
I0110 11:34:47.690479 55253 layer_factory.hpp:77] Creating layer inception_stem3_3x3_s2_scale
I0110 11:34:47.690593 55253 net.cpp:141] Setting up inception_stem3_3x3_s2_scale
I0110 11:34:47.690613 55253 net.cpp:148] Top shape: 10 192 35 35 (2352000)
I0110 11:34:47.690615 55253 net.cpp:156] Memory required for data: 1282266080
I0110 11:34:47.690629 55253 layer_factory.hpp:77] Creating layer inception_stem3_3x3_s2_relu
I0110 11:34:47.690636 55253 net.cpp:91] Creating Layer inception_stem3_3x3_s2_relu
I0110 11:34:47.690640 55253 net.cpp:425] inception_stem3_3x3_s2_relu <- inception_stem3_3x3_s2
I0110 11:34:47.690644 55253 net.cpp:386] inception_stem3_3x3_s2_relu -> inception_stem3_3x3_s2 (in-place)
I0110 11:34:47.690810 55253 net.cpp:141] Setting up inception_stem3_3x3_s2_relu
I0110 11:34:47.690819 55253 net.cpp:148] Top shape: 10 192 35 35 (2352000)
I0110 11:34:47.690822 55253 net.cpp:156] Memory required for data: 1291674080
I0110 11:34:47.690825 55253 layer_factory.hpp:77] Creating layer inception_stem3_pool
I0110 11:34:47.690840 55253 net.cpp:91] Creating Layer inception_stem3_pool
I0110 11:34:47.690846 55253 net.cpp:425] inception_stem3_pool <- inception_stem2_inception_stem2_0_split_1
I0110 11:34:47.690853 55253 net.cpp:399] inception_stem3_pool -> inception_stem3_pool
I0110 11:34:47.690893 55253 net.cpp:141] Setting up inception_stem3_pool
I0110 11:34:47.690899 55253 net.cpp:148] Top shape: 10 192 35 35 (2352000)
I0110 11:34:47.690902 55253 net.cpp:156] Memory required for data: 1301082080
I0110 11:34:47.690906 55253 layer_factory.hpp:77] Creating layer inception_stem3
I0110 11:34:47.690913 55253 net.cpp:91] Creating Layer inception_stem3
I0110 11:34:47.690917 55253 net.cpp:425] inception_stem3 <- inception_stem3_3x3_s2
I0110 11:34:47.690932 55253 net.cpp:425] inception_stem3 <- inception_stem3_pool
I0110 11:34:47.690937 55253 net.cpp:399] inception_stem3 -> inception_stem3
I0110 11:34:47.690959 55253 net.cpp:141] Setting up inception_stem3
I0110 11:34:47.690965 55253 net.cpp:148] Top shape: 10 384 35 35 (4704000)
I0110 11:34:47.690968 55253 net.cpp:156] Memory required for data: 1319898080
I0110 11:34:47.690971 55253 layer_factory.hpp:77] Creating layer inception_stem3_inception_stem3_0_split
I0110 11:34:47.690978 55253 net.cpp:91] Creating Layer inception_stem3_inception_stem3_0_split
I0110 11:34:47.690980 55253 net.cpp:425] inception_stem3_inception_stem3_0_split <- inception_stem3
I0110 11:34:47.690986 55253 net.cpp:399] inception_stem3_inception_stem3_0_split -> inception_stem3_inception_stem3_0_split_0
I0110 11:34:47.690991 55253 net.cpp:399] inception_stem3_inception_stem3_0_split -> inception_stem3_inception_stem3_0_split_1
I0110 11:34:47.690996 55253 net.cpp:399] inception_stem3_inception_stem3_0_split -> inception_stem3_inception_stem3_0_split_2
I0110 11:34:47.691001 55253 net.cpp:399] inception_stem3_inception_stem3_0_split -> inception_stem3_inception_stem3_0_split_3
I0110 11:34:47.691076 55253 net.cpp:141] Setting up inception_stem3_inception_stem3_0_split
I0110 11:34:47.691082 55253 net.cpp:148] Top shape: 10 384 35 35 (4704000)
I0110 11:34:47.691087 55253 net.cpp:148] Top shape: 10 384 35 35 (4704000)
I0110 11:34:47.691090 55253 net.cpp:148] Top shape: 10 384 35 35 (4704000)
I0110 11:34:47.691094 55253 net.cpp:148] Top shape: 10 384 35 35 (4704000)
I0110 11:34:47.691112 55253 net.cpp:156] Memory required for data: 1395162080
I0110 11:34:47.691115 55253 layer_factory.hpp:77] Creating layer inception_a1_1x1_2
I0110 11:34:47.691124 55253 net.cpp:91] Creating Layer inception_a1_1x1_2
I0110 11:34:47.691129 55253 net.cpp:425] inception_a1_1x1_2 <- inception_stem3_inception_stem3_0_split_0
I0110 11:34:47.691134 55253 net.cpp:399] inception_a1_1x1_2 -> inception_a1_1x1_2
I0110 11:34:47.692582 55253 net.cpp:141] Setting up inception_a1_1x1_2
I0110 11:34:47.692597 55253 net.cpp:148] Top shape: 10 96 35 35 (1176000)
I0110 11:34:47.692601 55253 net.cpp:156] Memory required for data: 1399866080
I0110 11:34:47.692615 55253 layer_factory.hpp:77] Creating layer inception_a1_1x1_2_bn
I0110 11:34:47.692625 55253 net.cpp:91] Creating Layer inception_a1_1x1_2_bn
I0110 11:34:47.692628 55253 net.cpp:425] inception_a1_1x1_2_bn <- inception_a1_1x1_2
I0110 11:34:47.692636 55253 net.cpp:386] inception_a1_1x1_2_bn -> inception_a1_1x1_2 (in-place)
I0110 11:34:47.692812 55253 net.cpp:141] Setting up inception_a1_1x1_2_bn
I0110 11:34:47.692821 55253 net.cpp:148] Top shape: 10 96 35 35 (1176000)
I0110 11:34:47.692823 55253 net.cpp:156] Memory required for data: 1404570080
I0110 11:34:47.692831 55253 layer_factory.hpp:77] Creating layer inception_a1_1x1_2_scale
I0110 11:34:47.692843 55253 net.cpp:91] Creating Layer inception_a1_1x1_2_scale
I0110 11:34:47.692847 55253 net.cpp:425] inception_a1_1x1_2_scale <- inception_a1_1x1_2
I0110 11:34:47.692852 55253 net.cpp:386] inception_a1_1x1_2_scale -> inception_a1_1x1_2 (in-place)
I0110 11:34:47.692895 55253 layer_factory.hpp:77] Creating layer inception_a1_1x1_2_scale
I0110 11:34:47.693022 55253 net.cpp:141] Setting up inception_a1_1x1_2_scale
I0110 11:34:47.693033 55253 net.cpp:148] Top shape: 10 96 35 35 (1176000)
I0110 11:34:47.693037 55253 net.cpp:156] Memory required for data: 1409274080
I0110 11:34:47.693048 55253 layer_factory.hpp:77] Creating layer inception_a1_1x1_2_relu
I0110 11:34:47.693056 55253 net.cpp:91] Creating Layer inception_a1_1x1_2_relu
I0110 11:34:47.693059 55253 net.cpp:425] inception_a1_1x1_2_relu <- inception_a1_1x1_2
I0110 11:34:47.693064 55253 net.cpp:386] inception_a1_1x1_2_relu -> inception_a1_1x1_2 (in-place)
I0110 11:34:47.693234 55253 net.cpp:141] Setting up inception_a1_1x1_2_relu
I0110 11:34:47.693243 55253 net.cpp:148] Top shape: 10 96 35 35 (1176000)
I0110 11:34:47.693245 55253 net.cpp:156] Memory required for data: 1413978080
I0110 11:34:47.693249 55253 layer_factory.hpp:77] Creating layer inception_a1_3x3_reduce
I0110 11:34:47.693258 55253 net.cpp:91] Creating Layer inception_a1_3x3_reduce
I0110 11:34:47.693262 55253 net.cpp:425] inception_a1_3x3_reduce <- inception_stem3_inception_stem3_0_split_1
I0110 11:34:47.693267 55253 net.cpp:399] inception_a1_3x3_reduce -> inception_a1_3x3_reduce
I0110 11:34:47.695122 55253 net.cpp:141] Setting up inception_a1_3x3_reduce
I0110 11:34:47.695138 55253 net.cpp:148] Top shape: 10 64 35 35 (784000)
I0110 11:34:47.695142 55253 net.cpp:156] Memory required for data: 1417114080
I0110 11:34:47.695156 55253 layer_factory.hpp:77] Creating layer inception_a1_3x3_reduce_bn
I0110 11:34:47.695169 55253 net.cpp:91] Creating Layer inception_a1_3x3_reduce_bn
I0110 11:34:47.695175 55253 net.cpp:425] inception_a1_3x3_reduce_bn <- inception_a1_3x3_reduce
I0110 11:34:47.695183 55253 net.cpp:386] inception_a1_3x3_reduce_bn -> inception_a1_3x3_reduce (in-place)
I0110 11:34:47.695384 55253 net.cpp:141] Setting up inception_a1_3x3_reduce_bn
I0110 11:34:47.695392 55253 net.cpp:148] Top shape: 10 64 35 35 (784000)
I0110 11:34:47.695395 55253 net.cpp:156] Memory required for data: 1420250080
I0110 11:34:47.695402 55253 layer_factory.hpp:77] Creating layer inception_a1_3x3_reduce_scale
I0110 11:34:47.695408 55253 net.cpp:91] Creating Layer inception_a1_3x3_reduce_scale
I0110 11:34:47.695411 55253 net.cpp:425] inception_a1_3x3_reduce_scale <- inception_a1_3x3_reduce
I0110 11:34:47.695417 55253 net.cpp:386] inception_a1_3x3_reduce_scale -> inception_a1_3x3_reduce (in-place)
I0110 11:34:47.695469 55253 layer_factory.hpp:77] Creating layer inception_a1_3x3_reduce_scale
I0110 11:34:47.695575 55253 net.cpp:141] Setting up inception_a1_3x3_reduce_scale
I0110 11:34:47.695583 55253 net.cpp:148] Top shape: 10 64 35 35 (784000)
I0110 11:34:47.695586 55253 net.cpp:156] Memory required for data: 1423386080
I0110 11:34:47.695591 55253 layer_factory.hpp:77] Creating layer inception_a1_3x3_reduce_relu
I0110 11:34:47.695598 55253 net.cpp:91] Creating Layer inception_a1_3x3_reduce_relu
I0110 11:34:47.695601 55253 net.cpp:425] inception_a1_3x3_reduce_relu <- inception_a1_3x3_reduce
I0110 11:34:47.695605 55253 net.cpp:386] inception_a1_3x3_reduce_relu -> inception_a1_3x3_reduce (in-place)
I0110 11:34:47.695765 55253 net.cpp:141] Setting up inception_a1_3x3_reduce_relu
I0110 11:34:47.695772 55253 net.cpp:148] Top shape: 10 64 35 35 (784000)
I0110 11:34:47.695775 55253 net.cpp:156] Memory required for data: 1426522080
I0110 11:34:47.695780 55253 layer_factory.hpp:77] Creating layer inception_a1_3x3
I0110 11:34:47.695792 55253 net.cpp:91] Creating Layer inception_a1_3x3
I0110 11:34:47.695796 55253 net.cpp:425] inception_a1_3x3 <- inception_a1_3x3_reduce
I0110 11:34:47.695801 55253 net.cpp:399] inception_a1_3x3 -> inception_a1_3x3
I0110 11:34:47.698894 55253 net.cpp:141] Setting up inception_a1_3x3
I0110 11:34:47.698910 55253 net.cpp:148] Top shape: 10 96 35 35 (1176000)
I0110 11:34:47.698931 55253 net.cpp:156] Memory required for data: 1431226080
I0110 11:34:47.698938 55253 layer_factory.hpp:77] Creating layer inception_a1_3x3_bn
I0110 11:34:47.698948 55253 net.cpp:91] Creating Layer inception_a1_3x3_bn
I0110 11:34:47.698953 55253 net.cpp:425] inception_a1_3x3_bn <- inception_a1_3x3
I0110 11:34:47.698959 55253 net.cpp:386] inception_a1_3x3_bn -> inception_a1_3x3 (in-place)
I0110 11:34:47.699193 55253 net.cpp:141] Setting up inception_a1_3x3_bn
I0110 11:34:47.699203 55253 net.cpp:148] Top shape: 10 96 35 35 (1176000)
I0110 11:34:47.699205 55253 net.cpp:156] Memory required for data: 1435930080
I0110 11:34:47.699213 55253 layer_factory.hpp:77] Creating layer inception_a1_3x3_scale
I0110 11:34:47.699231 55253 net.cpp:91] Creating Layer inception_a1_3x3_scale
I0110 11:34:47.699236 55253 net.cpp:425] inception_a1_3x3_scale <- inception_a1_3x3
I0110 11:34:47.699241 55253 net.cpp:386] inception_a1_3x3_scale -> inception_a1_3x3 (in-place)
I0110 11:34:47.699287 55253 layer_factory.hpp:77] Creating layer inception_a1_3x3_scale
I0110 11:34:47.699404 55253 net.cpp:141] Setting up inception_a1_3x3_scale
I0110 11:34:47.699414 55253 net.cpp:148] Top shape: 10 96 35 35 (1176000)
I0110 11:34:47.699417 55253 net.cpp:156] Memory required for data: 1440634080
I0110 11:34:47.699424 55253 layer_factory.hpp:77] Creating layer inception_a1_3x3_relu
I0110 11:34:47.699429 55253 net.cpp:91] Creating Layer inception_a1_3x3_relu
I0110 11:34:47.699432 55253 net.cpp:425] inception_a1_3x3_relu <- inception_a1_3x3
I0110 11:34:47.699436 55253 net.cpp:386] inception_a1_3x3_relu -> inception_a1_3x3 (in-place)
I0110 11:34:47.700436 55253 net.cpp:141] Setting up inception_a1_3x3_relu
I0110 11:34:47.700449 55253 net.cpp:148] Top shape: 10 96 35 35 (1176000)
I0110 11:34:47.700469 55253 net.cpp:156] Memory required for data: 1445338080
I0110 11:34:47.700474 55253 layer_factory.hpp:77] Creating layer inception_a1_3x3_2_reduce
I0110 11:34:47.700484 55253 net.cpp:91] Creating Layer inception_a1_3x3_2_reduce
I0110 11:34:47.700489 55253 net.cpp:425] inception_a1_3x3_2_reduce <- inception_stem3_inception_stem3_0_split_2
I0110 11:34:47.700495 55253 net.cpp:399] inception_a1_3x3_2_reduce -> inception_a1_3x3_2_reduce
I0110 11:34:47.701961 55253 net.cpp:141] Setting up inception_a1_3x3_2_reduce
I0110 11:34:47.701975 55253 net.cpp:148] Top shape: 10 64 35 35 (784000)
I0110 11:34:47.701995 55253 net.cpp:156] Memory required for data: 1448474080
I0110 11:34:47.702000 55253 layer_factory.hpp:77] Creating layer inception_a1_3x3_2_reduce_bn
I0110 11:34:47.702009 55253 net.cpp:91] Creating Layer inception_a1_3x3_2_reduce_bn
I0110 11:34:47.702013 55253 net.cpp:425] inception_a1_3x3_2_reduce_bn <- inception_a1_3x3_2_reduce
I0110 11:34:47.702056 55253 net.cpp:386] inception_a1_3x3_2_reduce_bn -> inception_a1_3x3_2_reduce (in-place)
I0110 11:34:47.702280 55253 net.cpp:141] Setting up inception_a1_3x3_2_reduce_bn
I0110 11:34:47.702288 55253 net.cpp:148] Top shape: 10 64 35 35 (784000)
I0110 11:34:47.702292 55253 net.cpp:156] Memory required for data: 1451610080
I0110 11:34:47.702299 55253 layer_factory.hpp:77] Creating layer inception_a1_3x3_2_reduce_scale
I0110 11:34:47.702307 55253 net.cpp:91] Creating Layer inception_a1_3x3_2_reduce_scale
I0110 11:34:47.702311 55253 net.cpp:425] inception_a1_3x3_2_reduce_scale <- inception_a1_3x3_2_reduce
I0110 11:34:47.702316 55253 net.cpp:386] inception_a1_3x3_2_reduce_scale -> inception_a1_3x3_2_reduce (in-place)
I0110 11:34:47.702394 55253 layer_factory.hpp:77] Creating layer inception_a1_3x3_2_reduce_scale
I0110 11:34:47.702509 55253 net.cpp:141] Setting up inception_a1_3x3_2_reduce_scale
I0110 11:34:47.702518 55253 net.cpp:148] Top shape: 10 64 35 35 (784000)
I0110 11:34:47.702522 55253 net.cpp:156] Memory required for data: 1454746080
I0110 11:34:47.702527 55253 layer_factory.hpp:77] Creating layer inception_a1_3x3_2_reduce_relu
I0110 11:34:47.702533 55253 net.cpp:91] Creating Layer inception_a1_3x3_2_reduce_relu
I0110 11:34:47.702538 55253 net.cpp:425] inception_a1_3x3_2_reduce_relu <- inception_a1_3x3_2_reduce
I0110 11:34:47.702543 55253 net.cpp:386] inception_a1_3x3_2_reduce_relu -> inception_a1_3x3_2_reduce (in-place)
I0110 11:34:47.703501 55253 net.cpp:141] Setting up inception_a1_3x3_2_reduce_relu
I0110 11:34:47.703514 55253 net.cpp:148] Top shape: 10 64 35 35 (784000)
I0110 11:34:47.703517 55253 net.cpp:156] Memory required for data: 1457882080
I0110 11:34:47.703539 55253 layer_factory.hpp:77] Creating layer inception_a1_3x3_2
I0110 11:34:47.703548 55253 net.cpp:91] Creating Layer inception_a1_3x3_2
I0110 11:34:47.703552 55253 net.cpp:425] inception_a1_3x3_2 <- inception_a1_3x3_2_reduce
I0110 11:34:47.703558 55253 net.cpp:399] inception_a1_3x3_2 -> inception_a1_3x3_2
I0110 11:34:47.705165 55253 net.cpp:141] Setting up inception_a1_3x3_2
I0110 11:34:47.705198 55253 net.cpp:148] Top shape: 10 96 35 35 (1176000)
I0110 11:34:47.705219 55253 net.cpp:156] Memory required for data: 1462586080
I0110 11:34:47.705224 55253 layer_factory.hpp:77] Creating layer inception_a1_3x3_2_bn
I0110 11:34:47.705230 55253 net.cpp:91] Creating Layer inception_a1_3x3_2_bn
I0110 11:34:47.705235 55253 net.cpp:425] inception_a1_3x3_2_bn <- inception_a1_3x3_2
I0110 11:34:47.705241 55253 net.cpp:386] inception_a1_3x3_2_bn -> inception_a1_3x3_2 (in-place)
I0110 11:34:47.705458 55253 net.cpp:141] Setting up inception_a1_3x3_2_bn
I0110 11:34:47.705466 55253 net.cpp:148] Top shape: 10 96 35 35 (1176000)
I0110 11:34:47.705471 55253 net.cpp:156] Memory required for data: 1467290080
I0110 11:34:47.705477 55253 layer_factory.hpp:77] Creating layer inception_a1_3x3_2_scale
I0110 11:34:47.705483 55253 net.cpp:91] Creating Layer inception_a1_3x3_2_scale
I0110 11:34:47.705487 55253 net.cpp:425] inception_a1_3x3_2_scale <- inception_a1_3x3_2
I0110 11:34:47.705492 55253 net.cpp:386] inception_a1_3x3_2_scale -> inception_a1_3x3_2 (in-place)
I0110 11:34:47.705549 55253 layer_factory.hpp:77] Creating layer inception_a1_3x3_2_scale
I0110 11:34:47.705669 55253 net.cpp:141] Setting up inception_a1_3x3_2_scale
I0110 11:34:47.705677 55253 net.cpp:148] Top shape: 10 96 35 35 (1176000)
I0110 11:34:47.705679 55253 net.cpp:156] Memory required for data: 1471994080
I0110 11:34:47.705685 55253 layer_factory.hpp:77] Creating layer inception_a1_3x3_2_relu
I0110 11:34:47.705693 55253 net.cpp:91] Creating Layer inception_a1_3x3_2_relu
I0110 11:34:47.705698 55253 net.cpp:425] inception_a1_3x3_2_relu <- inception_a1_3x3_2
I0110 11:34:47.705701 55253 net.cpp:386] inception_a1_3x3_2_relu -> inception_a1_3x3_2 (in-place)
I0110 11:34:47.706002 55253 net.cpp:141] Setting up inception_a1_3x3_2_relu
I0110 11:34:47.706012 55253 net.cpp:148] Top shape: 10 96 35 35 (1176000)
I0110 11:34:47.706015 55253 net.cpp:156] Memory required for data: 1476698080
I0110 11:34:47.706051 55253 layer_factory.hpp:77] Creating layer inception_a1_3x3_3
I0110 11:34:47.706063 55253 net.cpp:91] Creating Layer inception_a1_3x3_3
I0110 11:34:47.706068 55253 net.cpp:425] inception_a1_3x3_3 <- inception_a1_3x3_2
I0110 11:34:47.706074 55253 net.cpp:399] inception_a1_3x3_3 -> inception_a1_3x3_3
I0110 11:34:47.708467 55253 net.cpp:141] Setting up inception_a1_3x3_3
I0110 11:34:47.708479 55253 net.cpp:148] Top shape: 10 96 35 35 (1176000)
I0110 11:34:47.708485 55253 net.cpp:156] Memory required for data: 1481402080
I0110 11:34:47.708490 55253 layer_factory.hpp:77] Creating layer inception_a1_3x3_3_bn
I0110 11:34:47.708498 55253 net.cpp:91] Creating Layer inception_a1_3x3_3_bn
I0110 11:34:47.708501 55253 net.cpp:425] inception_a1_3x3_3_bn <- inception_a1_3x3_3
I0110 11:34:47.708506 55253 net.cpp:386] inception_a1_3x3_3_bn -> inception_a1_3x3_3 (in-place)
I0110 11:34:47.708714 55253 net.cpp:141] Setting up inception_a1_3x3_3_bn
I0110 11:34:47.708724 55253 net.cpp:148] Top shape: 10 96 35 35 (1176000)
I0110 11:34:47.708727 55253 net.cpp:156] Memory required for data: 1486106080
I0110 11:34:47.708734 55253 layer_factory.hpp:77] Creating layer inception_a1_3x3_3_scale
I0110 11:34:47.708740 55253 net.cpp:91] Creating Layer inception_a1_3x3_3_scale
I0110 11:34:47.708745 55253 net.cpp:425] inception_a1_3x3_3_scale <- inception_a1_3x3_3
I0110 11:34:47.708750 55253 net.cpp:386] inception_a1_3x3_3_scale -> inception_a1_3x3_3 (in-place)
I0110 11:34:47.708791 55253 layer_factory.hpp:77] Creating layer inception_a1_3x3_3_scale
I0110 11:34:47.708904 55253 net.cpp:141] Setting up inception_a1_3x3_3_scale
I0110 11:34:47.708914 55253 net.cpp:148] Top shape: 10 96 35 35 (1176000)
I0110 11:34:47.708916 55253 net.cpp:156] Memory required for data: 1490810080
I0110 11:34:47.708921 55253 layer_factory.hpp:77] Creating layer inception_a1_3x3_3_relu
I0110 11:34:47.708926 55253 net.cpp:91] Creating Layer inception_a1_3x3_3_relu
I0110 11:34:47.708930 55253 net.cpp:425] inception_a1_3x3_3_relu <- inception_a1_3x3_3
I0110 11:34:47.708935 55253 net.cpp:386] inception_a1_3x3_3_relu -> inception_a1_3x3_3 (in-place)
I0110 11:34:47.709105 55253 net.cpp:141] Setting up inception_a1_3x3_3_relu
I0110 11:34:47.709113 55253 net.cpp:148] Top shape: 10 96 35 35 (1176000)
I0110 11:34:47.709133 55253 net.cpp:156] Memory required for data: 1495514080
I0110 11:34:47.709137 55253 layer_factory.hpp:77] Creating layer inception_a1_pool_ave
I0110 11:34:47.709146 55253 net.cpp:91] Creating Layer inception_a1_pool_ave
I0110 11:34:47.709151 55253 net.cpp:425] inception_a1_pool_ave <- inception_stem3_inception_stem3_0_split_3
I0110 11:34:47.709177 55253 net.cpp:399] inception_a1_pool_ave -> inception_a1_pool_ave
I0110 11:34:47.709441 55253 net.cpp:141] Setting up inception_a1_pool_ave
I0110 11:34:47.709468 55253 net.cpp:148] Top shape: 10 384 35 35 (4704000)
I0110 11:34:47.709472 55253 net.cpp:156] Memory required for data: 1514330080
I0110 11:34:47.709492 55253 layer_factory.hpp:77] Creating layer inception_a1_1x1
I0110 11:34:47.709501 55253 net.cpp:91] Creating Layer inception_a1_1x1
I0110 11:34:47.709506 55253 net.cpp:425] inception_a1_1x1 <- inception_a1_pool_ave
I0110 11:34:47.709513 55253 net.cpp:399] inception_a1_1x1 -> inception_a1_1x1
I0110 11:34:47.711454 55253 net.cpp:141] Setting up inception_a1_1x1
I0110 11:34:47.711467 55253 net.cpp:148] Top shape: 10 96 35 35 (1176000)
I0110 11:34:47.711472 55253 net.cpp:156] Memory required for data: 1519034080
I0110 11:34:47.711495 55253 layer_factory.hpp:77] Creating layer inception_a1_1x1_bn
I0110 11:34:47.711504 55253 net.cpp:91] Creating Layer inception_a1_1x1_bn
I0110 11:34:47.711508 55253 net.cpp:425] inception_a1_1x1_bn <- inception_a1_1x1
I0110 11:34:47.711513 55253 net.cpp:386] inception_a1_1x1_bn -> inception_a1_1x1 (in-place)
I0110 11:34:47.711758 55253 net.cpp:141] Setting up inception_a1_1x1_bn
I0110 11:34:47.711766 55253 net.cpp:148] Top shape: 10 96 35 35 (1176000)
I0110 11:34:47.711771 55253 net.cpp:156] Memory required for data: 1523738080
I0110 11:34:47.711791 55253 layer_factory.hpp:77] Creating layer inception_a1_1x1_scale
I0110 11:34:47.711802 55253 net.cpp:91] Creating Layer inception_a1_1x1_scale
I0110 11:34:47.711807 55253 net.cpp:425] inception_a1_1x1_scale <- inception_a1_1x1
I0110 11:34:47.711812 55253 net.cpp:386] inception_a1_1x1_scale -> inception_a1_1x1 (in-place)
I0110 11:34:47.711856 55253 layer_factory.hpp:77] Creating layer inception_a1_1x1_scale
I0110 11:34:47.712005 55253 net.cpp:141] Setting up inception_a1_1x1_scale
I0110 11:34:47.712013 55253 net.cpp:148] Top shape: 10 96 35 35 (1176000)
I0110 11:34:47.712016 55253 net.cpp:156] Memory required for data: 1528442080
I0110 11:34:47.712021 55253 layer_factory.hpp:77] Creating layer inception_a1_1x1_relu
I0110 11:34:47.712033 55253 net.cpp:91] Creating Layer inception_a1_1x1_relu
I0110 11:34:47.712038 55253 net.cpp:425] inception_a1_1x1_relu <- inception_a1_1x1
I0110 11:34:47.712059 55253 net.cpp:386] inception_a1_1x1_relu -> inception_a1_1x1 (in-place)
I0110 11:34:47.712934 55253 net.cpp:141] Setting up inception_a1_1x1_relu
I0110 11:34:47.712947 55253 net.cpp:148] Top shape: 10 96 35 35 (1176000)
I0110 11:34:47.712966 55253 net.cpp:156] Memory required for data: 1533146080
I0110 11:34:47.712970 55253 layer_factory.hpp:77] Creating layer inception_a1_concat
I0110 11:34:47.712985 55253 net.cpp:91] Creating Layer inception_a1_concat
I0110 11:34:47.712991 55253 net.cpp:425] inception_a1_concat <- inception_a1_1x1_2
I0110 11:34:47.712996 55253 net.cpp:425] inception_a1_concat <- inception_a1_3x3
I0110 11:34:47.713001 55253 net.cpp:425] inception_a1_concat <- inception_a1_3x3_3
I0110 11:34:47.713003 55253 net.cpp:425] inception_a1_concat <- inception_a1_1x1
I0110 11:34:47.713008 55253 net.cpp:399] inception_a1_concat -> inception_a1_concat
I0110 11:34:47.713060 55253 net.cpp:141] Setting up inception_a1_concat
I0110 11:34:47.713068 55253 net.cpp:148] Top shape: 10 384 35 35 (4704000)
I0110 11:34:47.713088 55253 net.cpp:156] Memory required for data: 1551962080
I0110 11:34:47.713091 55253 layer_factory.hpp:77] Creating layer inception_a1_concat_inception_a1_concat_0_split
I0110 11:34:47.713098 55253 net.cpp:91] Creating Layer inception_a1_concat_inception_a1_concat_0_split
I0110 11:34:47.713100 55253 net.cpp:425] inception_a1_concat_inception_a1_concat_0_split <- inception_a1_concat
I0110 11:34:47.713107 55253 net.cpp:399] inception_a1_concat_inception_a1_concat_0_split -> inception_a1_concat_inception_a1_concat_0_split_0
I0110 11:34:47.713114 55253 net.cpp:399] inception_a1_concat_inception_a1_concat_0_split -> inception_a1_concat_inception_a1_concat_0_split_1
I0110 11:34:47.713121 55253 net.cpp:399] inception_a1_concat_inception_a1_concat_0_split -> inception_a1_concat_inception_a1_concat_0_split_2
I0110 11:34:47.713127 55253 net.cpp:399] inception_a1_concat_inception_a1_concat_0_split -> inception_a1_concat_inception_a1_concat_0_split_3
I0110 11:34:47.713189 55253 net.cpp:141] Setting up inception_a1_concat_inception_a1_concat_0_split
I0110 11:34:47.713196 55253 net.cpp:148] Top shape: 10 384 35 35 (4704000)
I0110 11:34:47.713199 55253 net.cpp:148] Top shape: 10 384 35 35 (4704000)
I0110 11:34:47.713203 55253 net.cpp:148] Top shape: 10 384 35 35 (4704000)
I0110 11:34:47.713207 55253 net.cpp:148] Top shape: 10 384 35 35 (4704000)
I0110 11:34:47.713209 55253 net.cpp:156] Memory required for data: 1627226080
I0110 11:34:47.713212 55253 layer_factory.hpp:77] Creating layer inception_a2_1x1_2
I0110 11:34:47.713222 55253 net.cpp:91] Creating Layer inception_a2_1x1_2
I0110 11:34:47.713227 55253 net.cpp:425] inception_a2_1x1_2 <- inception_a1_concat_inception_a1_concat_0_split_0
I0110 11:34:47.713232 55253 net.cpp:399] inception_a2_1x1_2 -> inception_a2_1x1_2
I0110 11:34:47.713935 55253 net.cpp:141] Setting up inception_a2_1x1_2
I0110 11:34:47.713946 55253 net.cpp:148] Top shape: 10 96 35 35 (1176000)
I0110 11:34:47.713949 55253 net.cpp:156] Memory required for data: 1631930080
I0110 11:34:47.713954 55253 layer_factory.hpp:77] Creating layer inception_a2_1x1_2_bn
I0110 11:34:47.713961 55253 net.cpp:91] Creating Layer inception_a2_1x1_2_bn
I0110 11:34:47.713975 55253 net.cpp:425] inception_a2_1x1_2_bn <- inception_a2_1x1_2
I0110 11:34:47.713981 55253 net.cpp:386] inception_a2_1x1_2_bn -> inception_a2_1x1_2 (in-place)
I0110 11:34:47.714211 55253 net.cpp:141] Setting up inception_a2_1x1_2_bn
I0110 11:34:47.714221 55253 net.cpp:148] Top shape: 10 96 35 35 (1176000)
I0110 11:34:47.714223 55253 net.cpp:156] Memory required for data: 1636634080
I0110 11:34:47.714231 55253 layer_factory.hpp:77] Creating layer inception_a2_1x1_2_scale
I0110 11:34:47.714237 55253 net.cpp:91] Creating Layer inception_a2_1x1_2_scale
I0110 11:34:47.714243 55253 net.cpp:425] inception_a2_1x1_2_scale <- inception_a2_1x1_2
I0110 11:34:47.714248 55253 net.cpp:386] inception_a2_1x1_2_scale -> inception_a2_1x1_2 (in-place)
I0110 11:34:47.714289 55253 layer_factory.hpp:77] Creating layer inception_a2_1x1_2_scale
I0110 11:34:47.714419 55253 net.cpp:141] Setting up inception_a2_1x1_2_scale
I0110 11:34:47.714426 55253 net.cpp:148] Top shape: 10 96 35 35 (1176000)
I0110 11:34:47.714429 55253 net.cpp:156] Memory required for data: 1641338080
I0110 11:34:47.714437 55253 layer_factory.hpp:77] Creating layer inception_a2_1x1_2_relu
I0110 11:34:47.714442 55253 net.cpp:91] Creating Layer inception_a2_1x1_2_relu
I0110 11:34:47.714445 55253 net.cpp:425] inception_a2_1x1_2_relu <- inception_a2_1x1_2
I0110 11:34:47.714449 55253 net.cpp:386] inception_a2_1x1_2_relu -> inception_a2_1x1_2 (in-place)
I0110 11:34:47.715313 55253 net.cpp:141] Setting up inception_a2_1x1_2_relu
I0110 11:34:47.715348 55253 net.cpp:148] Top shape: 10 96 35 35 (1176000)
I0110 11:34:47.715353 55253 net.cpp:156] Memory required for data: 1646042080
I0110 11:34:47.715374 55253 layer_factory.hpp:77] Creating layer inception_a2_3x3_reduce
I0110 11:34:47.715381 55253 net.cpp:91] Creating Layer inception_a2_3x3_reduce
I0110 11:34:47.715387 55253 net.cpp:425] inception_a2_3x3_reduce <- inception_a1_concat_inception_a1_concat_0_split_1
I0110 11:34:47.715396 55253 net.cpp:399] inception_a2_3x3_reduce -> inception_a2_3x3_reduce
I0110 11:34:47.716784 55253 net.cpp:141] Setting up inception_a2_3x3_reduce
I0110 11:34:47.716796 55253 net.cpp:148] Top shape: 10 64 35 35 (784000)
I0110 11:34:47.716800 55253 net.cpp:156] Memory required for data: 1649178080
I0110 11:34:47.716805 55253 layer_factory.hpp:77] Creating layer inception_a2_3x3_reduce_bn
I0110 11:34:47.716814 55253 net.cpp:91] Creating Layer inception_a2_3x3_reduce_bn
I0110 11:34:47.716817 55253 net.cpp:425] inception_a2_3x3_reduce_bn <- inception_a2_3x3_reduce
I0110 11:34:47.716822 55253 net.cpp:386] inception_a2_3x3_reduce_bn -> inception_a2_3x3_reduce (in-place)
I0110 11:34:47.717021 55253 net.cpp:141] Setting up inception_a2_3x3_reduce_bn
I0110 11:34:47.717034 55253 net.cpp:148] Top shape: 10 64 35 35 (784000)
I0110 11:34:47.717038 55253 net.cpp:156] Memory required for data: 1652314080
I0110 11:34:47.717062 55253 layer_factory.hpp:77] Creating layer inception_a2_3x3_reduce_scale
I0110 11:34:47.717069 55253 net.cpp:91] Creating Layer inception_a2_3x3_reduce_scale
I0110 11:34:47.717073 55253 net.cpp:425] inception_a2_3x3_reduce_scale <- inception_a2_3x3_reduce
I0110 11:34:47.717095 55253 net.cpp:386] inception_a2_3x3_reduce_scale -> inception_a2_3x3_reduce (in-place)
I0110 11:34:47.717141 55253 layer_factory.hpp:77] Creating layer inception_a2_3x3_reduce_scale
I0110 11:34:47.717258 55253 net.cpp:141] Setting up inception_a2_3x3_reduce_scale
I0110 11:34:47.717267 55253 net.cpp:148] Top shape: 10 64 35 35 (784000)
I0110 11:34:47.717269 55253 net.cpp:156] Memory required for data: 1655450080
I0110 11:34:47.717275 55253 layer_factory.hpp:77] Creating layer inception_a2_3x3_reduce_relu
I0110 11:34:47.717280 55253 net.cpp:91] Creating Layer inception_a2_3x3_reduce_relu
I0110 11:34:47.717284 55253 net.cpp:425] inception_a2_3x3_reduce_relu <- inception_a2_3x3_reduce
I0110 11:34:47.717290 55253 net.cpp:386] inception_a2_3x3_reduce_relu -> inception_a2_3x3_reduce (in-place)
I0110 11:34:47.717476 55253 net.cpp:141] Setting up inception_a2_3x3_reduce_relu
I0110 11:34:47.717496 55253 net.cpp:148] Top shape: 10 64 35 35 (784000)
I0110 11:34:47.717500 55253 net.cpp:156] Memory required for data: 1658586080
I0110 11:34:47.717504 55253 layer_factory.hpp:77] Creating layer inception_a2_3x3
I0110 11:34:47.717516 55253 net.cpp:91] Creating Layer inception_a2_3x3
I0110 11:34:47.717521 55253 net.cpp:425] inception_a2_3x3 <- inception_a2_3x3_reduce
I0110 11:34:47.717526 55253 net.cpp:399] inception_a2_3x3 -> inception_a2_3x3
I0110 11:34:47.719951 55253 net.cpp:141] Setting up inception_a2_3x3
I0110 11:34:47.719981 55253 net.cpp:148] Top shape: 10 96 35 35 (1176000)
I0110 11:34:47.719987 55253 net.cpp:156] Memory required for data: 1663290080
I0110 11:34:47.719993 55253 layer_factory.hpp:77] Creating layer inception_a2_3x3_bn
I0110 11:34:47.720000 55253 net.cpp:91] Creating Layer inception_a2_3x3_bn
I0110 11:34:47.720003 55253 net.cpp:425] inception_a2_3x3_bn <- inception_a2_3x3
I0110 11:34:47.720027 55253 net.cpp:386] inception_a2_3x3_bn -> inception_a2_3x3 (in-place)
I0110 11:34:47.720275 55253 net.cpp:141] Setting up inception_a2_3x3_bn
I0110 11:34:47.720283 55253 net.cpp:148] Top shape: 10 96 35 35 (1176000)
I0110 11:34:47.720288 55253 net.cpp:156] Memory required for data: 1667994080
I0110 11:34:47.720294 55253 layer_factory.hpp:77] Creating layer inception_a2_3x3_scale
I0110 11:34:47.720304 55253 net.cpp:91] Creating Layer inception_a2_3x3_scale
I0110 11:34:47.720309 55253 net.cpp:425] inception_a2_3x3_scale <- inception_a2_3x3
I0110 11:34:47.720314 55253 net.cpp:386] inception_a2_3x3_scale -> inception_a2_3x3 (in-place)
I0110 11:34:47.720371 55253 layer_factory.hpp:77] Creating layer inception_a2_3x3_scale
I0110 11:34:47.720511 55253 net.cpp:141] Setting up inception_a2_3x3_scale
I0110 11:34:47.720520 55253 net.cpp:148] Top shape: 10 96 35 35 (1176000)
I0110 11:34:47.720522 55253 net.cpp:156] Memory required for data: 1672698080
I0110 11:34:47.720528 55253 layer_factory.hpp:77] Creating layer inception_a2_3x3_relu
I0110 11:34:47.720533 55253 net.cpp:91] Creating Layer inception_a2_3x3_relu
I0110 11:34:47.720538 55253 net.cpp:425] inception_a2_3x3_relu <- inception_a2_3x3
I0110 11:34:47.720546 55253 net.cpp:386] inception_a2_3x3_relu -> inception_a2_3x3 (in-place)
I0110 11:34:47.720737 55253 net.cpp:141] Setting up inception_a2_3x3_relu
I0110 11:34:47.720746 55253 net.cpp:148] Top shape: 10 96 35 35 (1176000)
I0110 11:34:47.720749 55253 net.cpp:156] Memory required for data: 1677402080
I0110 11:34:47.720752 55253 layer_factory.hpp:77] Creating layer inception_a2_3x3_2_reduce
I0110 11:34:47.720764 55253 net.cpp:91] Creating Layer inception_a2_3x3_2_reduce
I0110 11:34:47.720769 55253 net.cpp:425] inception_a2_3x3_2_reduce <- inception_a1_concat_inception_a1_concat_0_split_2
I0110 11:34:47.720775 55253 net.cpp:399] inception_a2_3x3_2_reduce -> inception_a2_3x3_2_reduce
I0110 11:34:47.722263 55253 net.cpp:141] Setting up inception_a2_3x3_2_reduce
I0110 11:34:47.722277 55253 net.cpp:148] Top shape: 10 64 35 35 (784000)
I0110 11:34:47.722281 55253 net.cpp:156] Memory required for data: 1680538080
I0110 11:34:47.722287 55253 layer_factory.hpp:77] Creating layer inception_a2_3x3_2_reduce_bn
I0110 11:34:47.722298 55253 net.cpp:91] Creating Layer inception_a2_3x3_2_reduce_bn
I0110 11:34:47.722303 55253 net.cpp:425] inception_a2_3x3_2_reduce_bn <- inception_a2_3x3_2_reduce
I0110 11:34:47.722308 55253 net.cpp:386] inception_a2_3x3_2_reduce_bn -> inception_a2_3x3_2_reduce (in-place)
I0110 11:34:47.722520 55253 net.cpp:141] Setting up inception_a2_3x3_2_reduce_bn
I0110 11:34:47.722527 55253 net.cpp:148] Top shape: 10 64 35 35 (784000)
I0110 11:34:47.722530 55253 net.cpp:156] Memory required for data: 1683674080
I0110 11:34:47.722559 55253 layer_factory.hpp:77] Creating layer inception_a2_3x3_2_reduce_scale
I0110 11:34:47.722569 55253 net.cpp:91] Creating Layer inception_a2_3x3_2_reduce_scale
I0110 11:34:47.722575 55253 net.cpp:425] inception_a2_3x3_2_reduce_scale <- inception_a2_3x3_2_reduce
I0110 11:34:47.722580 55253 net.cpp:386] inception_a2_3x3_2_reduce_scale -> inception_a2_3x3_2_reduce (in-place)
I0110 11:34:47.722635 55253 layer_factory.hpp:77] Creating layer inception_a2_3x3_2_reduce_scale
I0110 11:34:47.722749 55253 net.cpp:141] Setting up inception_a2_3x3_2_reduce_scale
I0110 11:34:47.722757 55253 net.cpp:148] Top shape: 10 64 35 35 (784000)
I0110 11:34:47.722760 55253 net.cpp:156] Memory required for data: 1686810080
I0110 11:34:47.722765 55253 layer_factory.hpp:77] Creating layer inception_a2_3x3_2_reduce_relu
I0110 11:34:47.722771 55253 net.cpp:91] Creating Layer inception_a2_3x3_2_reduce_relu
I0110 11:34:47.722775 55253 net.cpp:425] inception_a2_3x3_2_reduce_relu <- inception_a2_3x3_2_reduce
I0110 11:34:47.722781 55253 net.cpp:386] inception_a2_3x3_2_reduce_relu -> inception_a2_3x3_2_reduce (in-place)
I0110 11:34:47.722954 55253 net.cpp:141] Setting up inception_a2_3x3_2_reduce_relu
I0110 11:34:47.722964 55253 net.cpp:148] Top shape: 10 64 35 35 (784000)
I0110 11:34:47.722966 55253 net.cpp:156] Memory required for data: 1689946080
I0110 11:34:47.722970 55253 layer_factory.hpp:77] Creating layer inception_a2_3x3_2
I0110 11:34:47.722980 55253 net.cpp:91] Creating Layer inception_a2_3x3_2
I0110 11:34:47.722982 55253 net.cpp:425] inception_a2_3x3_2 <- inception_a2_3x3_2_reduce
I0110 11:34:47.722987 55253 net.cpp:399] inception_a2_3x3_2 -> inception_a2_3x3_2
I0110 11:34:47.725173 55253 net.cpp:141] Setting up inception_a2_3x3_2
I0110 11:34:47.725188 55253 net.cpp:148] Top shape: 10 96 35 35 (1176000)
I0110 11:34:47.725208 55253 net.cpp:156] Memory required for data: 1694650080
I0110 11:34:47.725212 55253 layer_factory.hpp:77] Creating layer inception_a2_3x3_2_bn
I0110 11:34:47.725220 55253 net.cpp:91] Creating Layer inception_a2_3x3_2_bn
I0110 11:34:47.725224 55253 net.cpp:425] inception_a2_3x3_2_bn <- inception_a2_3x3_2
I0110 11:34:47.725234 55253 net.cpp:386] inception_a2_3x3_2_bn -> inception_a2_3x3_2 (in-place)
I0110 11:34:47.725473 55253 net.cpp:141] Setting up inception_a2_3x3_2_bn
I0110 11:34:47.725482 55253 net.cpp:148] Top shape: 10 96 35 35 (1176000)
I0110 11:34:47.725486 55253 net.cpp:156] Memory required for data: 1699354080
I0110 11:34:47.725492 55253 layer_factory.hpp:77] Creating layer inception_a2_3x3_2_scale
I0110 11:34:47.725502 55253 net.cpp:91] Creating Layer inception_a2_3x3_2_scale
I0110 11:34:47.725507 55253 net.cpp:425] inception_a2_3x3_2_scale <- inception_a2_3x3_2
I0110 11:34:47.725512 55253 net.cpp:386] inception_a2_3x3_2_scale -> inception_a2_3x3_2 (in-place)
I0110 11:34:47.725551 55253 layer_factory.hpp:77] Creating layer inception_a2_3x3_2_scale
I0110 11:34:47.725667 55253 net.cpp:141] Setting up inception_a2_3x3_2_scale
I0110 11:34:47.725675 55253 net.cpp:148] Top shape: 10 96 35 35 (1176000)
I0110 11:34:47.725678 55253 net.cpp:156] Memory required for data: 1704058080
I0110 11:34:47.725684 55253 layer_factory.hpp:77] Creating layer inception_a2_3x3_2_relu
I0110 11:34:47.725690 55253 net.cpp:91] Creating Layer inception_a2_3x3_2_relu
I0110 11:34:47.725694 55253 net.cpp:425] inception_a2_3x3_2_relu <- inception_a2_3x3_2
I0110 11:34:47.725697 55253 net.cpp:386] inception_a2_3x3_2_relu -> inception_a2_3x3_2 (in-place)
I0110 11:34:47.725870 55253 net.cpp:141] Setting up inception_a2_3x3_2_relu
I0110 11:34:47.725879 55253 net.cpp:148] Top shape: 10 96 35 35 (1176000)
I0110 11:34:47.725883 55253 net.cpp:156] Memory required for data: 1708762080
I0110 11:34:47.725886 55253 layer_factory.hpp:77] Creating layer inception_a2_3x3_3
I0110 11:34:47.725898 55253 net.cpp:91] Creating Layer inception_a2_3x3_3
I0110 11:34:47.725903 55253 net.cpp:425] inception_a2_3x3_3 <- inception_a2_3x3_2
I0110 11:34:47.725908 55253 net.cpp:399] inception_a2_3x3_3 -> inception_a2_3x3_3
I0110 11:34:47.728813 55253 net.cpp:141] Setting up inception_a2_3x3_3
I0110 11:34:47.728832 55253 net.cpp:148] Top shape: 10 96 35 35 (1176000)
I0110 11:34:47.728835 55253 net.cpp:156] Memory required for data: 1713466080
I0110 11:34:47.728842 55253 layer_factory.hpp:77] Creating layer inception_a2_3x3_3_bn
I0110 11:34:47.728852 55253 net.cpp:91] Creating Layer inception_a2_3x3_3_bn
I0110 11:34:47.728857 55253 net.cpp:425] inception_a2_3x3_3_bn <- inception_a2_3x3_3
I0110 11:34:47.728876 55253 net.cpp:386] inception_a2_3x3_3_bn -> inception_a2_3x3_3 (in-place)
I0110 11:34:47.729136 55253 net.cpp:141] Setting up inception_a2_3x3_3_bn
I0110 11:34:47.729145 55253 net.cpp:148] Top shape: 10 96 35 35 (1176000)
I0110 11:34:47.729147 55253 net.cpp:156] Memory required for data: 1718170080
I0110 11:34:47.729156 55253 layer_factory.hpp:77] Creating layer inception_a2_3x3_3_scale
I0110 11:34:47.729163 55253 net.cpp:91] Creating Layer inception_a2_3x3_3_scale
I0110 11:34:47.729166 55253 net.cpp:425] inception_a2_3x3_3_scale <- inception_a2_3x3_3
I0110 11:34:47.729171 55253 net.cpp:386] inception_a2_3x3_3_scale -> inception_a2_3x3_3 (in-place)
I0110 11:34:47.729212 55253 layer_factory.hpp:77] Creating layer inception_a2_3x3_3_scale
I0110 11:34:47.729320 55253 net.cpp:141] Setting up inception_a2_3x3_3_scale
I0110 11:34:47.729326 55253 net.cpp:148] Top shape: 10 96 35 35 (1176000)
I0110 11:34:47.729329 55253 net.cpp:156] Memory required for data: 1722874080
I0110 11:34:47.729334 55253 layer_factory.hpp:77] Creating layer inception_a2_3x3_3_relu
I0110 11:34:47.729341 55253 net.cpp:91] Creating Layer inception_a2_3x3_3_relu
I0110 11:34:47.729344 55253 net.cpp:425] inception_a2_3x3_3_relu <- inception_a2_3x3_3
I0110 11:34:47.729348 55253 net.cpp:386] inception_a2_3x3_3_relu -> inception_a2_3x3_3 (in-place)
I0110 11:34:47.730273 55253 net.cpp:141] Setting up inception_a2_3x3_3_relu
I0110 11:34:47.730286 55253 net.cpp:148] Top shape: 10 96 35 35 (1176000)
I0110 11:34:47.730290 55253 net.cpp:156] Memory required for data: 1727578080
I0110 11:34:47.730293 55253 layer_factory.hpp:77] Creating layer inception_a2_pool_ave
I0110 11:34:47.730306 55253 net.cpp:91] Creating Layer inception_a2_pool_ave
I0110 11:34:47.730310 55253 net.cpp:425] inception_a2_pool_ave <- inception_a1_concat_inception_a1_concat_0_split_3
I0110 11:34:47.730319 55253 net.cpp:399] inception_a2_pool_ave -> inception_a2_pool_ave
I0110 11:34:47.730496 55253 net.cpp:141] Setting up inception_a2_pool_ave
I0110 11:34:47.730505 55253 net.cpp:148] Top shape: 10 384 35 35 (4704000)
I0110 11:34:47.730509 55253 net.cpp:156] Memory required for data: 1746394080
I0110 11:34:47.730511 55253 layer_factory.hpp:77] Creating layer inception_a2_1x1
I0110 11:34:47.730522 55253 net.cpp:91] Creating Layer inception_a2_1x1
I0110 11:34:47.730526 55253 net.cpp:425] inception_a2_1x1 <- inception_a2_pool_ave
I0110 11:34:47.730532 55253 net.cpp:399] inception_a2_1x1 -> inception_a2_1x1
I0110 11:34:47.731884 55253 net.cpp:141] Setting up inception_a2_1x1
I0110 11:34:47.731897 55253 net.cpp:148] Top shape: 10 96 35 35 (1176000)
I0110 11:34:47.731900 55253 net.cpp:156] Memory required for data: 1751098080
I0110 11:34:47.731905 55253 layer_factory.hpp:77] Creating layer inception_a2_1x1_bn
I0110 11:34:47.731914 55253 net.cpp:91] Creating Layer inception_a2_1x1_bn
I0110 11:34:47.731917 55253 net.cpp:425] inception_a2_1x1_bn <- inception_a2_1x1
I0110 11:34:47.731921 55253 net.cpp:386] inception_a2_1x1_bn -> inception_a2_1x1 (in-place)
I0110 11:34:47.732108 55253 net.cpp:141] Setting up inception_a2_1x1_bn
I0110 11:34:47.732116 55253 net.cpp:148] Top shape: 10 96 35 35 (1176000)
I0110 11:34:47.732120 55253 net.cpp:156] Memory required for data: 1755802080
I0110 11:34:47.732126 55253 layer_factory.hpp:77] Creating layer inception_a2_1x1_scale
I0110 11:34:47.732138 55253 net.cpp:91] Creating Layer inception_a2_1x1_scale
I0110 11:34:47.732142 55253 net.cpp:425] inception_a2_1x1_scale <- inception_a2_1x1
I0110 11:34:47.732146 55253 net.cpp:386] inception_a2_1x1_scale -> inception_a2_1x1 (in-place)
I0110 11:34:47.732185 55253 layer_factory.hpp:77] Creating layer inception_a2_1x1_scale
I0110 11:34:47.732290 55253 net.cpp:141] Setting up inception_a2_1x1_scale
I0110 11:34:47.732296 55253 net.cpp:148] Top shape: 10 96 35 35 (1176000)
I0110 11:34:47.732300 55253 net.cpp:156] Memory required for data: 1760506080
I0110 11:34:47.732305 55253 layer_factory.hpp:77] Creating layer inception_a2_1x1_relu
I0110 11:34:47.732309 55253 net.cpp:91] Creating Layer inception_a2_1x1_relu
I0110 11:34:47.732324 55253 net.cpp:425] inception_a2_1x1_relu <- inception_a2_1x1
I0110 11:34:47.732331 55253 net.cpp:386] inception_a2_1x1_relu -> inception_a2_1x1 (in-place)
I0110 11:34:47.732489 55253 net.cpp:141] Setting up inception_a2_1x1_relu
I0110 11:34:47.732497 55253 net.cpp:148] Top shape: 10 96 35 35 (1176000)
I0110 11:34:47.732501 55253 net.cpp:156] Memory required for data: 1765210080
I0110 11:34:47.732503 55253 layer_factory.hpp:77] Creating layer inception_a2_concat
I0110 11:34:47.732511 55253 net.cpp:91] Creating Layer inception_a2_concat
I0110 11:34:47.732514 55253 net.cpp:425] inception_a2_concat <- inception_a2_1x1_2
I0110 11:34:47.732534 55253 net.cpp:425] inception_a2_concat <- inception_a2_3x3
I0110 11:34:47.732538 55253 net.cpp:425] inception_a2_concat <- inception_a2_3x3_3
I0110 11:34:47.732542 55253 net.cpp:425] inception_a2_concat <- inception_a2_1x1
I0110 11:34:47.732547 55253 net.cpp:399] inception_a2_concat -> inception_a2_concat
I0110 11:34:47.732573 55253 net.cpp:141] Setting up inception_a2_concat
I0110 11:34:47.732578 55253 net.cpp:148] Top shape: 10 384 35 35 (4704000)
I0110 11:34:47.732581 55253 net.cpp:156] Memory required for data: 1784026080
I0110 11:34:47.732584 55253 layer_factory.hpp:77] Creating layer inception_a2_concat_inception_a2_concat_0_split
I0110 11:34:47.732590 55253 net.cpp:91] Creating Layer inception_a2_concat_inception_a2_concat_0_split
I0110 11:34:47.732594 55253 net.cpp:425] inception_a2_concat_inception_a2_concat_0_split <- inception_a2_concat
I0110 11:34:47.732600 55253 net.cpp:399] inception_a2_concat_inception_a2_concat_0_split -> inception_a2_concat_inception_a2_concat_0_split_0
I0110 11:34:47.732606 55253 net.cpp:399] inception_a2_concat_inception_a2_concat_0_split -> inception_a2_concat_inception_a2_concat_0_split_1
I0110 11:34:47.732611 55253 net.cpp:399] inception_a2_concat_inception_a2_concat_0_split -> inception_a2_concat_inception_a2_concat_0_split_2
I0110 11:34:47.732616 55253 net.cpp:399] inception_a2_concat_inception_a2_concat_0_split -> inception_a2_concat_inception_a2_concat_0_split_3
I0110 11:34:47.732679 55253 net.cpp:141] Setting up inception_a2_concat_inception_a2_concat_0_split
I0110 11:34:47.732686 55253 net.cpp:148] Top shape: 10 384 35 35 (4704000)
I0110 11:34:47.732689 55253 net.cpp:148] Top shape: 10 384 35 35 (4704000)
I0110 11:34:47.732692 55253 net.cpp:148] Top shape: 10 384 35 35 (4704000)
I0110 11:34:47.732695 55253 net.cpp:148] Top shape: 10 384 35 35 (4704000)
I0110 11:34:47.732698 55253 net.cpp:156] Memory required for data: 1859290080
I0110 11:34:47.732702 55253 layer_factory.hpp:77] Creating layer inception_a3_1x1_2
I0110 11:34:47.732709 55253 net.cpp:91] Creating Layer inception_a3_1x1_2
I0110 11:34:47.732712 55253 net.cpp:425] inception_a3_1x1_2 <- inception_a2_concat_inception_a2_concat_0_split_0
I0110 11:34:47.732717 55253 net.cpp:399] inception_a3_1x1_2 -> inception_a3_1x1_2
I0110 11:34:47.734390 55253 net.cpp:141] Setting up inception_a3_1x1_2
I0110 11:34:47.734403 55253 net.cpp:148] Top shape: 10 96 35 35 (1176000)
I0110 11:34:47.734406 55253 net.cpp:156] Memory required for data: 1863994080
I0110 11:34:47.734412 55253 layer_factory.hpp:77] Creating layer inception_a3_1x1_2_bn
I0110 11:34:47.734428 55253 net.cpp:91] Creating Layer inception_a3_1x1_2_bn
I0110 11:34:47.734434 55253 net.cpp:425] inception_a3_1x1_2_bn <- inception_a3_1x1_2
I0110 11:34:47.734441 55253 net.cpp:386] inception_a3_1x1_2_bn -> inception_a3_1x1_2 (in-place)
I0110 11:34:47.734623 55253 net.cpp:141] Setting up inception_a3_1x1_2_bn
I0110 11:34:47.734630 55253 net.cpp:148] Top shape: 10 96 35 35 (1176000)
I0110 11:34:47.734633 55253 net.cpp:156] Memory required for data: 1868698080
I0110 11:34:47.734640 55253 layer_factory.hpp:77] Creating layer inception_a3_1x1_2_scale
I0110 11:34:47.734647 55253 net.cpp:91] Creating Layer inception_a3_1x1_2_scale
I0110 11:34:47.734649 55253 net.cpp:425] inception_a3_1x1_2_scale <- inception_a3_1x1_2
I0110 11:34:47.734658 55253 net.cpp:386] inception_a3_1x1_2_scale -> inception_a3_1x1_2 (in-place)
I0110 11:34:47.734710 55253 layer_factory.hpp:77] Creating layer inception_a3_1x1_2_scale
I0110 11:34:47.734817 55253 net.cpp:141] Setting up inception_a3_1x1_2_scale
I0110 11:34:47.734822 55253 net.cpp:148] Top shape: 10 96 35 35 (1176000)
I0110 11:34:47.734825 55253 net.cpp:156] Memory required for data: 1873402080
I0110 11:34:47.734830 55253 layer_factory.hpp:77] Creating layer inception_a3_1x1_2_relu
I0110 11:34:47.734838 55253 net.cpp:91] Creating Layer inception_a3_1x1_2_relu
I0110 11:34:47.734840 55253 net.cpp:425] inception_a3_1x1_2_relu <- inception_a3_1x1_2
I0110 11:34:47.734844 55253 net.cpp:386] inception_a3_1x1_2_relu -> inception_a3_1x1_2 (in-place)
I0110 11:34:47.734999 55253 net.cpp:141] Setting up inception_a3_1x1_2_relu
I0110 11:34:47.735008 55253 net.cpp:148] Top shape: 10 96 35 35 (1176000)
I0110 11:34:47.735010 55253 net.cpp:156] Memory required for data: 1878106080
I0110 11:34:47.735013 55253 layer_factory.hpp:77] Creating layer inception_a3_3x3_reduce
I0110 11:34:47.735026 55253 net.cpp:91] Creating Layer inception_a3_3x3_reduce
I0110 11:34:47.735036 55253 net.cpp:425] inception_a3_3x3_reduce <- inception_a2_concat_inception_a2_concat_0_split_1
I0110 11:34:47.735043 55253 net.cpp:399] inception_a3_3x3_reduce -> inception_a3_3x3_reduce
I0110 11:34:47.736405 55253 net.cpp:141] Setting up inception_a3_3x3_reduce
I0110 11:34:47.736420 55253 net.cpp:148] Top shape: 10 64 35 35 (784000)
I0110 11:34:47.736424 55253 net.cpp:156] Memory required for data: 1881242080
I0110 11:34:47.736429 55253 layer_factory.hpp:77] Creating layer inception_a3_3x3_reduce_bn
I0110 11:34:47.736435 55253 net.cpp:91] Creating Layer inception_a3_3x3_reduce_bn
I0110 11:34:47.736439 55253 net.cpp:425] inception_a3_3x3_reduce_bn <- inception_a3_3x3_reduce
I0110 11:34:47.736444 55253 net.cpp:386] inception_a3_3x3_reduce_bn -> inception_a3_3x3_reduce (in-place)
I0110 11:34:47.736630 55253 net.cpp:141] Setting up inception_a3_3x3_reduce_bn
I0110 11:34:47.736639 55253 net.cpp:148] Top shape: 10 64 35 35 (784000)
I0110 11:34:47.736641 55253 net.cpp:156] Memory required for data: 1884378080
I0110 11:34:47.736647 55253 layer_factory.hpp:77] Creating layer inception_a3_3x3_reduce_scale
I0110 11:34:47.736654 55253 net.cpp:91] Creating Layer inception_a3_3x3_reduce_scale
I0110 11:34:47.736656 55253 net.cpp:425] inception_a3_3x3_reduce_scale <- inception_a3_3x3_reduce
I0110 11:34:47.736662 55253 net.cpp:386] inception_a3_3x3_reduce_scale -> inception_a3_3x3_reduce (in-place)
I0110 11:34:47.736699 55253 layer_factory.hpp:77] Creating layer inception_a3_3x3_reduce_scale
I0110 11:34:47.736804 55253 net.cpp:141] Setting up inception_a3_3x3_reduce_scale
I0110 11:34:47.736810 55253 net.cpp:148] Top shape: 10 64 35 35 (784000)
I0110 11:34:47.736814 55253 net.cpp:156] Memory required for data: 1887514080
I0110 11:34:47.736829 55253 layer_factory.hpp:77] Creating layer inception_a3_3x3_reduce_relu
I0110 11:34:47.736834 55253 net.cpp:91] Creating Layer inception_a3_3x3_reduce_relu
I0110 11:34:47.736836 55253 net.cpp:425] inception_a3_3x3_reduce_relu <- inception_a3_3x3_reduce
I0110 11:34:47.736842 55253 net.cpp:386] inception_a3_3x3_reduce_relu -> inception_a3_3x3_reduce (in-place)
I0110 11:34:47.737001 55253 net.cpp:141] Setting up inception_a3_3x3_reduce_relu
I0110 11:34:47.737010 55253 net.cpp:148] Top shape: 10 64 35 35 (784000)
I0110 11:34:47.737012 55253 net.cpp:156] Memory required for data: 1890650080
I0110 11:34:47.737016 55253 layer_factory.hpp:77] Creating layer inception_a3_3x3
I0110 11:34:47.737035 55253 net.cpp:91] Creating Layer inception_a3_3x3
I0110 11:34:47.737040 55253 net.cpp:425] inception_a3_3x3 <- inception_a3_3x3_reduce
I0110 11:34:47.737045 55253 net.cpp:399] inception_a3_3x3 -> inception_a3_3x3
I0110 11:34:47.739491 55253 net.cpp:141] Setting up inception_a3_3x3
I0110 11:34:47.739506 55253 net.cpp:148] Top shape: 10 96 35 35 (1176000)
I0110 11:34:47.739526 55253 net.cpp:156] Memory required for data: 1895354080
I0110 11:34:47.739531 55253 layer_factory.hpp:77] Creating layer inception_a3_3x3_bn
I0110 11:34:47.739553 55253 net.cpp:91] Creating Layer inception_a3_3x3_bn
I0110 11:34:47.739562 55253 net.cpp:425] inception_a3_3x3_bn <- inception_a3_3x3
I0110 11:34:47.739568 55253 net.cpp:386] inception_a3_3x3_bn -> inception_a3_3x3 (in-place)
I0110 11:34:47.739832 55253 net.cpp:141] Setting up inception_a3_3x3_bn
I0110 11:34:47.739840 55253 net.cpp:148] Top shape: 10 96 35 35 (1176000)
I0110 11:34:47.739845 55253 net.cpp:156] Memory required for data: 1900058080
I0110 11:34:47.739851 55253 layer_factory.hpp:77] Creating layer inception_a3_3x3_scale
I0110 11:34:47.739861 55253 net.cpp:91] Creating Layer inception_a3_3x3_scale
I0110 11:34:47.739866 55253 net.cpp:425] inception_a3_3x3_scale <- inception_a3_3x3
I0110 11:34:47.739871 55253 net.cpp:386] inception_a3_3x3_scale -> inception_a3_3x3 (in-place)
I0110 11:34:47.739923 55253 layer_factory.hpp:77] Creating layer inception_a3_3x3_scale
I0110 11:34:47.740072 55253 net.cpp:141] Setting up inception_a3_3x3_scale
I0110 11:34:47.740079 55253 net.cpp:148] Top shape: 10 96 35 35 (1176000)
I0110 11:34:47.740082 55253 net.cpp:156] Memory required for data: 1904762080
I0110 11:34:47.740090 55253 layer_factory.hpp:77] Creating layer inception_a3_3x3_relu
I0110 11:34:47.740098 55253 net.cpp:91] Creating Layer inception_a3_3x3_relu
I0110 11:34:47.740103 55253 net.cpp:425] inception_a3_3x3_relu <- inception_a3_3x3
I0110 11:34:47.740106 55253 net.cpp:386] inception_a3_3x3_relu -> inception_a3_3x3 (in-place)
I0110 11:34:47.740281 55253 net.cpp:141] Setting up inception_a3_3x3_relu
I0110 11:34:47.740290 55253 net.cpp:148] Top shape: 10 96 35 35 (1176000)
I0110 11:34:47.740293 55253 net.cpp:156] Memory required for data: 1909466080
I0110 11:34:47.740298 55253 layer_factory.hpp:77] Creating layer inception_a3_3x3_2_reduce
I0110 11:34:47.740319 55253 net.cpp:91] Creating Layer inception_a3_3x3_2_reduce
I0110 11:34:47.740325 55253 net.cpp:425] inception_a3_3x3_2_reduce <- inception_a2_concat_inception_a2_concat_0_split_2
I0110 11:34:47.740334 55253 net.cpp:399] inception_a3_3x3_2_reduce -> inception_a3_3x3_2_reduce
I0110 11:34:47.742738 55253 net.cpp:141] Setting up inception_a3_3x3_2_reduce
I0110 11:34:47.742751 55253 net.cpp:148] Top shape: 10 64 35 35 (784000)
I0110 11:34:47.742755 55253 net.cpp:156] Memory required for data: 1912602080
I0110 11:34:47.742763 55253 layer_factory.hpp:77] Creating layer inception_a3_3x3_2_reduce_bn
I0110 11:34:47.742769 55253 net.cpp:91] Creating Layer inception_a3_3x3_2_reduce_bn
I0110 11:34:47.742774 55253 net.cpp:425] inception_a3_3x3_2_reduce_bn <- inception_a3_3x3_2_reduce
I0110 11:34:47.742779 55253 net.cpp:386] inception_a3_3x3_2_reduce_bn -> inception_a3_3x3_2_reduce (in-place)
I0110 11:34:47.743002 55253 net.cpp:141] Setting up inception_a3_3x3_2_reduce_bn
I0110 11:34:47.743010 55253 net.cpp:148] Top shape: 10 64 35 35 (784000)
I0110 11:34:47.743013 55253 net.cpp:156] Memory required for data: 1915738080
I0110 11:34:47.743021 55253 layer_factory.hpp:77] Creating layer inception_a3_3x3_2_reduce_scale
I0110 11:34:47.743026 55253 net.cpp:91] Creating Layer inception_a3_3x3_2_reduce_scale
I0110 11:34:47.743036 55253 net.cpp:425] inception_a3_3x3_2_reduce_scale <- inception_a3_3x3_2_reduce
I0110 11:34:47.743041 55253 net.cpp:386] inception_a3_3x3_2_reduce_scale -> inception_a3_3x3_2_reduce (in-place)
I0110 11:34:47.743124 55253 layer_factory.hpp:77] Creating layer inception_a3_3x3_2_reduce_scale
I0110 11:34:47.743249 55253 net.cpp:141] Setting up inception_a3_3x3_2_reduce_scale
I0110 11:34:47.743259 55253 net.cpp:148] Top shape: 10 64 35 35 (784000)
I0110 11:34:47.743263 55253 net.cpp:156] Memory required for data: 1918874080
I0110 11:34:47.743268 55253 layer_factory.hpp:77] Creating layer inception_a3_3x3_2_reduce_relu
I0110 11:34:47.743274 55253 net.cpp:91] Creating Layer inception_a3_3x3_2_reduce_relu
I0110 11:34:47.743278 55253 net.cpp:425] inception_a3_3x3_2_reduce_relu <- inception_a3_3x3_2_reduce
I0110 11:34:47.743284 55253 net.cpp:386] inception_a3_3x3_2_reduce_relu -> inception_a3_3x3_2_reduce (in-place)
I0110 11:34:47.744225 55253 net.cpp:141] Setting up inception_a3_3x3_2_reduce_relu
I0110 11:34:47.744247 55253 net.cpp:148] Top shape: 10 64 35 35 (784000)
I0110 11:34:47.744251 55253 net.cpp:156] Memory required for data: 1922010080
I0110 11:34:47.744256 55253 layer_factory.hpp:77] Creating layer inception_a3_3x3_2
I0110 11:34:47.744267 55253 net.cpp:91] Creating Layer inception_a3_3x3_2
I0110 11:34:47.744272 55253 net.cpp:425] inception_a3_3x3_2 <- inception_a3_3x3_2_reduce
I0110 11:34:47.744278 55253 net.cpp:399] inception_a3_3x3_2 -> inception_a3_3x3_2
I0110 11:34:47.747838 55253 net.cpp:141] Setting up inception_a3_3x3_2
I0110 11:34:47.747853 55253 net.cpp:148] Top shape: 10 96 35 35 (1176000)
I0110 11:34:47.747855 55253 net.cpp:156] Memory required for data: 1926714080
I0110 11:34:47.747861 55253 layer_factory.hpp:77] Creating layer inception_a3_3x3_2_bn
I0110 11:34:47.747869 55253 net.cpp:91] Creating Layer inception_a3_3x3_2_bn
I0110 11:34:47.747874 55253 net.cpp:425] inception_a3_3x3_2_bn <- inception_a3_3x3_2
I0110 11:34:47.747879 55253 net.cpp:386] inception_a3_3x3_2_bn -> inception_a3_3x3_2 (in-place)
I0110 11:34:47.748122 55253 net.cpp:141] Setting up inception_a3_3x3_2_bn
I0110 11:34:47.748131 55253 net.cpp:148] Top shape: 10 96 35 35 (1176000)
I0110 11:34:47.748134 55253 net.cpp:156] Memory required for data: 1931418080
I0110 11:34:47.748142 55253 layer_factory.hpp:77] Creating layer inception_a3_3x3_2_scale
I0110 11:34:47.748149 55253 net.cpp:91] Creating Layer inception_a3_3x3_2_scale
I0110 11:34:47.748152 55253 net.cpp:425] inception_a3_3x3_2_scale <- inception_a3_3x3_2
I0110 11:34:47.748157 55253 net.cpp:386] inception_a3_3x3_2_scale -> inception_a3_3x3_2 (in-place)
I0110 11:34:47.748204 55253 layer_factory.hpp:77] Creating layer inception_a3_3x3_2_scale
I0110 11:34:47.748347 55253 net.cpp:141] Setting up inception_a3_3x3_2_scale
I0110 11:34:47.748355 55253 net.cpp:148] Top shape: 10 96 35 35 (1176000)
I0110 11:34:47.748358 55253 net.cpp:156] Memory required for data: 1936122080
I0110 11:34:47.748363 55253 layer_factory.hpp:77] Creating layer inception_a3_3x3_2_relu
I0110 11:34:47.748368 55253 net.cpp:91] Creating Layer inception_a3_3x3_2_relu
I0110 11:34:47.748371 55253 net.cpp:425] inception_a3_3x3_2_relu <- inception_a3_3x3_2
I0110 11:34:47.748375 55253 net.cpp:386] inception_a3_3x3_2_relu -> inception_a3_3x3_2 (in-place)
I0110 11:34:47.748589 55253 net.cpp:141] Setting up inception_a3_3x3_2_relu
I0110 11:34:47.748598 55253 net.cpp:148] Top shape: 10 96 35 35 (1176000)
I0110 11:34:47.748601 55253 net.cpp:156] Memory required for data: 1940826080
I0110 11:34:47.748605 55253 layer_factory.hpp:77] Creating layer inception_a3_3x3_3
I0110 11:34:47.748616 55253 net.cpp:91] Creating Layer inception_a3_3x3_3
I0110 11:34:47.748620 55253 net.cpp:425] inception_a3_3x3_3 <- inception_a3_3x3_2
I0110 11:34:47.748627 55253 net.cpp:399] inception_a3_3x3_3 -> inception_a3_3x3_3
I0110 11:34:47.752580 55253 net.cpp:141] Setting up inception_a3_3x3_3
I0110 11:34:47.752593 55253 net.cpp:148] Top shape: 10 96 35 35 (1176000)
I0110 11:34:47.752612 55253 net.cpp:156] Memory required for data: 1945530080
I0110 11:34:47.752619 55253 layer_factory.hpp:77] Creating layer inception_a3_3x3_3_bn
I0110 11:34:47.752629 55253 net.cpp:91] Creating Layer inception_a3_3x3_3_bn
I0110 11:34:47.752636 55253 net.cpp:425] inception_a3_3x3_3_bn <- inception_a3_3x3_3
I0110 11:34:47.752641 55253 net.cpp:386] inception_a3_3x3_3_bn -> inception_a3_3x3_3 (in-place)
I0110 11:34:47.752892 55253 net.cpp:141] Setting up inception_a3_3x3_3_bn
I0110 11:34:47.752899 55253 net.cpp:148] Top shape: 10 96 35 35 (1176000)
I0110 11:34:47.752902 55253 net.cpp:156] Memory required for data: 1950234080
I0110 11:34:47.752910 55253 layer_factory.hpp:77] Creating layer inception_a3_3x3_3_scale
I0110 11:34:47.752925 55253 net.cpp:91] Creating Layer inception_a3_3x3_3_scale
I0110 11:34:47.752930 55253 net.cpp:425] inception_a3_3x3_3_scale <- inception_a3_3x3_3
I0110 11:34:47.752935 55253 net.cpp:386] inception_a3_3x3_3_scale -> inception_a3_3x3_3 (in-place)
I0110 11:34:47.752979 55253 layer_factory.hpp:77] Creating layer inception_a3_3x3_3_scale
I0110 11:34:47.753136 55253 net.cpp:141] Setting up inception_a3_3x3_3_scale
I0110 11:34:47.753146 55253 net.cpp:148] Top shape: 10 96 35 35 (1176000)
I0110 11:34:47.753150 55253 net.cpp:156] Memory required for data: 1954938080
I0110 11:34:47.753157 55253 layer_factory.hpp:77] Creating layer inception_a3_3x3_3_relu
I0110 11:34:47.753165 55253 net.cpp:91] Creating Layer inception_a3_3x3_3_relu
I0110 11:34:47.753168 55253 net.cpp:425] inception_a3_3x3_3_relu <- inception_a3_3x3_3
I0110 11:34:47.753175 55253 net.cpp:386] inception_a3_3x3_3_relu -> inception_a3_3x3_3 (in-place)
I0110 11:34:47.753357 55253 net.cpp:141] Setting up inception_a3_3x3_3_relu
I0110 11:34:47.753368 55253 net.cpp:148] Top shape: 10 96 35 35 (1176000)
I0110 11:34:47.753371 55253 net.cpp:156] Memory required for data: 1959642080
I0110 11:34:47.753376 55253 layer_factory.hpp:77] Creating layer inception_a3_pool_ave
I0110 11:34:47.753383 55253 net.cpp:91] Creating Layer inception_a3_pool_ave
I0110 11:34:47.753387 55253 net.cpp:425] inception_a3_pool_ave <- inception_a2_concat_inception_a2_concat_0_split_3
I0110 11:34:47.753394 55253 net.cpp:399] inception_a3_pool_ave -> inception_a3_pool_ave
I0110 11:34:47.753592 55253 net.cpp:141] Setting up inception_a3_pool_ave
I0110 11:34:47.753600 55253 net.cpp:148] Top shape: 10 384 35 35 (4704000)
I0110 11:34:47.753604 55253 net.cpp:156] Memory required for data: 1978458080
I0110 11:34:47.753607 55253 layer_factory.hpp:77] Creating layer inception_a3_1x1
I0110 11:34:47.753618 55253 net.cpp:91] Creating Layer inception_a3_1x1
I0110 11:34:47.753623 55253 net.cpp:425] inception_a3_1x1 <- inception_a3_pool_ave
I0110 11:34:47.753629 55253 net.cpp:399] inception_a3_1x1 -> inception_a3_1x1
I0110 11:34:47.755077 55253 net.cpp:141] Setting up inception_a3_1x1
I0110 11:34:47.755090 55253 net.cpp:148] Top shape: 10 96 35 35 (1176000)
I0110 11:34:47.755108 55253 net.cpp:156] Memory required for data: 1983162080
I0110 11:34:47.755115 55253 layer_factory.hpp:77] Creating layer inception_a3_1x1_bn
I0110 11:34:47.755122 55253 net.cpp:91] Creating Layer inception_a3_1x1_bn
I0110 11:34:47.755127 55253 net.cpp:425] inception_a3_1x1_bn <- inception_a3_1x1
I0110 11:34:47.755134 55253 net.cpp:386] inception_a3_1x1_bn -> inception_a3_1x1 (in-place)
I0110 11:34:47.755363 55253 net.cpp:141] Setting up inception_a3_1x1_bn
I0110 11:34:47.755372 55253 net.cpp:148] Top shape: 10 96 35 35 (1176000)
I0110 11:34:47.755374 55253 net.cpp:156] Memory required for data: 1987866080
I0110 11:34:47.755381 55253 layer_factory.hpp:77] Creating layer inception_a3_1x1_scale
I0110 11:34:47.755389 55253 net.cpp:91] Creating Layer inception_a3_1x1_scale
I0110 11:34:47.755393 55253 net.cpp:425] inception_a3_1x1_scale <- inception_a3_1x1
I0110 11:34:47.755398 55253 net.cpp:386] inception_a3_1x1_scale -> inception_a3_1x1 (in-place)
I0110 11:34:47.755440 55253 layer_factory.hpp:77] Creating layer inception_a3_1x1_scale
I0110 11:34:47.755566 55253 net.cpp:141] Setting up inception_a3_1x1_scale
I0110 11:34:47.755576 55253 net.cpp:148] Top shape: 10 96 35 35 (1176000)
I0110 11:34:47.755579 55253 net.cpp:156] Memory required for data: 1992570080
I0110 11:34:47.755602 55253 layer_factory.hpp:77] Creating layer inception_a3_1x1_relu
I0110 11:34:47.755609 55253 net.cpp:91] Creating Layer inception_a3_1x1_relu
I0110 11:34:47.755611 55253 net.cpp:425] inception_a3_1x1_relu <- inception_a3_1x1
I0110 11:34:47.755616 55253 net.cpp:386] inception_a3_1x1_relu -> inception_a3_1x1 (in-place)
I0110 11:34:47.755796 55253 net.cpp:141] Setting up inception_a3_1x1_relu
I0110 11:34:47.755806 55253 net.cpp:148] Top shape: 10 96 35 35 (1176000)
I0110 11:34:47.755810 55253 net.cpp:156] Memory required for data: 1997274080
I0110 11:34:47.755815 55253 layer_factory.hpp:77] Creating layer inception_a3_concat
I0110 11:34:47.755820 55253 net.cpp:91] Creating Layer inception_a3_concat
I0110 11:34:47.755825 55253 net.cpp:425] inception_a3_concat <- inception_a3_1x1_2
I0110 11:34:47.755828 55253 net.cpp:425] inception_a3_concat <- inception_a3_3x3
I0110 11:34:47.755844 55253 net.cpp:425] inception_a3_concat <- inception_a3_3x3_3
I0110 11:34:47.755849 55253 net.cpp:425] inception_a3_concat <- inception_a3_1x1
I0110 11:34:47.755856 55253 net.cpp:399] inception_a3_concat -> inception_a3_concat
I0110 11:34:47.755890 55253 net.cpp:141] Setting up inception_a3_concat
I0110 11:34:47.755897 55253 net.cpp:148] Top shape: 10 384 35 35 (4704000)
I0110 11:34:47.755900 55253 net.cpp:156] Memory required for data: 2016090080
I0110 11:34:47.755904 55253 layer_factory.hpp:77] Creating layer inception_a3_concat_inception_a3_concat_0_split
I0110 11:34:47.755910 55253 net.cpp:91] Creating Layer inception_a3_concat_inception_a3_concat_0_split
I0110 11:34:47.755913 55253 net.cpp:425] inception_a3_concat_inception_a3_concat_0_split <- inception_a3_concat
I0110 11:34:47.755920 55253 net.cpp:399] inception_a3_concat_inception_a3_concat_0_split -> inception_a3_concat_inception_a3_concat_0_split_0
I0110 11:34:47.755926 55253 net.cpp:399] inception_a3_concat_inception_a3_concat_0_split -> inception_a3_concat_inception_a3_concat_0_split_1
I0110 11:34:47.755940 55253 net.cpp:399] inception_a3_concat_inception_a3_concat_0_split -> inception_a3_concat_inception_a3_concat_0_split_2
I0110 11:34:47.755946 55253 net.cpp:399] inception_a3_concat_inception_a3_concat_0_split -> inception_a3_concat_inception_a3_concat_0_split_3
I0110 11:34:47.756032 55253 net.cpp:141] Setting up inception_a3_concat_inception_a3_concat_0_split
I0110 11:34:47.756057 55253 net.cpp:148] Top shape: 10 384 35 35 (4704000)
I0110 11:34:47.756063 55253 net.cpp:148] Top shape: 10 384 35 35 (4704000)
I0110 11:34:47.756067 55253 net.cpp:148] Top shape: 10 384 35 35 (4704000)
I0110 11:34:47.756072 55253 net.cpp:148] Top shape: 10 384 35 35 (4704000)
I0110 11:34:47.756075 55253 net.cpp:156] Memory required for data: 2091354080
I0110 11:34:47.756079 55253 layer_factory.hpp:77] Creating layer inception_a4_1x1_2
I0110 11:34:47.756086 55253 net.cpp:91] Creating Layer inception_a4_1x1_2
I0110 11:34:47.756090 55253 net.cpp:425] inception_a4_1x1_2 <- inception_a3_concat_inception_a3_concat_0_split_0
I0110 11:34:47.756098 55253 net.cpp:399] inception_a4_1x1_2 -> inception_a4_1x1_2
I0110 11:34:47.757532 55253 net.cpp:141] Setting up inception_a4_1x1_2
I0110 11:34:47.757563 55253 net.cpp:148] Top shape: 10 96 35 35 (1176000)
I0110 11:34:47.757583 55253 net.cpp:156] Memory required for data: 2096058080
I0110 11:34:47.757589 55253 layer_factory.hpp:77] Creating layer inception_a4_1x1_2_bn
I0110 11:34:47.757618 55253 net.cpp:91] Creating Layer inception_a4_1x1_2_bn
I0110 11:34:47.757624 55253 net.cpp:425] inception_a4_1x1_2_bn <- inception_a4_1x1_2
I0110 11:34:47.757630 55253 net.cpp:386] inception_a4_1x1_2_bn -> inception_a4_1x1_2 (in-place)
I0110 11:34:47.757858 55253 net.cpp:141] Setting up inception_a4_1x1_2_bn
I0110 11:34:47.757865 55253 net.cpp:148] Top shape: 10 96 35 35 (1176000)
I0110 11:34:47.757869 55253 net.cpp:156] Memory required for data: 2100762080
I0110 11:34:47.757875 55253 layer_factory.hpp:77] Creating layer inception_a4_1x1_2_scale
I0110 11:34:47.757880 55253 net.cpp:91] Creating Layer inception_a4_1x1_2_scale
I0110 11:34:47.757884 55253 net.cpp:425] inception_a4_1x1_2_scale <- inception_a4_1x1_2
I0110 11:34:47.757889 55253 net.cpp:386] inception_a4_1x1_2_scale -> inception_a4_1x1_2 (in-place)
I0110 11:34:47.757936 55253 layer_factory.hpp:77] Creating layer inception_a4_1x1_2_scale
I0110 11:34:47.758074 55253 net.cpp:141] Setting up inception_a4_1x1_2_scale
I0110 11:34:47.758083 55253 net.cpp:148] Top shape: 10 96 35 35 (1176000)
I0110 11:34:47.758086 55253 net.cpp:156] Memory required for data: 2105466080
I0110 11:34:47.758093 55253 layer_factory.hpp:77] Creating layer inception_a4_1x1_2_relu
I0110 11:34:47.758098 55253 net.cpp:91] Creating Layer inception_a4_1x1_2_relu
I0110 11:34:47.758102 55253 net.cpp:425] inception_a4_1x1_2_relu <- inception_a4_1x1_2
I0110 11:34:47.758106 55253 net.cpp:386] inception_a4_1x1_2_relu -> inception_a4_1x1_2 (in-place)
I0110 11:34:47.759019 55253 net.cpp:141] Setting up inception_a4_1x1_2_relu
I0110 11:34:47.759063 55253 net.cpp:148] Top shape: 10 96 35 35 (1176000)
I0110 11:34:47.759085 55253 net.cpp:156] Memory required for data: 2110170080
I0110 11:34:47.759089 55253 layer_factory.hpp:77] Creating layer inception_a4_3x3_reduce
I0110 11:34:47.759115 55253 net.cpp:91] Creating Layer inception_a4_3x3_reduce
I0110 11:34:47.759120 55253 net.cpp:425] inception_a4_3x3_reduce <- inception_a3_concat_inception_a3_concat_0_split_1
I0110 11:34:47.759127 55253 net.cpp:399] inception_a4_3x3_reduce -> inception_a4_3x3_reduce
I0110 11:34:47.759884 55253 net.cpp:141] Setting up inception_a4_3x3_reduce
I0110 11:34:47.759896 55253 net.cpp:148] Top shape: 10 64 35 35 (784000)
I0110 11:34:47.759898 55253 net.cpp:156] Memory required for data: 2113306080
I0110 11:34:47.759920 55253 layer_factory.hpp:77] Creating layer inception_a4_3x3_reduce_bn
I0110 11:34:47.759929 55253 net.cpp:91] Creating Layer inception_a4_3x3_reduce_bn
I0110 11:34:47.759933 55253 net.cpp:425] inception_a4_3x3_reduce_bn <- inception_a4_3x3_reduce
I0110 11:34:47.759938 55253 net.cpp:386] inception_a4_3x3_reduce_bn -> inception_a4_3x3_reduce (in-place)
I0110 11:34:47.760175 55253 net.cpp:141] Setting up inception_a4_3x3_reduce_bn
I0110 11:34:47.760185 55253 net.cpp:148] Top shape: 10 64 35 35 (784000)
I0110 11:34:47.760187 55253 net.cpp:156] Memory required for data: 2116442080
I0110 11:34:47.760195 55253 layer_factory.hpp:77] Creating layer inception_a4_3x3_reduce_scale
I0110 11:34:47.760201 55253 net.cpp:91] Creating Layer inception_a4_3x3_reduce_scale
I0110 11:34:47.760205 55253 net.cpp:425] inception_a4_3x3_reduce_scale <- inception_a4_3x3_reduce
I0110 11:34:47.760210 55253 net.cpp:386] inception_a4_3x3_reduce_scale -> inception_a4_3x3_reduce (in-place)
I0110 11:34:47.760253 55253 layer_factory.hpp:77] Creating layer inception_a4_3x3_reduce_scale
I0110 11:34:47.760375 55253 net.cpp:141] Setting up inception_a4_3x3_reduce_scale
I0110 11:34:47.760381 55253 net.cpp:148] Top shape: 10 64 35 35 (784000)
I0110 11:34:47.760385 55253 net.cpp:156] Memory required for data: 2119578080
I0110 11:34:47.760390 55253 layer_factory.hpp:77] Creating layer inception_a4_3x3_reduce_relu
I0110 11:34:47.760397 55253 net.cpp:91] Creating Layer inception_a4_3x3_reduce_relu
I0110 11:34:47.760402 55253 net.cpp:425] inception_a4_3x3_reduce_relu <- inception_a4_3x3_reduce
I0110 11:34:47.760406 55253 net.cpp:386] inception_a4_3x3_reduce_relu -> inception_a4_3x3_reduce (in-place)
I0110 11:34:47.761313 55253 net.cpp:141] Setting up inception_a4_3x3_reduce_relu
I0110 11:34:47.761327 55253 net.cpp:148] Top shape: 10 64 35 35 (784000)
I0110 11:34:47.761330 55253 net.cpp:156] Memory required for data: 2122714080
I0110 11:34:47.761350 55253 layer_factory.hpp:77] Creating layer inception_a4_3x3
I0110 11:34:47.761360 55253 net.cpp:91] Creating Layer inception_a4_3x3
I0110 11:34:47.761364 55253 net.cpp:425] inception_a4_3x3 <- inception_a4_3x3_reduce
I0110 11:34:47.761375 55253 net.cpp:399] inception_a4_3x3 -> inception_a4_3x3
I0110 11:34:47.763615 55253 net.cpp:141] Setting up inception_a4_3x3
I0110 11:34:47.763629 55253 net.cpp:148] Top shape: 10 96 35 35 (1176000)
I0110 11:34:47.763633 55253 net.cpp:156] Memory required for data: 2127418080
I0110 11:34:47.763654 55253 layer_factory.hpp:77] Creating layer inception_a4_3x3_bn
I0110 11:34:47.763662 55253 net.cpp:91] Creating Layer inception_a4_3x3_bn
I0110 11:34:47.763666 55253 net.cpp:425] inception_a4_3x3_bn <- inception_a4_3x3
I0110 11:34:47.763674 55253 net.cpp:386] inception_a4_3x3_bn -> inception_a4_3x3 (in-place)
I0110 11:34:47.763900 55253 net.cpp:141] Setting up inception_a4_3x3_bn
I0110 11:34:47.763907 55253 net.cpp:148] Top shape: 10 96 35 35 (1176000)
I0110 11:34:47.763911 55253 net.cpp:156] Memory required for data: 2132122080
I0110 11:34:47.763918 55253 layer_factory.hpp:77] Creating layer inception_a4_3x3_scale
I0110 11:34:47.763924 55253 net.cpp:91] Creating Layer inception_a4_3x3_scale
I0110 11:34:47.763928 55253 net.cpp:425] inception_a4_3x3_scale <- inception_a4_3x3
I0110 11:34:47.763932 55253 net.cpp:386] inception_a4_3x3_scale -> inception_a4_3x3 (in-place)
I0110 11:34:47.763996 55253 layer_factory.hpp:77] Creating layer inception_a4_3x3_scale
I0110 11:34:47.764133 55253 net.cpp:141] Setting up inception_a4_3x3_scale
I0110 11:34:47.764142 55253 net.cpp:148] Top shape: 10 96 35 35 (1176000)
I0110 11:34:47.764145 55253 net.cpp:156] Memory required for data: 2136826080
I0110 11:34:47.764152 55253 layer_factory.hpp:77] Creating layer inception_a4_3x3_relu
I0110 11:34:47.764156 55253 net.cpp:91] Creating Layer inception_a4_3x3_relu
I0110 11:34:47.764159 55253 net.cpp:425] inception_a4_3x3_relu <- inception_a4_3x3
I0110 11:34:47.764164 55253 net.cpp:386] inception_a4_3x3_relu -> inception_a4_3x3 (in-place)
I0110 11:34:47.764345 55253 net.cpp:141] Setting up inception_a4_3x3_relu
I0110 11:34:47.764355 55253 net.cpp:148] Top shape: 10 96 35 35 (1176000)
I0110 11:34:47.764358 55253 net.cpp:156] Memory required for data: 2141530080
I0110 11:34:47.764364 55253 layer_factory.hpp:77] Creating layer inception_a4_3x3_2_reduce
I0110 11:34:47.764374 55253 net.cpp:91] Creating Layer inception_a4_3x3_2_reduce
I0110 11:34:47.764379 55253 net.cpp:425] inception_a4_3x3_2_reduce <- inception_a3_concat_inception_a3_concat_0_split_2
I0110 11:34:47.764385 55253 net.cpp:399] inception_a4_3x3_2_reduce -> inception_a4_3x3_2_reduce
I0110 11:34:47.765895 55253 net.cpp:141] Setting up inception_a4_3x3_2_reduce
I0110 11:34:47.765908 55253 net.cpp:148] Top shape: 10 64 35 35 (784000)
I0110 11:34:47.765928 55253 net.cpp:156] Memory required for data: 2144666080
I0110 11:34:47.765933 55253 layer_factory.hpp:77] Creating layer inception_a4_3x3_2_reduce_bn
I0110 11:34:47.765940 55253 net.cpp:91] Creating Layer inception_a4_3x3_2_reduce_bn
I0110 11:34:47.765945 55253 net.cpp:425] inception_a4_3x3_2_reduce_bn <- inception_a4_3x3_2_reduce
I0110 11:34:47.765954 55253 net.cpp:386] inception_a4_3x3_2_reduce_bn -> inception_a4_3x3_2_reduce (in-place)
I0110 11:34:47.766209 55253 net.cpp:141] Setting up inception_a4_3x3_2_reduce_bn
I0110 11:34:47.766218 55253 net.cpp:148] Top shape: 10 64 35 35 (784000)
I0110 11:34:47.766222 55253 net.cpp:156] Memory required for data: 2147802080
I0110 11:34:47.766229 55253 layer_factory.hpp:77] Creating layer inception_a4_3x3_2_reduce_scale
I0110 11:34:47.766237 55253 net.cpp:91] Creating Layer inception_a4_3x3_2_reduce_scale
I0110 11:34:47.766243 55253 net.cpp:425] inception_a4_3x3_2_reduce_scale <- inception_a4_3x3_2_reduce
I0110 11:34:47.766250 55253 net.cpp:386] inception_a4_3x3_2_reduce_scale -> inception_a4_3x3_2_reduce (in-place)
I0110 11:34:47.766383 55253 layer_factory.hpp:77] Creating layer inception_a4_3x3_2_reduce_scale
I0110 11:34:47.766520 55253 net.cpp:141] Setting up inception_a4_3x3_2_reduce_scale
I0110 11:34:47.766528 55253 net.cpp:148] Top shape: 10 64 35 35 (784000)
I0110 11:34:47.766532 55253 net.cpp:156] Memory required for data: 2150938080
I0110 11:34:47.766538 55253 layer_factory.hpp:77] Creating layer inception_a4_3x3_2_reduce_relu
I0110 11:34:47.766547 55253 net.cpp:91] Creating Layer inception_a4_3x3_2_reduce_relu
I0110 11:34:47.766552 55253 net.cpp:425] inception_a4_3x3_2_reduce_relu <- inception_a4_3x3_2_reduce
I0110 11:34:47.766556 55253 net.cpp:386] inception_a4_3x3_2_reduce_relu -> inception_a4_3x3_2_reduce (in-place)
I0110 11:34:47.766734 55253 net.cpp:141] Setting up inception_a4_3x3_2_reduce_relu
I0110 11:34:47.766743 55253 net.cpp:148] Top shape: 10 64 35 35 (784000)
I0110 11:34:47.766747 55253 net.cpp:156] Memory required for data: 2154074080
I0110 11:34:47.766750 55253 layer_factory.hpp:77] Creating layer inception_a4_3x3_2
I0110 11:34:47.766759 55253 net.cpp:91] Creating Layer inception_a4_3x3_2
I0110 11:34:47.766763 55253 net.cpp:425] inception_a4_3x3_2 <- inception_a4_3x3_2_reduce
I0110 11:34:47.766772 55253 net.cpp:399] inception_a4_3x3_2 -> inception_a4_3x3_2
I0110 11:34:47.768940 55253 net.cpp:141] Setting up inception_a4_3x3_2
I0110 11:34:47.768954 55253 net.cpp:148] Top shape: 10 96 35 35 (1176000)
I0110 11:34:47.768973 55253 net.cpp:156] Memory required for data: 2158778080
I0110 11:34:47.768980 55253 layer_factory.hpp:77] Creating layer inception_a4_3x3_2_bn
I0110 11:34:47.769001 55253 net.cpp:91] Creating Layer inception_a4_3x3_2_bn
I0110 11:34:47.769007 55253 net.cpp:425] inception_a4_3x3_2_bn <- inception_a4_3x3_2
I0110 11:34:47.769012 55253 net.cpp:386] inception_a4_3x3_2_bn -> inception_a4_3x3_2 (in-place)
I0110 11:34:47.769268 55253 net.cpp:141] Setting up inception_a4_3x3_2_bn
I0110 11:34:47.769278 55253 net.cpp:148] Top shape: 10 96 35 35 (1176000)
I0110 11:34:47.769281 55253 net.cpp:156] Memory required for data: 2163482080
I0110 11:34:47.769304 55253 layer_factory.hpp:77] Creating layer inception_a4_3x3_2_scale
I0110 11:34:47.769330 55253 net.cpp:91] Creating Layer inception_a4_3x3_2_scale
I0110 11:34:47.769333 55253 net.cpp:425] inception_a4_3x3_2_scale <- inception_a4_3x3_2
I0110 11:34:47.769338 55253 net.cpp:386] inception_a4_3x3_2_scale -> inception_a4_3x3_2 (in-place)
I0110 11:34:47.769384 55253 layer_factory.hpp:77] Creating layer inception_a4_3x3_2_scale
I0110 11:34:47.769526 55253 net.cpp:141] Setting up inception_a4_3x3_2_scale
I0110 11:34:47.769534 55253 net.cpp:148] Top shape: 10 96 35 35 (1176000)
I0110 11:34:47.769537 55253 net.cpp:156] Memory required for data: 2168186080
I0110 11:34:47.769543 55253 layer_factory.hpp:77] Creating layer inception_a4_3x3_2_relu
I0110 11:34:47.769549 55253 net.cpp:91] Creating Layer inception_a4_3x3_2_relu
I0110 11:34:47.769553 55253 net.cpp:425] inception_a4_3x3_2_relu <- inception_a4_3x3_2
I0110 11:34:47.769559 55253 net.cpp:386] inception_a4_3x3_2_relu -> inception_a4_3x3_2 (in-place)
I0110 11:34:47.769743 55253 net.cpp:141] Setting up inception_a4_3x3_2_relu
I0110 11:34:47.769752 55253 net.cpp:148] Top shape: 10 96 35 35 (1176000)
I0110 11:34:47.769757 55253 net.cpp:156] Memory required for data: 2172890080
I0110 11:34:47.769759 55253 layer_factory.hpp:77] Creating layer inception_a4_3x3_3
I0110 11:34:47.769770 55253 net.cpp:91] Creating Layer inception_a4_3x3_3
I0110 11:34:47.769775 55253 net.cpp:425] inception_a4_3x3_3 <- inception_a4_3x3_2
I0110 11:34:47.769783 55253 net.cpp:399] inception_a4_3x3_3 -> inception_a4_3x3_3
I0110 11:34:47.772061 55253 net.cpp:141] Setting up inception_a4_3x3_3
I0110 11:34:47.772075 55253 net.cpp:148] Top shape: 10 96 35 35 (1176000)
I0110 11:34:47.772095 55253 net.cpp:156] Memory required for data: 2177594080
I0110 11:34:47.772102 55253 layer_factory.hpp:77] Creating layer inception_a4_3x3_3_bn
I0110 11:34:47.772110 55253 net.cpp:91] Creating Layer inception_a4_3x3_3_bn
I0110 11:34:47.772114 55253 net.cpp:425] inception_a4_3x3_3_bn <- inception_a4_3x3_3
I0110 11:34:47.772120 55253 net.cpp:386] inception_a4_3x3_3_bn -> inception_a4_3x3_3 (in-place)
I0110 11:34:47.772353 55253 net.cpp:141] Setting up inception_a4_3x3_3_bn
I0110 11:34:47.772362 55253 net.cpp:148] Top shape: 10 96 35 35 (1176000)
I0110 11:34:47.772366 55253 net.cpp:156] Memory required for data: 2182298080
I0110 11:34:47.772372 55253 layer_factory.hpp:77] Creating layer inception_a4_3x3_3_scale
I0110 11:34:47.772382 55253 net.cpp:91] Creating Layer inception_a4_3x3_3_scale
I0110 11:34:47.772387 55253 net.cpp:425] inception_a4_3x3_3_scale <- inception_a4_3x3_3
I0110 11:34:47.772392 55253 net.cpp:386] inception_a4_3x3_3_scale -> inception_a4_3x3_3 (in-place)
I0110 11:34:47.772438 55253 layer_factory.hpp:77] Creating layer inception_a4_3x3_3_scale
I0110 11:34:47.772567 55253 net.cpp:141] Setting up inception_a4_3x3_3_scale
I0110 11:34:47.772574 55253 net.cpp:148] Top shape: 10 96 35 35 (1176000)
I0110 11:34:47.772578 55253 net.cpp:156] Memory required for data: 2187002080
I0110 11:34:47.772583 55253 layer_factory.hpp:77] Creating layer inception_a4_3x3_3_relu
I0110 11:34:47.772589 55253 net.cpp:91] Creating Layer inception_a4_3x3_3_relu
I0110 11:34:47.772593 55253 net.cpp:425] inception_a4_3x3_3_relu <- inception_a4_3x3_3
I0110 11:34:47.772598 55253 net.cpp:386] inception_a4_3x3_3_relu -> inception_a4_3x3_3 (in-place)
I0110 11:34:47.772779 55253 net.cpp:141] Setting up inception_a4_3x3_3_relu
I0110 11:34:47.772789 55253 net.cpp:148] Top shape: 10 96 35 35 (1176000)
I0110 11:34:47.772802 55253 net.cpp:156] Memory required for data: 2191706080
I0110 11:34:47.772806 55253 layer_factory.hpp:77] Creating layer inception_a4_pool_ave
I0110 11:34:47.772815 55253 net.cpp:91] Creating Layer inception_a4_pool_ave
I0110 11:34:47.772820 55253 net.cpp:425] inception_a4_pool_ave <- inception_a3_concat_inception_a3_concat_0_split_3
I0110 11:34:47.772825 55253 net.cpp:399] inception_a4_pool_ave -> inception_a4_pool_ave
I0110 11:34:47.773910 55253 net.cpp:141] Setting up inception_a4_pool_ave
I0110 11:34:47.773923 55253 net.cpp:148] Top shape: 10 384 35 35 (4704000)
I0110 11:34:47.773941 55253 net.cpp:156] Memory required for data: 2210522080
I0110 11:34:47.773946 55253 layer_factory.hpp:77] Creating layer inception_a4_1x1
I0110 11:34:47.773958 55253 net.cpp:91] Creating Layer inception_a4_1x1
I0110 11:34:47.773967 55253 net.cpp:425] inception_a4_1x1 <- inception_a4_pool_ave
I0110 11:34:47.773973 55253 net.cpp:399] inception_a4_1x1 -> inception_a4_1x1
I0110 11:34:47.775619 55253 net.cpp:141] Setting up inception_a4_1x1
I0110 11:34:47.775634 55253 net.cpp:148] Top shape: 10 96 35 35 (1176000)
I0110 11:34:47.775652 55253 net.cpp:156] Memory required for data: 2215226080
I0110 11:34:47.775658 55253 layer_factory.hpp:77] Creating layer inception_a4_1x1_bn
I0110 11:34:47.775665 55253 net.cpp:91] Creating Layer inception_a4_1x1_bn
I0110 11:34:47.775671 55253 net.cpp:425] inception_a4_1x1_bn <- inception_a4_1x1
I0110 11:34:47.775677 55253 net.cpp:386] inception_a4_1x1_bn -> inception_a4_1x1 (in-place)
I0110 11:34:47.775912 55253 net.cpp:141] Setting up inception_a4_1x1_bn
I0110 11:34:47.775919 55253 net.cpp:148] Top shape: 10 96 35 35 (1176000)
I0110 11:34:47.775923 55253 net.cpp:156] Memory required for data: 2219930080
I0110 11:34:47.775929 55253 layer_factory.hpp:77] Creating layer inception_a4_1x1_scale
I0110 11:34:47.775938 55253 net.cpp:91] Creating Layer inception_a4_1x1_scale
I0110 11:34:47.775943 55253 net.cpp:425] inception_a4_1x1_scale <- inception_a4_1x1
I0110 11:34:47.775949 55253 net.cpp:386] inception_a4_1x1_scale -> inception_a4_1x1 (in-place)
I0110 11:34:47.775993 55253 layer_factory.hpp:77] Creating layer inception_a4_1x1_scale
I0110 11:34:47.776134 55253 net.cpp:141] Setting up inception_a4_1x1_scale
I0110 11:34:47.776141 55253 net.cpp:148] Top shape: 10 96 35 35 (1176000)
I0110 11:34:47.776144 55253 net.cpp:156] Memory required for data: 2224634080
I0110 11:34:47.776150 55253 layer_factory.hpp:77] Creating layer inception_a4_1x1_relu
I0110 11:34:47.776155 55253 net.cpp:91] Creating Layer inception_a4_1x1_relu
I0110 11:34:47.776159 55253 net.cpp:425] inception_a4_1x1_relu <- inception_a4_1x1
I0110 11:34:47.776165 55253 net.cpp:386] inception_a4_1x1_relu -> inception_a4_1x1 (in-place)
I0110 11:34:47.776345 55253 net.cpp:141] Setting up inception_a4_1x1_relu
I0110 11:34:47.776353 55253 net.cpp:148] Top shape: 10 96 35 35 (1176000)
I0110 11:34:47.776356 55253 net.cpp:156] Memory required for data: 2229338080
I0110 11:34:47.776360 55253 layer_factory.hpp:77] Creating layer inception_a4_concat
I0110 11:34:47.776368 55253 net.cpp:91] Creating Layer inception_a4_concat
I0110 11:34:47.776373 55253 net.cpp:425] inception_a4_concat <- inception_a4_1x1_2
I0110 11:34:47.776377 55253 net.cpp:425] inception_a4_concat <- inception_a4_3x3
I0110 11:34:47.776381 55253 net.cpp:425] inception_a4_concat <- inception_a4_3x3_3
I0110 11:34:47.776386 55253 net.cpp:425] inception_a4_concat <- inception_a4_1x1
I0110 11:34:47.776391 55253 net.cpp:399] inception_a4_concat -> inception_a4_concat
I0110 11:34:47.776420 55253 net.cpp:141] Setting up inception_a4_concat
I0110 11:34:47.776427 55253 net.cpp:148] Top shape: 10 384 35 35 (4704000)
I0110 11:34:47.776429 55253 net.cpp:156] Memory required for data: 2248154080
I0110 11:34:47.776433 55253 layer_factory.hpp:77] Creating layer inception_a4_concat_inception_a4_concat_0_split
I0110 11:34:47.776440 55253 net.cpp:91] Creating Layer inception_a4_concat_inception_a4_concat_0_split
I0110 11:34:47.776444 55253 net.cpp:425] inception_a4_concat_inception_a4_concat_0_split <- inception_a4_concat
I0110 11:34:47.776460 55253 net.cpp:399] inception_a4_concat_inception_a4_concat_0_split -> inception_a4_concat_inception_a4_concat_0_split_0
I0110 11:34:47.776468 55253 net.cpp:399] inception_a4_concat_inception_a4_concat_0_split -> inception_a4_concat_inception_a4_concat_0_split_1
I0110 11:34:47.776477 55253 net.cpp:399] inception_a4_concat_inception_a4_concat_0_split -> inception_a4_concat_inception_a4_concat_0_split_2
I0110 11:34:47.776532 55253 net.cpp:141] Setting up inception_a4_concat_inception_a4_concat_0_split
I0110 11:34:47.776538 55253 net.cpp:148] Top shape: 10 384 35 35 (4704000)
I0110 11:34:47.776543 55253 net.cpp:148] Top shape: 10 384 35 35 (4704000)
I0110 11:34:47.776546 55253 net.cpp:148] Top shape: 10 384 35 35 (4704000)
I0110 11:34:47.776549 55253 net.cpp:156] Memory required for data: 2304602080
I0110 11:34:47.776552 55253 layer_factory.hpp:77] Creating layer reduction_a_3x3
I0110 11:34:47.776561 55253 net.cpp:91] Creating Layer reduction_a_3x3
I0110 11:34:47.776566 55253 net.cpp:425] reduction_a_3x3 <- inception_a4_concat_inception_a4_concat_0_split_0
I0110 11:34:47.776572 55253 net.cpp:399] reduction_a_3x3 -> reduction_a_3x3
I0110 11:34:47.782625 55253 net.cpp:141] Setting up reduction_a_3x3
I0110 11:34:47.782640 55253 net.cpp:148] Top shape: 10 384 17 17 (1109760)
I0110 11:34:47.782644 55253 net.cpp:156] Memory required for data: 2309041120
I0110 11:34:47.782651 55253 layer_factory.hpp:77] Creating layer reduction_a_3x3_bn
I0110 11:34:47.782661 55253 net.cpp:91] Creating Layer reduction_a_3x3_bn
I0110 11:34:47.782666 55253 net.cpp:425] reduction_a_3x3_bn <- reduction_a_3x3
I0110 11:34:47.782671 55253 net.cpp:386] reduction_a_3x3_bn -> reduction_a_3x3 (in-place)
I0110 11:34:47.782888 55253 net.cpp:141] Setting up reduction_a_3x3_bn
I0110 11:34:47.782896 55253 net.cpp:148] Top shape: 10 384 17 17 (1109760)
I0110 11:34:47.782899 55253 net.cpp:156] Memory required for data: 2313480160
I0110 11:34:47.782907 55253 layer_factory.hpp:77] Creating layer reduction_a_3x3_scale
I0110 11:34:47.782913 55253 net.cpp:91] Creating Layer reduction_a_3x3_scale
I0110 11:34:47.782917 55253 net.cpp:425] reduction_a_3x3_scale <- reduction_a_3x3
I0110 11:34:47.782923 55253 net.cpp:386] reduction_a_3x3_scale -> reduction_a_3x3 (in-place)
I0110 11:34:47.782969 55253 layer_factory.hpp:77] Creating layer reduction_a_3x3_scale
I0110 11:34:47.783102 55253 net.cpp:141] Setting up reduction_a_3x3_scale
I0110 11:34:47.783112 55253 net.cpp:148] Top shape: 10 384 17 17 (1109760)
I0110 11:34:47.783114 55253 net.cpp:156] Memory required for data: 2317919200
I0110 11:34:47.783120 55253 layer_factory.hpp:77] Creating layer reduction_a_3x3_relu
I0110 11:34:47.783128 55253 net.cpp:91] Creating Layer reduction_a_3x3_relu
I0110 11:34:47.783130 55253 net.cpp:425] reduction_a_3x3_relu <- reduction_a_3x3
I0110 11:34:47.783140 55253 net.cpp:386] reduction_a_3x3_relu -> reduction_a_3x3 (in-place)
I0110 11:34:47.783318 55253 net.cpp:141] Setting up reduction_a_3x3_relu
I0110 11:34:47.783327 55253 net.cpp:148] Top shape: 10 384 17 17 (1109760)
I0110 11:34:47.783330 55253 net.cpp:156] Memory required for data: 2322358240
I0110 11:34:47.783334 55253 layer_factory.hpp:77] Creating layer reduction_a_3x3_2_reduce
I0110 11:34:47.783344 55253 net.cpp:91] Creating Layer reduction_a_3x3_2_reduce
I0110 11:34:47.783349 55253 net.cpp:425] reduction_a_3x3_2_reduce <- inception_a4_concat_inception_a4_concat_0_split_1
I0110 11:34:47.783356 55253 net.cpp:399] reduction_a_3x3_2_reduce -> reduction_a_3x3_2_reduce
I0110 11:34:47.785114 55253 net.cpp:141] Setting up reduction_a_3x3_2_reduce
I0110 11:34:47.785126 55253 net.cpp:148] Top shape: 10 192 35 35 (2352000)
I0110 11:34:47.785147 55253 net.cpp:156] Memory required for data: 2331766240
I0110 11:34:47.785152 55253 layer_factory.hpp:77] Creating layer reduction_a_3x3_2_reduce_bn
I0110 11:34:47.785158 55253 net.cpp:91] Creating Layer reduction_a_3x3_2_reduce_bn
I0110 11:34:47.785162 55253 net.cpp:425] reduction_a_3x3_2_reduce_bn <- reduction_a_3x3_2_reduce
I0110 11:34:47.785169 55253 net.cpp:386] reduction_a_3x3_2_reduce_bn -> reduction_a_3x3_2_reduce (in-place)
I0110 11:34:47.785411 55253 net.cpp:141] Setting up reduction_a_3x3_2_reduce_bn
I0110 11:34:47.785420 55253 net.cpp:148] Top shape: 10 192 35 35 (2352000)
I0110 11:34:47.785424 55253 net.cpp:156] Memory required for data: 2341174240
I0110 11:34:47.785431 55253 layer_factory.hpp:77] Creating layer reduction_a_3x3_2_reduce_scale
I0110 11:34:47.785444 55253 net.cpp:91] Creating Layer reduction_a_3x3_2_reduce_scale
I0110 11:34:47.785449 55253 net.cpp:425] reduction_a_3x3_2_reduce_scale <- reduction_a_3x3_2_reduce
I0110 11:34:47.785454 55253 net.cpp:386] reduction_a_3x3_2_reduce_scale -> reduction_a_3x3_2_reduce (in-place)
I0110 11:34:47.785496 55253 layer_factory.hpp:77] Creating layer reduction_a_3x3_2_reduce_scale
I0110 11:34:47.785622 55253 net.cpp:141] Setting up reduction_a_3x3_2_reduce_scale
I0110 11:34:47.785629 55253 net.cpp:148] Top shape: 10 192 35 35 (2352000)
I0110 11:34:47.785632 55253 net.cpp:156] Memory required for data: 2350582240
I0110 11:34:47.785637 55253 layer_factory.hpp:77] Creating layer reduction_a_3x3_2_reduce_relu
I0110 11:34:47.785645 55253 net.cpp:91] Creating Layer reduction_a_3x3_2_reduce_relu
I0110 11:34:47.785648 55253 net.cpp:425] reduction_a_3x3_2_reduce_relu <- reduction_a_3x3_2_reduce
I0110 11:34:47.785652 55253 net.cpp:386] reduction_a_3x3_2_reduce_relu -> reduction_a_3x3_2_reduce (in-place)
I0110 11:34:47.785836 55253 net.cpp:141] Setting up reduction_a_3x3_2_reduce_relu
I0110 11:34:47.785846 55253 net.cpp:148] Top shape: 10 192 35 35 (2352000)
I0110 11:34:47.785850 55253 net.cpp:156] Memory required for data: 2359990240
I0110 11:34:47.785854 55253 layer_factory.hpp:77] Creating layer reduction_a_3x3_2
I0110 11:34:47.785866 55253 net.cpp:91] Creating Layer reduction_a_3x3_2
I0110 11:34:47.785869 55253 net.cpp:425] reduction_a_3x3_2 <- reduction_a_3x3_2_reduce
I0110 11:34:47.785876 55253 net.cpp:399] reduction_a_3x3_2 -> reduction_a_3x3_2
I0110 11:34:47.789944 55253 net.cpp:141] Setting up reduction_a_3x3_2
I0110 11:34:47.789959 55253 net.cpp:148] Top shape: 10 224 35 35 (2744000)
I0110 11:34:47.789978 55253 net.cpp:156] Memory required for data: 2370966240
I0110 11:34:47.789984 55253 layer_factory.hpp:77] Creating layer reduction_a_3x3_2_bn
I0110 11:34:47.789994 55253 net.cpp:91] Creating Layer reduction_a_3x3_2_bn
I0110 11:34:47.790002 55253 net.cpp:425] reduction_a_3x3_2_bn <- reduction_a_3x3_2
I0110 11:34:47.790009 55253 net.cpp:386] reduction_a_3x3_2_bn -> reduction_a_3x3_2 (in-place)
I0110 11:34:47.790243 55253 net.cpp:141] Setting up reduction_a_3x3_2_bn
I0110 11:34:47.790252 55253 net.cpp:148] Top shape: 10 224 35 35 (2744000)
I0110 11:34:47.790256 55253 net.cpp:156] Memory required for data: 2381942240
I0110 11:34:47.790263 55253 layer_factory.hpp:77] Creating layer reduction_a_3x3_2_scale
I0110 11:34:47.790271 55253 net.cpp:91] Creating Layer reduction_a_3x3_2_scale
I0110 11:34:47.790276 55253 net.cpp:425] reduction_a_3x3_2_scale <- reduction_a_3x3_2
I0110 11:34:47.790279 55253 net.cpp:386] reduction_a_3x3_2_scale -> reduction_a_3x3_2 (in-place)
I0110 11:34:47.790326 55253 layer_factory.hpp:77] Creating layer reduction_a_3x3_2_scale
I0110 11:34:47.790457 55253 net.cpp:141] Setting up reduction_a_3x3_2_scale
I0110 11:34:47.790463 55253 net.cpp:148] Top shape: 10 224 35 35 (2744000)
I0110 11:34:47.790467 55253 net.cpp:156] Memory required for data: 2392918240
I0110 11:34:47.790472 55253 layer_factory.hpp:77] Creating layer reduction_a_3x3_2_relu
I0110 11:34:47.790477 55253 net.cpp:91] Creating Layer reduction_a_3x3_2_relu
I0110 11:34:47.790482 55253 net.cpp:425] reduction_a_3x3_2_relu <- reduction_a_3x3_2
I0110 11:34:47.790486 55253 net.cpp:386] reduction_a_3x3_2_relu -> reduction_a_3x3_2 (in-place)
I0110 11:34:47.790670 55253 net.cpp:141] Setting up reduction_a_3x3_2_relu
I0110 11:34:47.790678 55253 net.cpp:148] Top shape: 10 224 35 35 (2744000)
…
I0110 11:34:49.111737 55253 net.cpp:156] Memory required for data: 3848369200
I0110 11:34:49.111743 55253 layer_factory.hpp:77] Creating layer inception_c2_3x1_bn
I0110 11:34:49.111754 55253 net.cpp:91] Creating Layer inception_c2_3x1_bn
I0110 11:34:49.111759 55253 net.cpp:425] inception_c2_3x1_bn <- inception_c2_3x1
I0110 11:34:49.111766 55253 net.cpp:386] inception_c2_3x1_bn -> inception_c2_3x1 (in-place)
I0110 11:34:49.112015 55253 net.cpp:141] Setting up inception_c2_3x1_bn
I0110 11:34:49.112022 55253 net.cpp:148] Top shape: 10 256 8 8 (163840)
I0110 11:34:49.112026 55253 net.cpp:156] Memory required for data: 3849024560
I0110 11:34:49.112037 55253 layer_factory.hpp:77] Creating layer inception_c2_3x1_scale
I0110 11:34:49.112049 55253 net.cpp:91] Creating Layer inception_c2_3x1_scale
I0110 11:34:49.112054 55253 net.cpp:425] inception_c2_3x1_scale <- inception_c2_3x1
I0110 11:34:49.112059 55253 net.cpp:386] inception_c2_3x1_scale -> inception_c2_3x1 (in-place)
I0110 11:34:49.112113 55253 layer_factory.hpp:77] Creating layer inception_c2_3x1_scale
I0110 11:34:49.112256 55253 net.cpp:141] Setting up inception_c2_3x1_scale
I0110 11:34:49.112262 55253 net.cpp:148] Top shape: 10 256 8 8 (163840)
I0110 11:34:49.112265 55253 net.cpp:156] Memory required for data: 3849679920
I0110 11:34:49.112272 55253 layer_factory.hpp:77] Creating layer inception_c2_3x1_relu
I0110 11:34:49.112277 55253 net.cpp:91] Creating Layer inception_c2_3x1_relu
I0110 11:34:49.112282 55253 net.cpp:425] inception_c2_3x1_relu <- inception_c2_3x1
I0110 11:34:49.112287 55253 net.cpp:386] inception_c2_3x1_relu -> inception_c2_3x1 (in-place)
I0110 11:34:49.113590 55253 net.cpp:141] Setting up inception_c2_3x1_relu
I0110 11:34:49.113602 55253 net.cpp:148] Top shape: 10 256 8 8 (163840)
I0110 11:34:49.113620 55253 net.cpp:156] Memory required for data: 3850335280
I0110 11:34:49.113625 55253 layer_factory.hpp:77] Creating layer inception_c2_1x1_4
I0110 11:34:49.113632 55253 net.cpp:91] Creating Layer inception_c2_1x1_4
I0110 11:34:49.113637 55253 net.cpp:425] inception_c2_1x1_4 <- inception_c1_concat_inception_c1_concat_0_split_2
I0110 11:34:49.113654 55253 net.cpp:399] inception_c2_1x1_4 -> inception_c2_1x1_4
I0110 11:34:49.118191 55253 net.cpp:141] Setting up inception_c2_1x1_4
I0110 11:34:49.118206 55253 net.cpp:148] Top shape: 10 384 8 8 (245760)
I0110 11:34:49.118227 55253 net.cpp:156] Memory required for data: 3851318320
I0110 11:34:49.118233 55253 layer_factory.hpp:77] Creating layer inception_c2_1x1_4_bn
I0110 11:34:49.118242 55253 net.cpp:91] Creating Layer inception_c2_1x1_4_bn
I0110 11:34:49.118247 55253 net.cpp:425] inception_c2_1x1_4_bn <- inception_c2_1x1_4
I0110 11:34:49.118254 55253 net.cpp:386] inception_c2_1x1_4_bn -> inception_c2_1x1_4 (in-place)
I0110 11:34:49.118625 55253 net.cpp:141] Setting up inception_c2_1x1_4_bn
I0110 11:34:49.118633 55253 net.cpp:148] Top shape: 10 384 8 8 (245760)
I0110 11:34:49.118636 55253 net.cpp:156] Memory required for data: 3852301360
I0110 11:34:49.118660 55253 layer_factory.hpp:77] Creating layer inception_c2_1x1_4_scale
I0110 11:34:49.118669 55253 net.cpp:91] Creating Layer inception_c2_1x1_4_scale
I0110 11:34:49.118674 55253 net.cpp:425] inception_c2_1x1_4_scale <- inception_c2_1x1_4
I0110 11:34:49.118690 55253 net.cpp:386] inception_c2_1x1_4_scale -> inception_c2_1x1_4 (in-place)
I0110 11:34:49.118772 55253 layer_factory.hpp:77] Creating layer inception_c2_1x1_4_scale
I0110 11:34:49.118959 55253 net.cpp:141] Setting up inception_c2_1x1_4_scale
I0110 11:34:49.118968 55253 net.cpp:148] Top shape: 10 384 8 8 (245760)
I0110 11:34:49.118970 55253 net.cpp:156] Memory required for data: 3853284400
I0110 11:34:49.118976 55253 layer_factory.hpp:77] Creating layer inception_c2_1x1_4_relu
I0110 11:34:49.118983 55253 net.cpp:91] Creating Layer inception_c2_1x1_4_relu
I0110 11:34:49.118986 55253 net.cpp:425] inception_c2_1x1_4_relu <- inception_c2_1x1_4
I0110 11:34:49.118993 55253 net.cpp:386] inception_c2_1x1_4_relu -> inception_c2_1x1_4 (in-place)
I0110 11:34:49.119241 55253 net.cpp:141] Setting up inception_c2_1x1_4_relu
I0110 11:34:49.119251 55253 net.cpp:148] Top shape: 10 384 8 8 (245760)
I0110 11:34:49.119256 55253 net.cpp:156] Memory required for data: 3854267440
I0110 11:34:49.119258 55253 layer_factory.hpp:77] Creating layer inception_c2_3x1_2
I0110 11:34:49.119268 55253 net.cpp:91] Creating Layer inception_c2_3x1_2
I0110 11:34:49.119272 55253 net.cpp:425] inception_c2_3x1_2 <- inception_c2_1x1_4
I0110 11:34:49.119279 55253 net.cpp:399] inception_c2_3x1_2 -> inception_c2_3x1_2
I0110 11:34:49.123616 55253 net.cpp:141] Setting up inception_c2_3x1_2
I0110 11:34:49.123631 55253 net.cpp:148] Top shape: 10 448 8 8 (286720)
I0110 11:34:49.123634 55253 net.cpp:156] Memory required for data: 3855414320
I0110 11:34:49.123657 55253 layer_factory.hpp:77] Creating layer inception_c2_3x1_2_bn
I0110 11:34:49.123664 55253 net.cpp:91] Creating Layer inception_c2_3x1_2_bn
I0110 11:34:49.123668 55253 net.cpp:425] inception_c2_3x1_2_bn <- inception_c2_3x1_2
I0110 11:34:49.123675 55253 net.cpp:386] inception_c2_3x1_2_bn -> inception_c2_3x1_2 (in-place)
I0110 11:34:49.124056 55253 net.cpp:141] Setting up inception_c2_3x1_2_bn
I0110 11:34:49.124064 55253 net.cpp:148] Top shape: 10 448 8 8 (286720)
I0110 11:34:49.124068 55253 net.cpp:156] Memory required for data: 3856561200
I0110 11:34:49.124075 55253 layer_factory.hpp:77] Creating layer inception_c2_3x1_2_scale
I0110 11:34:49.124083 55253 net.cpp:91] Creating Layer inception_c2_3x1_2_scale
I0110 11:34:49.124086 55253 net.cpp:425] inception_c2_3x1_2_scale <- inception_c2_3x1_2
I0110 11:34:49.124095 55253 net.cpp:386] inception_c2_3x1_2_scale -> inception_c2_3x1_2 (in-place)
I0110 11:34:49.124182 55253 layer_factory.hpp:77] Creating layer inception_c2_3x1_2_scale
I0110 11:34:49.124380 55253 net.cpp:141] Setting up inception_c2_3x1_2_scale
I0110 11:34:49.124388 55253 net.cpp:148] Top shape: 10 448 8 8 (286720)
I0110 11:34:49.124392 55253 net.cpp:156] Memory required for data: 3857708080
I0110 11:34:49.124397 55253 layer_factory.hpp:77] Creating layer inception_c2_3x1_2_relu
I0110 11:34:49.124403 55253 net.cpp:91] Creating Layer inception_c2_3x1_2_relu
I0110 11:34:49.124408 55253 net.cpp:425] inception_c2_3x1_2_relu <- inception_c2_3x1_2
I0110 11:34:49.124413 55253 net.cpp:386] inception_c2_3x1_2_relu -> inception_c2_3x1_2 (in-place)
I0110 11:34:49.124688 55253 net.cpp:141] Setting up inception_c2_3x1_2_relu
I0110 11:34:49.124699 55253 net.cpp:148] Top shape: 10 448 8 8 (286720)
I0110 11:34:49.124702 55253 net.cpp:156] Memory required for data: 3858854960
I0110 11:34:49.124706 55253 layer_factory.hpp:77] Creating layer inception_c2_1x3_2
I0110 11:34:49.124718 55253 net.cpp:91] Creating Layer inception_c2_1x3_2
I0110 11:34:49.124723 55253 net.cpp:425] inception_c2_1x3_2 <- inception_c2_3x1_2
I0110 11:34:49.124728 55253 net.cpp:399] inception_c2_1x3_2 -> inception_c2_1x3_2
I0110 11:34:49.129554 55253 net.cpp:141] Setting up inception_c2_1x3_2
I0110 11:34:49.129568 55253 net.cpp:148] Top shape: 10 512 8 8 (327680)
I0110 11:34:49.129572 55253 net.cpp:156] Memory required for data: 3860165680
I0110 11:34:49.129578 55253 layer_factory.hpp:77] Creating layer inception_c2_1x3_2_bn
I0110 11:34:49.129586 55253 net.cpp:91] Creating Layer inception_c2_1x3_2_bn
I0110 11:34:49.129602 55253 net.cpp:425] inception_c2_1x3_2_bn <- inception_c2_1x3_2
I0110 11:34:49.129611 55253 net.cpp:386] inception_c2_1x3_2_bn -> inception_c2_1x3_2 (in-place)
I0110 11:34:49.129945 55253 net.cpp:141] Setting up inception_c2_1x3_2_bn
I0110 11:34:49.129952 55253 net.cpp:148] Top shape: 10 512 8 8 (327680)
I0110 11:34:49.129956 55253 net.cpp:156] Memory required for data: 3861476400
I0110 11:34:49.129963 55253 layer_factory.hpp:77] Creating layer inception_c2_1x3_2_scale
I0110 11:34:49.129971 55253 net.cpp:91] Creating Layer inception_c2_1x3_2_scale
I0110 11:34:49.129976 55253 net.cpp:425] inception_c2_1x3_2_scale <- inception_c2_1x3_2
I0110 11:34:49.129981 55253 net.cpp:386] inception_c2_1x3_2_scale -> inception_c2_1x3_2 (in-place)
I0110 11:34:49.130064 55253 layer_factory.hpp:77] Creating layer inception_c2_1x3_2_scale
I0110 11:34:49.130251 55253 net.cpp:141] Setting up inception_c2_1x3_2_scale
I0110 11:34:49.130259 55253 net.cpp:148] Top shape: 10 512 8 8 (327680)
I0110 11:34:49.130262 55253 net.cpp:156] Memory required for data: 3862787120
I0110 11:34:49.130269 55253 layer_factory.hpp:77] Creating layer inception_c2_1x3_2_relu
I0110 11:34:49.130275 55253 net.cpp:91] Creating Layer inception_c2_1x3_2_relu
I0110 11:34:49.130278 55253 net.cpp:425] inception_c2_1x3_2_relu <- inception_c2_1x3_2
I0110 11:34:49.130282 55253 net.cpp:386] inception_c2_1x3_2_relu -> inception_c2_1x3_2 (in-place)
I0110 11:34:49.130528 55253 net.cpp:141] Setting up inception_c2_1x3_2_relu
I0110 11:34:49.130538 55253 net.cpp:148] Top shape: 10 512 8 8 (327680)
I0110 11:34:49.130542 55253 net.cpp:156] Memory required for data: 3864097840
I0110 11:34:49.130545 55253 layer_factory.hpp:77] Creating layer inception_c2_1x3_2_inception_c2_1x3_2_relu_0_split
I0110 11:34:49.130550 55253 net.cpp:91] Creating Layer inception_c2_1x3_2_inception_c2_1x3_2_relu_0_split
I0110 11:34:49.130554 55253 net.cpp:425] inception_c2_1x3_2_inception_c2_1x3_2_relu_0_split <- inception_c2_1x3_2
I0110 11:34:49.130561 55253 net.cpp:399] inception_c2_1x3_2_inception_c2_1x3_2_relu_0_split -> inception_c2_1x3_2_inception_c2_1x3_2_relu_0_split_0
I0110 11:34:49.130569 55253 net.cpp:399] inception_c2_1x3_2_inception_c2_1x3_2_relu_0_split -> inception_c2_1x3_2_inception_c2_1x3_2_relu_0_split_1
I0110 11:34:49.130626 55253 net.cpp:141] Setting up inception_c2_1x3_2_inception_c2_1x3_2_relu_0_split
I0110 11:34:49.130633 55253 net.cpp:148] Top shape: 10 512 8 8 (327680)
I0110 11:34:49.130637 55253 net.cpp:148] Top shape: 10 512 8 8 (327680)
I0110 11:34:49.130640 55253 net.cpp:156] Memory required for data: 3866719280
I0110 11:34:49.130643 55253 layer_factory.hpp:77] Creating layer inception_c2_1x3_3
I0110 11:34:49.130653 55253 net.cpp:91] Creating Layer inception_c2_1x3_3
I0110 11:34:49.130658 55253 net.cpp:425] inception_c2_1x3_3 <- inception_c2_1x3_2_inception_c2_1x3_2_relu_0_split_0
I0110 11:34:49.130663 55253 net.cpp:399] inception_c2_1x3_3 -> inception_c2_1x3_3
I0110 11:34:49.134682 55253 net.cpp:141] Setting up inception_c2_1x3_3
I0110 11:34:49.134697 55253 net.cpp:148] Top shape: 10 256 8 8 (163840)
I0110 11:34:49.134701 55253 net.cpp:156] Memory required for data: 3867374640
I0110 11:34:49.134706 55253 layer_factory.hpp:77] Creating layer inception_c2_1x3_3_bn
I0110 11:34:49.134714 55253 net.cpp:91] Creating Layer inception_c2_1x3_3_bn
I0110 11:34:49.134719 55253 net.cpp:425] inception_c2_1x3_3_bn <- inception_c2_1x3_3
I0110 11:34:49.134727 55253 net.cpp:386] inception_c2_1x3_3_bn -> inception_c2_1x3_3 (in-place)
I0110 11:34:49.134981 55253 net.cpp:141] Setting up inception_c2_1x3_3_bn
I0110 11:34:49.134989 55253 net.cpp:148] Top shape: 10 256 8 8 (163840)
I0110 11:34:49.134992 55253 net.cpp:156] Memory required for data: 3868030000
I0110 11:34:49.134999 55253 layer_factory.hpp:77] Creating layer inception_c2_1x3_3_scale
I0110 11:34:49.135005 55253 net.cpp:91] Creating Layer inception_c2_1x3_3_scale
I0110 11:34:49.135010 55253 net.cpp:425] inception_c2_1x3_3_scale <- inception_c2_1x3_3
I0110 11:34:49.135013 55253 net.cpp:386] inception_c2_1x3_3_scale -> inception_c2_1x3_3 (in-place)
I0110 11:34:49.135087 55253 layer_factory.hpp:77] Creating layer inception_c2_1x3_3_scale
I0110 11:34:49.135231 55253 net.cpp:141] Setting up inception_c2_1x3_3_scale
I0110 11:34:49.135238 55253 net.cpp:148] Top shape: 10 256 8 8 (163840)
I0110 11:34:49.135241 55253 net.cpp:156] Memory required for data: 3868685360
I0110 11:34:49.135247 55253 layer_factory.hpp:77] Creating layer inception_c2_1x3_3_relu
I0110 11:34:49.135255 55253 net.cpp:91] Creating Layer inception_c2_1x3_3_relu
I0110 11:34:49.135259 55253 net.cpp:425] inception_c2_1x3_3_relu <- inception_c2_1x3_3
I0110 11:34:49.135264 55253 net.cpp:386] inception_c2_1x3_3_relu -> inception_c2_1x3_3 (in-place)
I0110 11:34:49.135509 55253 net.cpp:141] Setting up inception_c2_1x3_3_relu
I0110 11:34:49.135520 55253 net.cpp:148] Top shape: 10 256 8 8 (163840)
I0110 11:34:49.135524 55253 net.cpp:156] Memory required for data: 3869340720
I0110 11:34:49.135527 55253 layer_factory.hpp:77] Creating layer inception_c2_3x1_3
I0110 11:34:49.135535 55253 net.cpp:91] Creating Layer inception_c2_3x1_3
I0110 11:34:49.135538 55253 net.cpp:425] inception_c2_3x1_3 <- inception_c2_1x3_2_inception_c2_1x3_2_relu_0_split_1
I0110 11:34:49.135546 55253 net.cpp:399] inception_c2_3x1_3 -> inception_c2_3x1_3
I0110 11:34:49.139667 55253 net.cpp:141] Setting up inception_c2_3x1_3
I0110 11:34:49.139683 55253 net.cpp:148] Top shape: 10 256 8 8 (163840)
I0110 11:34:49.139686 55253 net.cpp:156] Memory required for data: 3869996080
I0110 11:34:49.139693 55253 layer_factory.hpp:77] Creating layer inception_c2_3x1_3_bn
I0110 11:34:49.139703 55253 net.cpp:91] Creating Layer inception_c2_3x1_3_bn
I0110 11:34:49.139708 55253 net.cpp:425] inception_c2_3x1_3_bn <- inception_c2_3x1_3
I0110 11:34:49.139713 55253 net.cpp:386] inception_c2_3x1_3_bn -> inception_c2_3x1_3 (in-place)
I0110 11:34:49.139966 55253 net.cpp:141] Setting up inception_c2_3x1_3_bn
I0110 11:34:49.139974 55253 net.cpp:148] Top shape: 10 256 8 8 (163840)
I0110 11:34:49.139977 55253 net.cpp:156] Memory required for data: 3870651440
I0110 11:34:49.139984 55253 layer_factory.hpp:77] Creating layer inception_c2_3x1_3_scale
I0110 11:34:49.139992 55253 net.cpp:91] Creating Layer inception_c2_3x1_3_scale
I0110 11:34:49.139997 55253 net.cpp:425] inception_c2_3x1_3_scale <- inception_c2_3x1_3
I0110 11:34:49.140002 55253 net.cpp:386] inception_c2_3x1_3_scale -> inception_c2_3x1_3 (in-place)
I0110 11:34:49.140064 55253 layer_factory.hpp:77] Creating layer inception_c2_3x1_3_scale
I0110 11:34:49.140215 55253 net.cpp:141] Setting up inception_c2_3x1_3_scale
I0110 11:34:49.140223 55253 net.cpp:148] Top shape: 10 256 8 8 (163840)
I0110 11:34:49.140226 55253 net.cpp:156] Memory required for data: 3871306800
I0110 11:34:49.140231 55253 layer_factory.hpp:77] Creating layer inception_c2_3x1_3_relu
I0110 11:34:49.140239 55253 net.cpp:91] Creating Layer inception_c2_3x1_3_relu
I0110 11:34:49.140244 55253 net.cpp:425] inception_c2_3x1_3_relu <- inception_c2_3x1_3
I0110 11:34:49.140247 55253 net.cpp:386] inception_c2_3x1_3_relu -> inception_c2_3x1_3 (in-place)
I0110 11:34:49.141566 55253 net.cpp:141] Setting up inception_c2_3x1_3_relu
I0110 11:34:49.141580 55253 net.cpp:148] Top shape: 10 256 8 8 (163840)
I0110 11:34:49.141584 55253 net.cpp:156] Memory required for data: 3871962160
I0110 11:34:49.141588 55253 layer_factory.hpp:77] Creating layer inception_c2_pool_ave
I0110 11:34:49.141595 55253 net.cpp:91] Creating Layer inception_c2_pool_ave
I0110 11:34:49.141599 55253 net.cpp:425] inception_c2_pool_ave <- inception_c1_concat_inception_c1_concat_0_split_3
I0110 11:34:49.141607 55253 net.cpp:399] inception_c2_pool_ave -> inception_c2_pool_ave
I0110 11:34:49.141882 55253 net.cpp:141] Setting up inception_c2_pool_ave
I0110 11:34:49.141894 55253 net.cpp:148] Top shape: 10 1536 8 8 (983040)
I0110 11:34:49.141898 55253 net.cpp:156] Memory required for data: 3875894320
I0110 11:34:49.141901 55253 layer_factory.hpp:77] Creating layer inception_c2_1x1
I0110 11:34:49.141908 55253 net.cpp:91] Creating Layer inception_c2_1x1
I0110 11:34:49.141913 55253 net.cpp:425] inception_c2_1x1 <- inception_c2_pool_ave
I0110 11:34:49.141933 55253 net.cpp:399] inception_c2_1x1 -> inception_c2_1x1
I0110 11:34:49.147382 55253 net.cpp:141] Setting up inception_c2_1x1
I0110 11:34:49.147397 55253 net.cpp:148] Top shape: 10 256 8 8 (163840)
I0110 11:34:49.147400 55253 net.cpp:156] Memory required for data: 3876549680
I0110 11:34:49.147405 55253 layer_factory.hpp:77] Creating layer inception_c2_1x1_bn
I0110 11:34:49.147414 55253 net.cpp:91] Creating Layer inception_c2_1x1_bn
I0110 11:34:49.147419 55253 net.cpp:425] inception_c2_1x1_bn <- inception_c2_1x1
I0110 11:34:49.147424 55253 net.cpp:386] inception_c2_1x1_bn -> inception_c2_1x1 (in-place)
I0110 11:34:49.147689 55253 net.cpp:141] Setting up inception_c2_1x1_bn
I0110 11:34:49.147697 55253 net.cpp:148] Top shape: 10 256 8 8 (163840)
I0110 11:34:49.147701 55253 net.cpp:156] Memory required for data: 3877205040
I0110 11:34:49.147707 55253 layer_factory.hpp:77] Creating layer inception_c2_1x1_scale
I0110 11:34:49.147714 55253 net.cpp:91] Creating Layer inception_c2_1x1_scale
I0110 11:34:49.147718 55253 net.cpp:425] inception_c2_1x1_scale <- inception_c2_1x1
I0110 11:34:49.147722 55253 net.cpp:386] inception_c2_1x1_scale -> inception_c2_1x1 (in-place)
I0110 11:34:49.147781 55253 layer_factory.hpp:77] Creating layer inception_c2_1x1_scale
I0110 11:34:49.147928 55253 net.cpp:141] Setting up inception_c2_1x1_scale
I0110 11:34:49.147936 55253 net.cpp:148] Top shape: 10 256 8 8 (163840)
I0110 11:34:49.147939 55253 net.cpp:156] Memory required for data: 3877860400
I0110 11:34:49.147945 55253 layer_factory.hpp:77] Creating layer inception_c2_1x1_relu
I0110 11:34:49.147950 55253 net.cpp:91] Creating Layer inception_c2_1x1_relu
I0110 11:34:49.147954 55253 net.cpp:425] inception_c2_1x1_relu <- inception_c2_1x1
I0110 11:34:49.147960 55253 net.cpp:386] inception_c2_1x1_relu -> inception_c2_1x1 (in-place)
I0110 11:34:49.148224 55253 net.cpp:141] Setting up inception_c2_1x1_relu
I0110 11:34:49.148234 55253 net.cpp:148] Top shape: 10 256 8 8 (163840)
I0110 11:34:49.148237 55253 net.cpp:156] Memory required for data: 3878515760
I0110 11:34:49.148241 55253 layer_factory.hpp:77] Creating layer inception_c2_concat
I0110 11:34:49.148249 55253 net.cpp:91] Creating Layer inception_c2_concat
I0110 11:34:49.148253 55253 net.cpp:425] inception_c2_concat <- inception_c2_1x1_2
I0110 11:34:49.148257 55253 net.cpp:425] inception_c2_concat <- inception_c2_1x3
I0110 11:34:49.148262 55253 net.cpp:425] inception_c2_concat <- inception_c2_3x1
I0110 11:34:49.148267 55253 net.cpp:425] inception_c2_concat <- inception_c2_1x3_3
I0110 11:34:49.148269 55253 net.cpp:425] inception_c2_concat <- inception_c2_3x1_3
I0110 11:34:49.148273 55253 net.cpp:425] inception_c2_concat <- inception_c2_1x1
I0110 11:34:49.148278 55253 net.cpp:399] inception_c2_concat -> inception_c2_concat
I0110 11:34:49.148319 55253 net.cpp:141] Setting up inception_c2_concat
I0110 11:34:49.148325 55253 net.cpp:148] Top shape: 10 1536 8 8 (983040)
I0110 11:34:49.148329 55253 net.cpp:156] Memory required for data: 3882447920
I0110 11:34:49.148331 55253 layer_factory.hpp:77] Creating layer inception_c2_concat_inception_c2_concat_0_split
I0110 11:34:49.148336 55253 net.cpp:91] Creating Layer inception_c2_concat_inception_c2_concat_0_split
I0110 11:34:49.148340 55253 net.cpp:425] inception_c2_concat_inception_c2_concat_0_split <- inception_c2_concat
I0110 11:34:49.148347 55253 net.cpp:399] inception_c2_concat_inception_c2_concat_0_split -> inception_c2_concat_inception_c2_concat_0_split_0
I0110 11:34:49.148353 55253 net.cpp:399] inception_c2_concat_inception_c2_concat_0_split -> inception_c2_concat_inception_c2_concat_0_split_1
I0110 11:34:49.148360 55253 net.cpp:399] inception_c2_concat_inception_c2_concat_0_split -> inception_c2_concat_inception_c2_concat_0_split_2
I0110 11:34:49.148365 55253 net.cpp:399] inception_c2_concat_inception_c2_concat_0_split -> inception_c2_concat_inception_c2_concat_0_split_3
I0110 11:34:49.148447 55253 net.cpp:141] Setting up inception_c2_concat_inception_c2_concat_0_split
I0110 11:34:49.148453 55253 net.cpp:148] Top shape: 10 1536 8 8 (983040)
I0110 11:34:49.148470 55253 net.cpp:148] Top shape: 10 1536 8 8 (983040)
I0110 11:34:49.148474 55253 net.cpp:148] Top shape: 10 1536 8 8 (983040)
I0110 11:34:49.148478 55253 net.cpp:148] Top shape: 10 1536 8 8 (983040)
I0110 11:34:49.148481 55253 net.cpp:156] Memory required for data: 3898176560
I0110 11:34:49.148485 55253 layer_factory.hpp:77] Creating layer inception_c3_1x1_2
I0110 11:34:49.148492 55253 net.cpp:91] Creating Layer inception_c3_1x1_2
I0110 11:34:49.148496 55253 net.cpp:425] inception_c3_1x1_2 <- inception_c2_concat_inception_c2_concat_0_split_0
I0110 11:34:49.148504 55253 net.cpp:399] inception_c3_1x1_2 -> inception_c3_1x1_2
I0110 11:34:49.152642 55253 net.cpp:141] Setting up inception_c3_1x1_2
I0110 11:34:49.152658 55253 net.cpp:148] Top shape: 10 256 8 8 (163840)
I0110 11:34:49.152662 55253 net.cpp:156] Memory required for data: 3898831920
I0110 11:34:49.152667 55253 layer_factory.hpp:77] Creating layer inception_c3_1x1_2_bn
I0110 11:34:49.152676 55253 net.cpp:91] Creating Layer inception_c3_1x1_2_bn
I0110 11:34:49.152680 55253 net.cpp:425] inception_c3_1x1_2_bn <- inception_c3_1x1_2
I0110 11:34:49.152686 55253 net.cpp:386] inception_c3_1x1_2_bn -> inception_c3_1x1_2 (in-place)
I0110 11:34:49.152952 55253 net.cpp:141] Setting up inception_c3_1x1_2_bn
I0110 11:34:49.152961 55253 net.cpp:148] Top shape: 10 256 8 8 (163840)
I0110 11:34:49.152963 55253 net.cpp:156] Memory required for data: 3899487280
I0110 11:34:49.152971 55253 layer_factory.hpp:77] Creating layer inception_c3_1x1_2_scale
I0110 11:34:49.152978 55253 net.cpp:91] Creating Layer inception_c3_1x1_2_scale
I0110 11:34:49.152982 55253 net.cpp:425] inception_c3_1x1_2_scale <- inception_c3_1x1_2
I0110 11:34:49.152987 55253 net.cpp:386] inception_c3_1x1_2_scale -> inception_c3_1x1_2 (in-place)
I0110 11:34:49.153045 55253 layer_factory.hpp:77] Creating layer inception_c3_1x1_2_scale
I0110 11:34:49.153205 55253 net.cpp:141] Setting up inception_c3_1x1_2_scale
I0110 11:34:49.153213 55253 net.cpp:148] Top shape: 10 256 8 8 (163840)
I0110 11:34:49.153216 55253 net.cpp:156] Memory required for data: 3900142640
I0110 11:34:49.153223 55253 layer_factory.hpp:77] Creating layer inception_c3_1x1_2_relu
I0110 11:34:49.153229 55253 net.cpp:91] Creating Layer inception_c3_1x1_2_relu
I0110 11:34:49.153234 55253 net.cpp:425] inception_c3_1x1_2_relu <- inception_c3_1x1_2
I0110 11:34:49.153237 55253 net.cpp:386] inception_c3_1x1_2_relu -> inception_c3_1x1_2 (in-place)
I0110 11:34:49.153486 55253 net.cpp:141] Setting up inception_c3_1x1_2_relu
I0110 11:34:49.153496 55253 net.cpp:148] Top shape: 10 256 8 8 (163840)
I0110 11:34:49.153498 55253 net.cpp:156] Memory required for data: 3900798000
I0110 11:34:49.153501 55253 layer_factory.hpp:77] Creating layer inception_c3_1x1_3
I0110 11:34:49.153511 55253 net.cpp:91] Creating Layer inception_c3_1x1_3
I0110 11:34:49.153517 55253 net.cpp:425] inception_c3_1x1_3 <- inception_c2_concat_inception_c2_concat_0_split_1
I0110 11:34:49.153522 55253 net.cpp:399] inception_c3_1x1_3 -> inception_c3_1x1_3
I0110 11:34:49.157975 55253 net.cpp:141] Setting up inception_c3_1x1_3
I0110 11:34:49.157990 55253 net.cpp:148] Top shape: 10 384 8 8 (245760)
I0110 11:34:49.157995 55253 net.cpp:156] Memory required for data: 3901781040
I0110 11:34:49.158000 55253 layer_factory.hpp:77] Creating layer inception_c3_1x1_3_bn
I0110 11:34:49.158010 55253 net.cpp:91] Creating Layer inception_c3_1x1_3_bn
I0110 11:34:49.158015 55253 net.cpp:425] inception_c3_1x1_3_bn <- inception_c3_1x1_3
I0110 11:34:49.158020 55253 net.cpp:386] inception_c3_1x1_3_bn -> inception_c3_1x1_3 (in-place)
I0110 11:34:49.158358 55253 net.cpp:141] Setting up inception_c3_1x1_3_bn
I0110 11:34:49.158367 55253 net.cpp:148] Top shape: 10 384 8 8 (245760)
I0110 11:34:49.158370 55253 net.cpp:156] Memory required for data: 3902764080
I0110 11:34:49.158377 55253 layer_factory.hpp:77] Creating layer inception_c3_1x1_3_scale
I0110 11:34:49.158383 55253 net.cpp:91] Creating Layer inception_c3_1x1_3_scale
I0110 11:34:49.158387 55253 net.cpp:425] inception_c3_1x1_3_scale <- inception_c3_1x1_3
I0110 11:34:49.158406 55253 net.cpp:386] inception_c3_1x1_3_scale -> inception_c3_1x1_3 (in-place)
I0110 11:34:49.158488 55253 layer_factory.hpp:77] Creating layer inception_c3_1x1_3_scale
I0110 11:34:49.158684 55253 net.cpp:141] Setting up inception_c3_1x1_3_scale
I0110 11:34:49.158691 55253 net.cpp:148] Top shape: 10 384 8 8 (245760)
I0110 11:34:49.158695 55253 net.cpp:156] Memory required for data: 3903747120
I0110 11:34:49.158701 55253 layer_factory.hpp:77] Creating layer inception_c3_1x1_3_relu
I0110 11:34:49.158706 55253 net.cpp:91] Creating Layer inception_c3_1x1_3_relu
I0110 11:34:49.158710 55253 net.cpp:425] inception_c3_1x1_3_relu <- inception_c3_1x1_3
I0110 11:34:49.158715 55253 net.cpp:386] inception_c3_1x1_3_relu -> inception_c3_1x1_3 (in-place)
I0110 11:34:49.159216 55253 net.cpp:141] Setting up inception_c3_1x1_3_relu
I0110 11:34:49.159227 55253 net.cpp:148] Top shape: 10 384 8 8 (245760)
I0110 11:34:49.159230 55253 net.cpp:156] Memory required for data: 3904730160
I0110 11:34:49.159235 55253 layer_factory.hpp:77] Creating layer inception_c3_1x1_3_inception_c3_1x1_3_relu_0_split
I0110 11:34:49.159240 55253 net.cpp:91] Creating Layer inception_c3_1x1_3_inception_c3_1x1_3_relu_0_split
I0110 11:34:49.159243 55253 net.cpp:425] inception_c3_1x1_3_inception_c3_1x1_3_relu_0_split <- inception_c3_1x1_3
I0110 11:34:49.159250 55253 net.cpp:399] inception_c3_1x1_3_inception_c3_1x1_3_relu_0_split -> inception_c3_1x1_3_inception_c3_1x1_3_relu_0_split_0
I0110 11:34:49.159334 55253 net.cpp:399] inception_c3_1x1_3_inception_c3_1x1_3_relu_0_split -> inception_c3_1x1_3_inception_c3_1x1_3_relu_0_split_1
I0110 11:34:49.159397 55253 net.cpp:141] Setting up inception_c3_1x1_3_inception_c3_1x1_3_relu_0_split
I0110 11:34:49.159406 55253 net.cpp:148] Top shape: 10 384 8 8 (245760)
I0110 11:34:49.159410 55253 net.cpp:148] Top shape: 10 384 8 8 (245760)
I0110 11:34:49.159413 55253 net.cpp:156] Memory required for data: 3906696240
I0110 11:34:49.159416 55253 layer_factory.hpp:77] Creating layer inception_c3_1x3
I0110 11:34:49.159425 55253 net.cpp:91] Creating Layer inception_c3_1x3
I0110 11:34:49.159431 55253 net.cpp:425] inception_c3_1x3 <- inception_c3_1x1_3_inception_c3_1x1_3_relu_0_split_0
I0110 11:34:49.159438 55253 net.cpp:399] inception_c3_1x3 -> inception_c3_1x3
I0110 11:34:49.163480 55253 net.cpp:141] Setting up inception_c3_1x3
I0110 11:34:49.163494 55253 net.cpp:148] Top shape: 10 256 8 8 (163840)
I0110 11:34:49.163498 55253 net.cpp:156] Memory required for data: 3907351600
I0110 11:34:49.163504 55253 layer_factory.hpp:77] Creating layer inception_c3_1x3_bn
I0110 11:34:49.163514 55253 net.cpp:91] Creating Layer inception_c3_1x3_bn
I0110 11:34:49.163518 55253 net.cpp:425] inception_c3_1x3_bn <- inception_c3_1x3
I0110 11:34:49.163524 55253 net.cpp:386] inception_c3_1x3_bn -> inception_c3_1x3 (in-place)
I0110 11:34:49.163795 55253 net.cpp:141] Setting up inception_c3_1x3_bn
I0110 11:34:49.163803 55253 net.cpp:148] Top shape: 10 256 8 8 (163840)
I0110 11:34:49.163806 55253 net.cpp:156] Memory required for data: 3908006960
I0110 11:34:49.163813 55253 layer_factory.hpp:77] Creating layer inception_c3_1x3_scale
I0110 11:34:49.163820 55253 net.cpp:91] Creating Layer inception_c3_1x3_scale
I0110 11:34:49.163823 55253 net.cpp:425] inception_c3_1x3_scale <- inception_c3_1x3
I0110 11:34:49.163827 55253 net.cpp:386] inception_c3_1x3_scale -> inception_c3_1x3 (in-place)
I0110 11:34:49.163882 55253 layer_factory.hpp:77] Creating layer inception_c3_1x3_scale
I0110 11:34:49.164036 55253 net.cpp:141] Setting up inception_c3_1x3_scale
I0110 11:34:49.164046 55253 net.cpp:148] Top shape: 10 256 8 8 (163840)
I0110 11:34:49.164048 55253 net.cpp:156] Memory required for data: 3908662320
I0110 11:34:49.164054 55253 layer_factory.hpp:77] Creating layer inception_c3_1x3_relu
I0110 11:34:49.164059 55253 net.cpp:91] Creating Layer inception_c3_1x3_relu
I0110 11:34:49.164063 55253 net.cpp:425] inception_c3_1x3_relu <- inception_c3_1x3
I0110 11:34:49.164069 55253 net.cpp:386] inception_c3_1x3_relu -> inception_c3_1x3 (in-place)
I0110 11:34:49.165405 55253 net.cpp:141] Setting up inception_c3_1x3_relu
I0110 11:34:49.165418 55253 net.cpp:148] Top shape: 10 256 8 8 (163840)
I0110 11:34:49.165422 55253 net.cpp:156] Memory required for data: 3909317680
I0110 11:34:49.165427 55253 layer_factory.hpp:77] Creating layer inception_c3_3x1
I0110 11:34:49.165437 55253 net.cpp:91] Creating Layer inception_c3_3x1
I0110 11:34:49.165442 55253 net.cpp:425] inception_c3_3x1 <- inception_c3_1x1_3_inception_c3_1x1_3_relu_0_split_1
I0110 11:34:49.165451 55253 net.cpp:399] inception_c3_3x1 -> inception_c3_3x1
I0110 11:34:49.168375 55253 net.cpp:141] Setting up inception_c3_3x1
I0110 11:34:49.168390 55253 net.cpp:148] Top shape: 10 256 8 8 (163840)
I0110 11:34:49.168395 55253 net.cpp:156] Memory required for data: 3909973040
I0110 11:34:49.168401 55253 layer_factory.hpp:77] Creating layer inception_c3_3x1_bn
I0110 11:34:49.168411 55253 net.cpp:91] Creating Layer inception_c3_3x1_bn
I0110 11:34:49.168416 55253 net.cpp:425] inception_c3_3x1_bn <- inception_c3_3x1
I0110 11:34:49.168422 55253 net.cpp:386] inception_c3_3x1_bn -> inception_c3_3x1 (in-place)
I0110 11:34:49.168686 55253 net.cpp:141] Setting up inception_c3_3x1_bn
I0110 11:34:49.168694 55253 net.cpp:148] Top shape: 10 256 8 8 (163840)
I0110 11:34:49.168697 55253 net.cpp:156] Memory required for data: 3910628400
I0110 11:34:49.168704 55253 layer_factory.hpp:77] Creating layer inception_c3_3x1_scale
I0110 11:34:49.168712 55253 net.cpp:91] Creating Layer inception_c3_3x1_scale
I0110 11:34:49.168716 55253 net.cpp:425] inception_c3_3x1_scale <- inception_c3_3x1
I0110 11:34:49.168721 55253 net.cpp:386] inception_c3_3x1_scale -> inception_c3_3x1 (in-place)
I0110 11:34:49.168776 55253 layer_factory.hpp:77] Creating layer inception_c3_3x1_scale
I0110 11:34:49.168926 55253 net.cpp:141] Setting up inception_c3_3x1_scale
I0110 11:34:49.168933 55253 net.cpp:148] Top shape: 10 256 8 8 (163840)
I0110 11:34:49.168936 55253 net.cpp:156] Memory required for data: 3911283760
I0110 11:34:49.168942 55253 layer_factory.hpp:77] Creating layer inception_c3_3x1_relu
I0110 11:34:49.168947 55253 net.cpp:91] Creating Layer inception_c3_3x1_relu
I0110 11:34:49.168951 55253 net.cpp:425] inception_c3_3x1_relu <- inception_c3_3x1
I0110 11:34:49.168959 55253 net.cpp:386] inception_c3_3x1_relu -> inception_c3_3x1 (in-place)
I0110 11:34:49.170296 55253 net.cpp:141] Setting up inception_c3_3x1_relu
I0110 11:34:49.170310 55253 net.cpp:148] Top shape: 10 256 8 8 (163840)
I0110 11:34:49.170316 55253 net.cpp:156] Memory required for data: 3911939120
I0110 11:34:49.170320 55253 layer_factory.hpp:77] Creating layer inception_c3_1x1_4
I0110 11:34:49.170328 55253 net.cpp:91] Creating Layer inception_c3_1x1_4
I0110 11:34:49.170332 55253 net.cpp:425] inception_c3_1x1_4 <- inception_c2_concat_inception_c2_concat_0_split_2
I0110 11:34:49.170346 55253 net.cpp:399] inception_c3_1x1_4 -> inception_c3_1x1_4
I0110 11:34:49.175114 55253 net.cpp:141] Setting up inception_c3_1x1_4
I0110 11:34:49.175130 55253 net.cpp:148] Top shape: 10 384 8 8 (245760)
I0110 11:34:49.175134 55253 net.cpp:156] Memory required for data: 3912922160
I0110 11:34:49.175140 55253 layer_factory.hpp:77] Creating layer inception_c3_1x1_4_bn
I0110 11:34:49.175148 55253 net.cpp:91] Creating Layer inception_c3_1x1_4_bn
I0110 11:34:49.175153 55253 net.cpp:425] inception_c3_1x1_4_bn <- inception_c3_1x1_4
I0110 11:34:49.175159 55253 net.cpp:386] inception_c3_1x1_4_bn -> inception_c3_1x1_4 (in-place)
I0110 11:34:49.175498 55253 net.cpp:141] Setting up inception_c3_1x1_4_bn
I0110 11:34:49.175506 55253 net.cpp:148] Top shape: 10 384 8 8 (245760)
I0110 11:34:49.175509 55253 net.cpp:156] Memory required for data: 3913905200
I0110 11:34:49.175516 55253 layer_factory.hpp:77] Creating layer inception_c3_1x1_4_scale
I0110 11:34:49.175529 55253 net.cpp:91] Creating Layer inception_c3_1x1_4_scale
I0110 11:34:49.175534 55253 net.cpp:425] inception_c3_1x1_4_scale <- inception_c3_1x1_4
I0110 11:34:49.175539 55253 net.cpp:386] inception_c3_1x1_4_scale -> inception_c3_1x1_4 (in-place)
I0110 11:34:49.175643 55253 layer_factory.hpp:77] Creating layer inception_c3_1x1_4_scale
I0110 11:34:49.175843 55253 net.cpp:141] Setting up inception_c3_1x1_4_scale
I0110 11:34:49.175853 55253 net.cpp:148] Top shape: 10 384 8 8 (245760)
I0110 11:34:49.175855 55253 net.cpp:156] Memory required for data: 3914888240
I0110 11:34:49.175861 55253 layer_factory.hpp:77] Creating layer inception_c3_1x1_4_relu
I0110 11:34:49.175868 55253 net.cpp:91] Creating Layer inception_c3_1x1_4_relu
I0110 11:34:49.175871 55253 net.cpp:425] inception_c3_1x1_4_relu <- inception_c3_1x1_4
I0110 11:34:49.175879 55253 net.cpp:386] inception_c3_1x1_4_relu -> inception_c3_1x1_4 (in-place)
I0110 11:34:49.176131 55253 net.cpp:141] Setting up inception_c3_1x1_4_relu
I0110 11:34:49.176141 55253 net.cpp:148] Top shape: 10 384 8 8 (245760)
I0110 11:34:49.176144 55253 net.cpp:156] Memory required for data: 3915871280
I0110 11:34:49.176148 55253 layer_factory.hpp:77] Creating layer inception_c3_3x1_2
I0110 11:34:49.176158 55253 net.cpp:91] Creating Layer inception_c3_3x1_2
I0110 11:34:49.176163 55253 net.cpp:425] inception_c3_3x1_2 <- inception_c3_1x1_4
I0110 11:34:49.176168 55253 net.cpp:399] inception_c3_3x1_2 -> inception_c3_3x1_2
I0110 11:34:49.180420 55253 net.cpp:141] Setting up inception_c3_3x1_2
I0110 11:34:49.180438 55253 net.cpp:148] Top shape: 10 448 8 8 (286720)
I0110 11:34:49.180443 55253 net.cpp:156] Memory required for data: 3917018160
I0110 11:34:49.180449 55253 layer_factory.hpp:77] Creating layer inception_c3_3x1_2_bn
I0110 11:34:49.180454 55253 net.cpp:91] Creating Layer inception_c3_3x1_2_bn
I0110 11:34:49.180459 55253 net.cpp:425] inception_c3_3x1_2_bn <- inception_c3_3x1_2
I0110 11:34:49.180466 55253 net.cpp:386] inception_c3_3x1_2_bn -> inception_c3_3x1_2 (in-place)
I0110 11:34:49.180819 55253 net.cpp:141] Setting up inception_c3_3x1_2_bn
I0110 11:34:49.180829 55253 net.cpp:148] Top shape: 10 448 8 8 (286720)
I0110 11:34:49.180831 55253 net.cpp:156] Memory required for data: 3918165040
I0110 11:34:49.180838 55253 layer_factory.hpp:77] Creating layer inception_c3_3x1_2_scale
I0110 11:34:49.180845 55253 net.cpp:91] Creating Layer inception_c3_3x1_2_scale
I0110 11:34:49.180848 55253 net.cpp:425] inception_c3_3x1_2_scale <- inception_c3_3x1_2
I0110 11:34:49.180853 55253 net.cpp:386] inception_c3_3x1_2_scale -> inception_c3_3x1_2 (in-place)
I0110 11:34:49.180943 55253 layer_factory.hpp:77] Creating layer inception_c3_3x1_2_scale
I0110 11:34:49.181154 55253 net.cpp:141] Setting up inception_c3_3x1_2_scale
I0110 11:34:49.181164 55253 net.cpp:148] Top shape: 10 448 8 8 (286720)
I0110 11:34:49.181166 55253 net.cpp:156] Memory required for data: 3919311920
I0110 11:34:49.181172 55253 layer_factory.hpp:77] Creating layer inception_c3_3x1_2_relu
I0110 11:34:49.181180 55253 net.cpp:91] Creating Layer inception_c3_3x1_2_relu
I0110 11:34:49.181183 55253 net.cpp:425] inception_c3_3x1_2_relu <- inception_c3_3x1_2
I0110 11:34:49.181190 55253 net.cpp:386] inception_c3_3x1_2_relu -> inception_c3_3x1_2 (in-place)
I0110 11:34:49.181650 55253 net.cpp:141] Setting up inception_c3_3x1_2_relu
I0110 11:34:49.181660 55253 net.cpp:148] Top shape: 10 448 8 8 (286720)
I0110 11:34:49.181664 55253 net.cpp:156] Memory required for data: 3920458800
I0110 11:34:49.181668 55253 layer_factory.hpp:77] Creating layer inception_c3_1x3_2
I0110 11:34:49.181676 55253 net.cpp:91] Creating Layer inception_c3_1x3_2
I0110 11:34:49.181680 55253 net.cpp:425] inception_c3_1x3_2 <- inception_c3_3x1_2
I0110 11:34:49.181687 55253 net.cpp:399] inception_c3_1x3_2 -> inception_c3_1x3_2
I0110 11:34:49.186398 55253 net.cpp:141] Setting up inception_c3_1x3_2
I0110 11:34:49.186415 55253 net.cpp:148] Top shape: 10 512 8 8 (327680)
I0110 11:34:49.186419 55253 net.cpp:156] Memory required for data: 3921769520
I0110 11:34:49.186425 55253 layer_factory.hpp:77] Creating layer inception_c3_1x3_2_bn
I0110 11:34:49.186431 55253 net.cpp:91] Creating Layer inception_c3_1x3_2_bn
I0110 11:34:49.186436 55253 net.cpp:425] inception_c3_1x3_2_bn <- inception_c3_1x3_2
I0110 11:34:49.186444 55253 net.cpp:386] inception_c3_1x3_2_bn -> inception_c3_1x3_2 (in-place)
I0110 11:34:49.186811 55253 net.cpp:141] Setting up inception_c3_1x3_2_bn
I0110 11:34:49.186820 55253 net.cpp:148] Top shape: 10 512 8 8 (327680)
I0110 11:34:49.186825 55253 net.cpp:156] Memory required for data: 3923080240
I0110 11:34:49.186831 55253 layer_factory.hpp:77] Creating layer inception_c3_1x3_2_scale
I0110 11:34:49.186839 55253 net.cpp:91] Creating Layer inception_c3_1x3_2_scale
I0110 11:34:49.186843 55253 net.cpp:425] inception_c3_1x3_2_scale <- inception_c3_1x3_2
I0110 11:34:49.186847 55253 net.cpp:386] inception_c3_1x3_2_scale -> inception_c3_1x3_2 (in-place)
I0110 11:34:49.186931 55253 layer_factory.hpp:77] Creating layer inception_c3_1x3_2_scale
I0110 11:34:49.187134 55253 net.cpp:141] Setting up inception_c3_1x3_2_scale
I0110 11:34:49.187144 55253 net.cpp:148] Top shape: 10 512 8 8 (327680)
I0110 11:34:49.187146 55253 net.cpp:156] Memory required for data: 3924390960
I0110 11:34:49.187151 55253 layer_factory.hpp:77] Creating layer inception_c3_1x3_2_relu
I0110 11:34:49.187160 55253 net.cpp:91] Creating Layer inception_c3_1x3_2_relu
I0110 11:34:49.187165 55253 net.cpp:425] inception_c3_1x3_2_relu <- inception_c3_1x3_2
I0110 11:34:49.187170 55253 net.cpp:386] inception_c3_1x3_2_relu -> inception_c3_1x3_2 (in-place)
I0110 11:34:49.187418 55253 net.cpp:141] Setting up inception_c3_1x3_2_relu
I0110 11:34:49.187427 55253 net.cpp:148] Top shape: 10 512 8 8 (327680)
I0110 11:34:49.187431 55253 net.cpp:156] Memory required for data: 3925701680
I0110 11:34:49.187434 55253 layer_factory.hpp:77] Creating layer inception_c3_1x3_2_inception_c3_1x3_2_relu_0_split
I0110 11:34:49.187439 55253 net.cpp:91] Creating Layer inception_c3_1x3_2_inception_c3_1x3_2_relu_0_split
I0110 11:34:49.187443 55253 net.cpp:425] inception_c3_1x3_2_inception_c3_1x3_2_relu_0_split <- inception_c3_1x3_2
I0110 11:34:49.187448 55253 net.cpp:399] inception_c3_1x3_2_inception_c3_1x3_2_relu_0_split -> inception_c3_1x3_2_inception_c3_1x3_2_relu_0_split_0
I0110 11:34:49.187458 55253 net.cpp:399] inception_c3_1x3_2_inception_c3_1x3_2_relu_0_split -> inception_c3_1x3_2_inception_c3_1x3_2_relu_0_split_1
I0110 11:34:49.187522 55253 net.cpp:141] Setting up inception_c3_1x3_2_inception_c3_1x3_2_relu_0_split
I0110 11:34:49.187530 55253 net.cpp:148] Top shape: 10 512 8 8 (327680)
I0110 11:34:49.187535 55253 net.cpp:148] Top shape: 10 512 8 8 (327680)
I0110 11:34:49.187537 55253 net.cpp:156] Memory required for data: 3928323120
I0110 11:34:49.187541 55253 layer_factory.hpp:77] Creating layer inception_c3_1x3_3
I0110 11:34:49.187548 55253 net.cpp:91] Creating Layer inception_c3_1x3_3
I0110 11:34:49.187554 55253 net.cpp:425] inception_c3_1x3_3 <- inception_c3_1x3_2_inception_c3_1x3_2_relu_0_split_0
I0110 11:34:49.187561 55253 net.cpp:399] inception_c3_1x3_3 -> inception_c3_1x3_3
I0110 11:34:49.192286 55253 net.cpp:141] Setting up inception_c3_1x3_3
I0110 11:34:49.192315 55253 net.cpp:148] Top shape: 10 256 8 8 (163840)
I0110 11:34:49.192338 55253 net.cpp:156] Memory required for data: 3928978480
I0110 11:34:49.192344 55253 layer_factory.hpp:77] Creating layer inception_c3_1x3_3_bn
I0110 11:34:49.192350 55253 net.cpp:91] Creating Layer inception_c3_1x3_3_bn
I0110 11:34:49.192355 55253 net.cpp:425] inception_c3_1x3_3_bn <- inception_c3_1x3_3
I0110 11:34:49.192360 55253 net.cpp:386] inception_c3_1x3_3_bn -> inception_c3_1x3_3 (in-place)
I0110 11:34:49.192634 55253 net.cpp:141] Setting up inception_c3_1x3_3_bn
I0110 11:34:49.192642 55253 net.cpp:148] Top shape: 10 256 8 8 (163840)
I0110 11:34:49.192646 55253 net.cpp:156] Memory required for data: 3929633840
I0110 11:34:49.192653 55253 layer_factory.hpp:77] Creating layer inception_c3_1x3_3_scale
I0110 11:34:49.192662 55253 net.cpp:91] Creating Layer inception_c3_1x3_3_scale
I0110 11:34:49.192665 55253 net.cpp:425] inception_c3_1x3_3_scale <- inception_c3_1x3_3
I0110 11:34:49.192669 55253 net.cpp:386] inception_c3_1x3_3_scale -> inception_c3_1x3_3 (in-place)
I0110 11:34:49.192728 55253 layer_factory.hpp:77] Creating layer inception_c3_1x3_3_scale
I0110 11:34:49.192881 55253 net.cpp:141] Setting up inception_c3_1x3_3_scale
I0110 11:34:49.192901 55253 net.cpp:148] Top shape: 10 256 8 8 (163840)
I0110 11:34:49.192904 55253 net.cpp:156] Memory required for data: 3930289200
I0110 11:34:49.192910 55253 layer_factory.hpp:77] Creating layer inception_c3_1x3_3_relu
I0110 11:34:49.192916 55253 net.cpp:91] Creating Layer inception_c3_1x3_3_relu
I0110 11:34:49.192919 55253 net.cpp:425] inception_c3_1x3_3_relu <- inception_c3_1x3_3
I0110 11:34:49.192925 55253 net.cpp:386] inception_c3_1x3_3_relu -> inception_c3_1x3_3 (in-place)
I0110 11:34:49.193183 55253 net.cpp:141] Setting up inception_c3_1x3_3_relu
I0110 11:34:49.193193 55253 net.cpp:148] Top shape: 10 256 8 8 (163840)
I0110 11:34:49.193198 55253 net.cpp:156] Memory required for data: 3930944560
I0110 11:34:49.193202 55253 layer_factory.hpp:77] Creating layer inception_c3_3x1_3
I0110 11:34:49.193208 55253 net.cpp:91] Creating Layer inception_c3_3x1_3
I0110 11:34:49.193213 55253 net.cpp:425] inception_c3_3x1_3 <- inception_c3_1x3_2_inception_c3_1x3_2_relu_0_split_1
I0110 11:34:49.193220 55253 net.cpp:399] inception_c3_3x1_3 -> inception_c3_3x1_3
I0110 11:34:49.197502 55253 net.cpp:141] Setting up inception_c3_3x1_3
I0110 11:34:49.197517 55253 net.cpp:148] Top shape: 10 256 8 8 (163840)
I0110 11:34:49.197521 55253 net.cpp:156] Memory required for data: 3931599920
I0110 11:34:49.197527 55253 layer_factory.hpp:77] Creating layer inception_c3_3x1_3_bn
I0110 11:34:49.197536 55253 net.cpp:91] Creating Layer inception_c3_3x1_3_bn
I0110 11:34:49.197541 55253 net.cpp:425] inception_c3_3x1_3_bn <- inception_c3_3x1_3
I0110 11:34:49.197548 55253 net.cpp:386] inception_c3_3x1_3_bn -> inception_c3_3x1_3 (in-place)
I0110 11:34:49.197824 55253 net.cpp:141] Setting up inception_c3_3x1_3_bn
I0110 11:34:49.197830 55253 net.cpp:148] Top shape: 10 256 8 8 (163840)
I0110 11:34:49.197834 55253 net.cpp:156] Memory required for data: 3932255280
I0110 11:34:49.197841 55253 layer_factory.hpp:77] Creating layer inception_c3_3x1_3_scale
I0110 11:34:49.197849 55253 net.cpp:91] Creating Layer inception_c3_3x1_3_scale
I0110 11:34:49.197852 55253 net.cpp:425] inception_c3_3x1_3_scale <- inception_c3_3x1_3
I0110 11:34:49.197857 55253 net.cpp:386] inception_c3_3x1_3_scale -> inception_c3_3x1_3 (in-place)
I0110 11:34:49.197912 55253 layer_factory.hpp:77] Creating layer inception_c3_3x1_3_scale
I0110 11:34:49.198079 55253 net.cpp:141] Setting up inception_c3_3x1_3_scale
I0110 11:34:49.198088 55253 net.cpp:148] Top shape: 10 256 8 8 (163840)
I0110 11:34:49.198091 55253 net.cpp:156] Memory required for data: 3932910640
I0110 11:34:49.198097 55253 layer_factory.hpp:77] Creating layer inception_c3_3x1_3_relu
I0110 11:34:49.198102 55253 net.cpp:91] Creating Layer inception_c3_3x1_3_relu
I0110 11:34:49.198107 55253 net.cpp:425] inception_c3_3x1_3_relu <- inception_c3_3x1_3
I0110 11:34:49.198112 55253 net.cpp:386] inception_c3_3x1_3_relu -> inception_c3_3x1_3 (in-place)
I0110 11:34:49.199614 55253 net.cpp:141] Setting up inception_c3_3x1_3_relu
I0110 11:34:49.199630 55253 net.cpp:148] Top shape: 10 256 8 8 (163840)
I0110 11:34:49.199650 55253 net.cpp:156] Memory required for data: 3933566000
I0110 11:34:49.199653 55253 layer_factory.hpp:77] Creating layer inception_c3_pool_ave
I0110 11:34:49.199661 55253 net.cpp:91] Creating Layer inception_c3_pool_ave
I0110 11:34:49.199666 55253 net.cpp:425] inception_c3_pool_ave <- inception_c2_concat_inception_c2_concat_0_split_3
I0110 11:34:49.199671 55253 net.cpp:399] inception_c3_pool_ave -> inception_c3_pool_ave
I0110 11:34:49.199954 55253 net.cpp:141] Setting up inception_c3_pool_ave
I0110 11:34:49.199965 55253 net.cpp:148] Top shape: 10 1536 8 8 (983040)
I0110 11:34:49.199967 55253 net.cpp:156] Memory required for data: 3937498160
I0110 11:34:49.199971 55253 layer_factory.hpp:77] Creating layer inception_c3_1x1
I0110 11:34:49.199982 55253 net.cpp:91] Creating Layer inception_c3_1x1
I0110 11:34:49.199986 55253 net.cpp:425] inception_c3_1x1 <- inception_c3_pool_ave
I0110 11:34:49.199993 55253 net.cpp:399] inception_c3_1x1 -> inception_c3_1x1
I0110 11:34:49.204283 55253 net.cpp:141] Setting up inception_c3_1x1
I0110 11:34:49.204298 55253 net.cpp:148] Top shape: 10 256 8 8 (163840)
I0110 11:34:49.204319 55253 net.cpp:156] Memory required for data: 3938153520
I0110 11:34:49.204325 55253 layer_factory.hpp:77] Creating layer inception_c3_1x1_bn
I0110 11:34:49.204334 55253 net.cpp:91] Creating Layer inception_c3_1x1_bn
I0110 11:34:49.204355 55253 net.cpp:425] inception_c3_1x1_bn <- inception_c3_1x1
I0110 11:34:49.204361 55253 net.cpp:386] inception_c3_1x1_bn -> inception_c3_1x1 (in-place)
I0110 11:34:49.204660 55253 net.cpp:141] Setting up inception_c3_1x1_bn
I0110 11:34:49.204668 55253 net.cpp:148] Top shape: 10 256 8 8 (163840)
I0110 11:34:49.204671 55253 net.cpp:156] Memory required for data: 3938808880
I0110 11:34:49.204695 55253 layer_factory.hpp:77] Creating layer inception_c3_1x1_scale
I0110 11:34:49.204704 55253 net.cpp:91] Creating Layer inception_c3_1x1_scale
I0110 11:34:49.204707 55253 net.cpp:425] inception_c3_1x1_scale <- inception_c3_1x1
I0110 11:34:49.204711 55253 net.cpp:386] inception_c3_1x1_scale -> inception_c3_1x1 (in-place)
I0110 11:34:49.204766 55253 layer_factory.hpp:77] Creating layer inception_c3_1x1_scale
I0110 11:34:49.204921 55253 net.cpp:141] Setting up inception_c3_1x1_scale
I0110 11:34:49.204928 55253 net.cpp:148] Top shape: 10 256 8 8 (163840)
I0110 11:34:49.204931 55253 net.cpp:156] Memory required for data: 3939464240
I0110 11:34:49.204937 55253 layer_factory.hpp:77] Creating layer inception_c3_1x1_relu
I0110 11:34:49.204944 55253 net.cpp:91] Creating Layer inception_c3_1x1_relu
I0110 11:34:49.204947 55253 net.cpp:425] inception_c3_1x1_relu <- inception_c3_1x1
I0110 11:34:49.204953 55253 net.cpp:386] inception_c3_1x1_relu -> inception_c3_1x1 (in-place)
I0110 11:34:49.205644 55253 net.cpp:141] Setting up inception_c3_1x1_relu
I0110 11:34:49.205654 55253 net.cpp:148] Top shape: 10 256 8 8 (163840)
I0110 11:34:49.205658 55253 net.cpp:156] Memory required for data: 3940119600
I0110 11:34:49.205678 55253 layer_factory.hpp:77] Creating layer inception_c3_concat
I0110 11:34:49.205687 55253 net.cpp:91] Creating Layer inception_c3_concat
I0110 11:34:49.205691 55253 net.cpp:425] inception_c3_concat <- inception_c3_1x1_2
I0110 11:34:49.205696 55253 net.cpp:425] inception_c3_concat <- inception_c3_1x3
I0110 11:34:49.205700 55253 net.cpp:425] inception_c3_concat <- inception_c3_3x1
I0110 11:34:49.205704 55253 net.cpp:425] inception_c3_concat <- inception_c3_1x3_3
I0110 11:34:49.205708 55253 net.cpp:425] inception_c3_concat <- inception_c3_3x1_3
I0110 11:34:49.205711 55253 net.cpp:425] inception_c3_concat <- inception_c3_1x1
I0110 11:34:49.205718 55253 net.cpp:399] inception_c3_concat -> inception_c3_concat
I0110 11:34:49.205761 55253 net.cpp:141] Setting up inception_c3_concat
I0110 11:34:49.205770 55253 net.cpp:148] Top shape: 10 1536 8 8 (983040)
I0110 11:34:49.205772 55253 net.cpp:156] Memory required for data: 3944051760
I0110 11:34:49.205775 55253 layer_factory.hpp:77] Creating layer pool_8x8_s1
I0110 11:34:49.205782 55253 net.cpp:91] Creating Layer pool_8x8_s1
I0110 11:34:49.205785 55253 net.cpp:425] pool_8x8_s1 <- inception_c3_concat
I0110 11:34:49.205793 55253 net.cpp:399] pool_8x8_s1 -> pool_8x8_s1
I0110 11:34:49.206097 55253 net.cpp:141] Setting up pool_8x8_s1
I0110 11:34:49.206107 55253 net.cpp:148] Top shape: 10 1536 1 1 (15360)
I0110 11:34:49.206110 55253 net.cpp:156] Memory required for data: 3944113200
I0110 11:34:49.206128 55253 layer_factory.hpp:77] Creating layer pool_8x8_s1_drop
I0110 11:34:49.206135 55253 net.cpp:91] Creating Layer pool_8x8_s1_drop
I0110 11:34:49.206140 55253 net.cpp:425] pool_8x8_s1_drop <- pool_8x8_s1
I0110 11:34:49.206145 55253 net.cpp:399] pool_8x8_s1_drop -> pool_8x8_s1_drop
I0110 11:34:49.206200 55253 net.cpp:141] Setting up pool_8x8_s1_drop
I0110 11:34:49.206207 55253 net.cpp:148] Top shape: 10 1536 1 1 (15360)
I0110 11:34:49.206210 55253 net.cpp:156] Memory required for data: 3944174640
I0110 11:34:49.206213 55253 layer_factory.hpp:77] Creating layer fc1
I0110 11:34:49.206223 55253 net.cpp:91] Creating Layer fc1
I0110 11:34:49.206238 55253 net.cpp:425] fc1 <- pool_8x8_s1_drop
I0110 11:34:49.206248 55253 net.cpp:399] fc1 -> fc1
I0110 11:34:49.210414 55253 net.cpp:141] Setting up fc1
I0110 11:34:49.210428 55253 net.cpp:148] Top shape: 10 256 (2560)
I0110 11:34:49.210431 55253 net.cpp:156] Memory required for data: 3944184880
I0110 11:34:49.210456 55253 layer_factory.hpp:77] Creating layer fc2
I0110 11:34:49.210465 55253 net.cpp:91] Creating Layer fc2
I0110 11:34:49.210469 55253 net.cpp:425] fc2 <- fc1
I0110 11:34:49.210475 55253 net.cpp:399] fc2 -> fc2
I0110 11:34:49.210703 55253 net.cpp:141] Setting up fc2
I0110 11:34:49.210712 55253 net.cpp:148] Top shape: 10 10 (100)
I0110 11:34:49.210716 55253 net.cpp:156] Memory required for data: 3944185280
I0110 11:34:49.210721 55253 layer_factory.hpp:77] Creating layer fc2_fc2_0_split
I0110 11:34:49.210726 55253 net.cpp:91] Creating Layer fc2_fc2_0_split
I0110 11:34:49.210731 55253 net.cpp:425] fc2_fc2_0_split <- fc2
I0110 11:34:49.210734 55253 net.cpp:399] fc2_fc2_0_split -> fc2_fc2_0_split_0
I0110 11:34:49.210741 55253 net.cpp:399] fc2_fc2_0_split -> fc2_fc2_0_split_1
I0110 11:34:49.210793 55253 net.cpp:141] Setting up fc2_fc2_0_split
I0110 11:34:49.210800 55253 net.cpp:148] Top shape: 10 10 (100)
I0110 11:34:49.210804 55253 net.cpp:148] Top shape: 10 10 (100)
I0110 11:34:49.210808 55253 net.cpp:156] Memory required for data: 3944186080
I0110 11:34:49.210810 55253 layer_factory.hpp:77] Creating layer accuracy
I0110 11:34:49.210850 55253 net.cpp:91] Creating Layer accuracy
I0110 11:34:49.210857 55253 net.cpp:425] accuracy <- fc2_fc2_0_split_0
I0110 11:34:49.210862 55253 net.cpp:425] accuracy <- label_data_1_split_0
I0110 11:34:49.210870 55253 net.cpp:399] accuracy -> accuracy
…
