name:"inception_v4"
################################### data ######################################
layer {
  name: "data"
  type: "ImageData"
  top: "data"
  top: "label"
  transform_param {
    mirror: true
    crop_size: 299
    mean_value: 103.939
    mean_value: 116.779
    mean_value: 123.68
  }
  image_data_param {
    source: "/mnt/lustre/yangkunlin/kaggle_camera/data/TrainAug2.txt"
    batch_size: 80
    shuffle: true
    root_folder: "/mnt/lustre/yangkunlin/kaggle_camera/data"
  }
  include {
    phase: TRAIN
  }
}

layer {
  name: "data"
  type: "ImageData"
  top: "data"
  top: "label"
  transform_param {
    mirror: true
  crop_size: 299
    mean_value: 103.939
    mean_value: 116.779
    mean_value: 123.68
  }
  image_data_param {
    root_folder: "/mnt/lustre/yangkunlin/kaggle_camera/data/train"
  source: "/mnt/lustre/yangkunlin/kaggle_camera/data/val.txt"
    batch_size: 80
    shuffle: true
  }
  include { phase: TEST}
}
layer{
   name: "gather"
   type: "Gather"
   bottom: "label"
   top: "label_g"
}
###################################### conv1 ###################################
layer {
  name: "conv1_3x3_s2"
  type: "ConvolutionData"
  bottom: "data"
  top: "conv1_3x3_s2"
  convolution_param {
    bias_term: false
    num_output: 32
    pad: 0
    kernel_size: 3
    stride: 2
  }
}
layer {
  name: "conv1_3x3_s2_bn_dy"
  type: "BNData"
  bottom: "conv1_3x3_s2"
  top: "conv1_3x3_s2"
  param { lr_mult: 1 decay_mult: 0 } param { lr_mult: 1 decay_mult: 0 }
  bn_param {frozen: false scale_filler { type: "constant" value: 1 } shift_filler { type: "constant" value: 0 } }
}
layer {
  name: "conv1_3x3_s2_relu"
  type: "ReLU"
  bottom: "conv1_3x3_s2"
  top: "conv1_3x3_s2"
}
layer {
  name: "conv2_3x3_s1"
  type: "ConvolutionData"
  bottom: "conv1_3x3_s2"
  top: "conv2_3x3_s1"
  convolution_param {
    bias_term: false
    num_output: 32
    pad: 0
    kernel_size: 3
    stride: 1
  }
}
layer {
  name: "conv2_3x3_s1_bn_dy"
  type: "BNData"
  bottom: "conv2_3x3_s1"
  top: "conv2_3x3_s1"
  param { lr_mult: 1 decay_mult: 0 } param { lr_mult: 1 decay_mult: 0 }
  bn_param {frozen: false scale_filler { type: "constant" value: 1 } shift_filler { type: "constant" value: 0 } }
}

layer {
  name: "conv2_3x3_s1_relu"
  type: "ReLU"
  bottom: "conv2_3x3_s1"
  top: "conv2_3x3_s1"
}
layer {
  name: "conv3_3x3_s1"
  type: "ConvolutionData"
  bottom: "conv2_3x3_s1"
  top: "conv3_3x3_s1"
  convolution_param {
    bias_term: false
    num_output: 64
    pad: 1
    kernel_size: 3
    stride: 1
  }
}
layer {
  name: "conv3_3x3_s1_bn_dy"
  type: "BNData"
  bottom: "conv3_3x3_s1"
  top: "conv3_3x3_s1"
  param { lr_mult: 1 decay_mult: 0 } param { lr_mult: 1 decay_mult: 0 }
  bn_param {frozen: false scale_filler { type: "constant" value: 1 } shift_filler { type: "constant" value: 0 } }
}

layer {
  name: "conv3_3x3_s1_relu"
  type: "ReLU"
  bottom: "conv3_3x3_s1"
  top: "conv3_3x3_s1"
}
layer {
  name: "inception_stem1_3x3_s2"
  type: "ConvolutionData"
  bottom: "conv3_3x3_s1"
  top: "inception_stem1_3x3_s2"
  convolution_param {
    bias_term: false
    num_output: 96
    pad: 0
    kernel_size: 3
    stride: 2
  }
}
layer {
  name: "inception_stem1_3x3_s2_bn_dy"
  type: "BNData"
  bottom: "inception_stem1_3x3_s2"
  top: "inception_stem1_3x3_s2"
  param { lr_mult: 1 decay_mult: 0 } param { lr_mult: 1 decay_mult: 0 }
  bn_param {frozen: false scale_filler { type: "constant" value: 1 } shift_filler { type: "constant" value: 0 } }
}

layer {
  name: "inception_stem1_3x3_s2_relu"
  type: "ReLU"
  bottom: "inception_stem1_3x3_s2"
  top: "inception_stem1_3x3_s2"
}
layer {
  name: "inception_stem1_pool"
  type: "Pooling"
  bottom: "conv3_3x3_s1"
  top: "inception_stem1_pool"
  pooling_param {
    pool: MAX
    kernel_size: 3
    stride: 2
  }
}
layer {
  name: "inception_stem1"
  type: "Concat"
  bottom: "inception_stem1_pool"
  bottom: "inception_stem1_3x3_s2"
  top: "inception_stem1"
}
layer {
  name: "inception_stem2_3x3_reduce"
  type: "ConvolutionData"
  bottom: "inception_stem1"
  top: "inception_stem2_3x3_reduce"
  convolution_param {
    bias_term: false
    num_output: 64
    pad: 0
    kernel_size: 1
    stride: 1
  }
}
layer {
  name: "inception_stem2_3x3_reduce_bn_dy"
  type: "BNData"
  bottom: "inception_stem2_3x3_reduce"
  top: "inception_stem2_3x3_reduce"
  param { lr_mult: 1 decay_mult: 0 } param { lr_mult: 1 decay_mult: 0 }
  bn_param {frozen: false scale_filler { type: "constant" value: 1 } shift_filler { type: "constant" value: 0 } }
}

layer {
  name: "inception_stem2_3x3_reduce_relu"
  type: "ReLU"
  bottom: "inception_stem2_3x3_reduce"
  top: "inception_stem2_3x3_reduce"
}
layer {
  name: "inception_stem2_3x3"
  type: "ConvolutionData"
  bottom: "inception_stem2_3x3_reduce"
  top: "inception_stem2_3x3"
  convolution_param {
    bias_term: false
    num_output: 96
    pad: 0
    kernel_size: 3
    stride: 1
  }
}
layer {
  name: "inception_stem2_3x3_bn_dy"
  type: "BNData"
  bottom: "inception_stem2_3x3"
  top: "inception_stem2_3x3"
  param { lr_mult: 1 decay_mult: 0 } param { lr_mult: 1 decay_mult: 0 }
  bn_param {frozen: false scale_filler { type: "constant" value: 1 } shift_filler { type: "constant" value: 0 } }
}

layer {
  name: "inception_stem2_3x3_relu"
  type: "ReLU"
  bottom: "inception_stem2_3x3"
  top: "inception_stem2_3x3"
}
layer {
  name: "inception_stem2_1x7_reduce"
  type: "ConvolutionData"
  bottom: "inception_stem1"
  top: "inception_stem2_1x7_reduce"
  convolution_param {
    bias_term: false
    num_output: 64
    pad: 0
    kernel_size: 1
    stride: 1
  }
}
layer {
  name: "inception_stem2_1x7_reduce_bn_dy"
  type: "BNData"
  bottom: "inception_stem2_1x7_reduce"
  top: "inception_stem2_1x7_reduce"
  param { lr_mult: 1 decay_mult: 0 } param { lr_mult: 1 decay_mult: 0 }
  bn_param {frozen: false scale_filler { type: "constant" value: 1 } shift_filler { type: "constant" value: 0 } }
}

layer {
  name: "inception_stem2_1x7_reduce_relu"
  type: "ReLU"
  bottom: "inception_stem2_1x7_reduce"
  top: "inception_stem2_1x7_reduce"
}
layer {
  name: "inception_stem2_1x7"
  type: "ConvolutionData"
  bottom: "inception_stem2_1x7_reduce"
  top: "inception_stem2_1x7"
  convolution_param {
    bias_term: false
    num_output: 64
    stride: 1
    pad_h: 0
    pad_w: 3
    kernel_h: 1
    kernel_w: 7
  }
}
layer {
  name: "inception_stem2_1x7_bn_dy"
  type: "BNData"
  bottom: "inception_stem2_1x7"
  top: "inception_stem2_1x7"
  param { lr_mult: 1 decay_mult: 0 } param { lr_mult: 1 decay_mult: 0 }
  bn_param {frozen: false scale_filler { type: "constant" value: 1 } shift_filler { type: "constant" value: 0 } }
}

layer {
  name: "inception_stem2_1x7_relu"
  type: "ReLU"
  bottom: "inception_stem2_1x7"
  top: "inception_stem2_1x7"
}
layer {
  name: "inception_stem2_7x1"
  type: "ConvolutionData"
  bottom: "inception_stem2_1x7"
  top: "inception_stem2_7x1"
  convolution_param {
    bias_term: false
    num_output: 64
    stride: 1
    pad_h: 3
    pad_w: 0
    kernel_h: 7
    kernel_w: 1
  }
}
layer {
  name: "inception_stem2_7x1_bn_dy"
  type: "BNData"
  bottom: "inception_stem2_7x1"
  top: "inception_stem2_7x1"
  param { lr_mult: 1 decay_mult: 0 } param { lr_mult: 1 decay_mult: 0 }
  bn_param {frozen: false scale_filler { type: "constant" value: 1 } shift_filler { type: "constant" value: 0 } }
}

layer {
  name: "inception_stem2_7x1_relu"
  type: "ReLU"
  bottom: "inception_stem2_7x1"
  top: "inception_stem2_7x1"
}
layer {
  name: "inception_stem2_3x3_2"
  type: "ConvolutionData"
  bottom: "inception_stem2_7x1"
  top: "inception_stem2_3x3_2"
  convolution_param {
    bias_term: false
    num_output: 96
    pad: 0
    kernel_size: 3
    stride: 1
  }
}
layer {
  name: "inception_stem2_3x3_2_bn_dy"
  type: "BNData"
  bottom: "inception_stem2_3x3_2"
  top: "inception_stem2_3x3_2"
  param { lr_mult: 1 decay_mult: 0 } param { lr_mult: 1 decay_mult: 0 }
  bn_param {frozen: false scale_filler { type: "constant" value: 1 } shift_filler { type: "constant" value: 0 } }
}

layer {
  name: "inception_stem2_3x3_2_relu"
  type: "ReLU"
  bottom: "inception_stem2_3x3_2"
  top: "inception_stem2_3x3_2"
}
layer {
  name: "inception_stem2"
  type: "Concat"
  bottom: "inception_stem2_3x3"
  bottom: "inception_stem2_3x3_2"
  top: "inception_stem2"
}
layer {
  name: "inception_stem3_3x3_s2"
  type: "ConvolutionData"
  bottom: "inception_stem2"
  top: "inception_stem3_3x3_s2"
  convolution_param {
    bias_term: false
    num_output: 192
    pad: 0
    kernel_size: 3
    stride: 2
  }
}
layer {
  name: "inception_stem3_3x3_s2_bn_dy"
  type: "BNData"
  bottom: "inception_stem3_3x3_s2"
  top: "inception_stem3_3x3_s2"
  param { lr_mult: 1 decay_mult: 0 } param { lr_mult: 1 decay_mult: 0 }
  bn_param {frozen: false scale_filler { type: "constant" value: 1 } shift_filler { type: "constant" value: 0 } }
}

layer {
  name: "inception_stem3_3x3_s2_relu"
  type: "ReLU"
  bottom: "inception_stem3_3x3_s2"
  top: "inception_stem3_3x3_s2"
}
layer {
  name: "inception_stem3_pool"
  type: "Pooling"
  bottom: "inception_stem2"
  top: "inception_stem3_pool"
  pooling_param {
    pool: MAX
    kernel_size: 3
    stride: 2
  }
}
layer {
  name: "inception_stem3"
  type: "Concat"
  bottom: "inception_stem3_3x3_s2"
  bottom: "inception_stem3_pool"
  top: "inception_stem3"
}
layer {
  name: "inception_a1_1x1_2"
  type: "ConvolutionData"
  bottom: "inception_stem3"
  top: "inception_a1_1x1_2"
  convolution_param {
    bias_term: false
    num_output: 96
    pad: 0
    kernel_size: 1
    stride: 1
  }
}
layer {
  name: "inception_a1_1x1_2_bn_dy"
  type: "BNData"
  bottom: "inception_a1_1x1_2"
  top: "inception_a1_1x1_2"
  param { lr_mult: 1 decay_mult: 0 } param { lr_mult: 1 decay_mult: 0 }
  bn_param {frozen: false scale_filler { type: "constant" value: 1 } shift_filler { type: "constant" value: 0 } }
}

layer {
  name: "inception_a1_1x1_2_relu"
  type: "ReLU"
  bottom: "inception_a1_1x1_2"
  top: "inception_a1_1x1_2"
}
layer {
  name: "inception_a1_3x3_reduce"
  type: "ConvolutionData"
  bottom: "inception_stem3"
  top: "inception_a1_3x3_reduce"
  convolution_param {
    bias_term: false
    num_output: 64
    pad: 0
    kernel_size: 1
    stride: 1
  }
}
layer {
  name: "inception_a1_3x3_reduce_bn_dy"
  type: "BNData"
  bottom: "inception_a1_3x3_reduce"
  top: "inception_a1_3x3_reduce"
  param { lr_mult: 1 decay_mult: 0 } param { lr_mult: 1 decay_mult: 0 }
  bn_param {frozen: false scale_filler { type: "constant" value: 1 } shift_filler { type: "constant" value: 0 } }
}

layer {
  name: "inception_a1_3x3_reduce_relu"
  type: "ReLU"
  bottom: "inception_a1_3x3_reduce"
  top: "inception_a1_3x3_reduce"
}
layer {
  name: "inception_a1_3x3"
  type: "ConvolutionData"
  bottom: "inception_a1_3x3_reduce"
  top: "inception_a1_3x3"
  convolution_param {
    bias_term: false
    num_output: 96
    pad: 1
    kernel_size: 3
    stride: 1
  }
}
layer {
  name: "inception_a1_3x3_bn_dy"
  type: "BNData"
  bottom: "inception_a1_3x3"
  top: "inception_a1_3x3"
  param { lr_mult: 1 decay_mult: 0 } param { lr_mult: 1 decay_mult: 0 }
  bn_param {frozen: false scale_filler { type: "constant" value: 1 } shift_filler { type: "constant" value: 0 } }
}

layer {
  name: "inception_a1_3x3_relu"
  type: "ReLU"
  bottom: "inception_a1_3x3"
  top: "inception_a1_3x3"
}
layer {
  name: "inception_a1_3x3_2_reduce"
  type: "ConvolutionData"
  bottom: "inception_stem3"
  top: "inception_a1_3x3_2_reduce"
  convolution_param {
    bias_term: false
    num_output: 64
    pad: 0
    kernel_size: 1
    stride: 1
  }
}
layer {
  name: "inception_a1_3x3_2_reduce_bn_dy"
  type: "BNData"
  bottom: "inception_a1_3x3_2_reduce"
  top: "inception_a1_3x3_2_reduce"
  param { lr_mult: 1 decay_mult: 0 } param { lr_mult: 1 decay_mult: 0 }
  bn_param {frozen: false scale_filler { type: "constant" value: 1 } shift_filler { type: "constant" value: 0 } }
}

layer {
  name: "inception_a1_3x3_2_reduce_relu"
  type: "ReLU"
  bottom: "inception_a1_3x3_2_reduce"
  top: "inception_a1_3x3_2_reduce"
}
layer {
  name: "inception_a1_3x3_2"
  type: "ConvolutionData"
  bottom: "inception_a1_3x3_2_reduce"
  top: "inception_a1_3x3_2"
  convolution_param {
    bias_term: false
    num_output: 96
    pad: 1
    kernel_size: 3
    stride: 1
  }
}
layer {
  name: "inception_a1_3x3_2_bn_dy"
  type: "BNData"
  bottom: "inception_a1_3x3_2"
  top: "inception_a1_3x3_2"
  param { lr_mult: 1 decay_mult: 0 } param { lr_mult: 1 decay_mult: 0 }
  bn_param {frozen: false scale_filler { type: "constant" value: 1 } shift_filler { type: "constant" value: 0 } }
}

layer {
  name: "inception_a1_3x3_2_relu"
  type: "ReLU"
  bottom: "inception_a1_3x3_2"
  top: "inception_a1_3x3_2"
}
layer {
  name: "inception_a1_3x3_3"
  type: "ConvolutionData"
  bottom: "inception_a1_3x3_2"
  top: "inception_a1_3x3_3"
  convolution_param {
    bias_term: false
    num_output: 96
    pad: 1
    kernel_size: 3
    stride: 1
  }
}
layer {
  name: "inception_a1_3x3_3_bn_dy"
  type: "BNData"
  bottom: "inception_a1_3x3_3"
  top: "inception_a1_3x3_3"
  param { lr_mult: 1 decay_mult: 0 } param { lr_mult: 1 decay_mult: 0 }
  bn_param {frozen: false scale_filler { type: "constant" value: 1 } shift_filler { type: "constant" value: 0 } }
}

layer {
  name: "inception_a1_3x3_3_relu"
  type: "ReLU"
  bottom: "inception_a1_3x3_3"
  top: "inception_a1_3x3_3"
}
layer {
  name: "inception_a1_pool_ave"
  type: "Pooling"
  bottom: "inception_stem3"
  top: "inception_a1_pool_ave"
  pooling_param {
    pool: AVE
    kernel_size: 3
    stride: 1
    pad: 1
  }
}
layer {
  name: "inception_a1_1x1"
  type: "ConvolutionData"
  bottom: "inception_a1_pool_ave"
  top: "inception_a1_1x1"
  convolution_param {
    bias_term: false
    num_output: 96
    pad: 0
    kernel_size: 1
    stride: 1
  }
}
layer {
  name: "inception_a1_1x1_bn_dy"
  type: "BNData"
  bottom: "inception_a1_1x1"
  top: "inception_a1_1x1"
  param { lr_mult: 1 decay_mult: 0 } param { lr_mult: 1 decay_mult: 0 }
  bn_param {frozen: false scale_filler { type: "constant" value: 1 } shift_filler { type: "constant" value: 0 } }
}

layer {
  name: "inception_a1_1x1_relu"
  type: "ReLU"
  bottom: "inception_a1_1x1"
  top: "inception_a1_1x1"
}
layer {
  name: "inception_a1_concat"
  type: "Concat"
  bottom: "inception_a1_1x1_2"
  bottom: "inception_a1_3x3"
  bottom: "inception_a1_3x3_3"
  bottom: "inception_a1_1x1"
  top: "inception_a1_concat"
}
layer {
  name: "inception_a2_1x1_2"
  type: "ConvolutionData"
  bottom: "inception_a1_concat"
  top: "inception_a2_1x1_2"
  convolution_param {
    bias_term: false
    num_output: 96
    pad: 0
    kernel_size: 1
    stride: 1
  }
}
layer {
  name: "inception_a2_1x1_2_bn_dy"
  type: "BNData"
  bottom: "inception_a2_1x1_2"
  top: "inception_a2_1x1_2"
  param { lr_mult: 1 decay_mult: 0 } param { lr_mult: 1 decay_mult: 0 }
  bn_param {frozen: false scale_filler { type: "constant" value: 1 } shift_filler { type: "constant" value: 0 } }
}

layer {
  name: "inception_a2_1x1_2_relu"
  type: "ReLU"
  bottom: "inception_a2_1x1_2"
  top: "inception_a2_1x1_2"
}
layer {
  name: "inception_a2_3x3_reduce"
  type: "ConvolutionData"
  bottom: "inception_a1_concat"
  top: "inception_a2_3x3_reduce"
  convolution_param {
    bias_term: false
    num_output: 64
    pad: 0
    kernel_size: 1
    stride: 1
  }
}
layer {
  name: "inception_a2_3x3_reduce_bn_dy"
  type: "BNData"
  bottom: "inception_a2_3x3_reduce"
  top: "inception_a2_3x3_reduce"
  param { lr_mult: 1 decay_mult: 0 } param { lr_mult: 1 decay_mult: 0 }
  bn_param {frozen: false scale_filler { type: "constant" value: 1 } shift_filler { type: "constant" value: 0 } }
}

layer {
  name: "inception_a2_3x3_reduce_relu"
  type: "ReLU"
  bottom: "inception_a2_3x3_reduce"
  top: "inception_a2_3x3_reduce"
}
layer {
  name: "inception_a2_3x3"
  type: "ConvolutionData"
  bottom: "inception_a2_3x3_reduce"
  top: "inception_a2_3x3"
  convolution_param {
    bias_term: false
    num_output: 96
    pad: 1
    kernel_size: 3
    stride: 1
  }
}
layer {
  name: "inception_a2_3x3_bn_dy"
  type: "BNData"
  bottom: "inception_a2_3x3"
  top: "inception_a2_3x3"
  param { lr_mult: 1 decay_mult: 0 } param { lr_mult: 1 decay_mult: 0 }
  bn_param {frozen: false scale_filler { type: "constant" value: 1 } shift_filler { type: "constant" value: 0 } }
}

layer {
  name: "inception_a2_3x3_relu"
  type: "ReLU"
  bottom: "inception_a2_3x3"
  top: "inception_a2_3x3"
}
layer {
  name: "inception_a2_3x3_2_reduce"
  type: "ConvolutionData"
  bottom: "inception_a1_concat"
  top: "inception_a2_3x3_2_reduce"
  convolution_param {
    bias_term: false
    num_output: 64
    pad: 0
    kernel_size: 1
    stride: 1
  }
}
layer {
  name: "inception_a2_3x3_2_reduce_bn_dy"
  type: "BNData"
  bottom: "inception_a2_3x3_2_reduce"
  top: "inception_a2_3x3_2_reduce"
  param { lr_mult: 1 decay_mult: 0 } param { lr_mult: 1 decay_mult: 0 }
  bn_param {frozen: false scale_filler { type: "constant" value: 1 } shift_filler { type: "constant" value: 0 } }
}

layer {
  name: "inception_a2_3x3_2_reduce_relu"
  type: "ReLU"
  bottom: "inception_a2_3x3_2_reduce"
  top: "inception_a2_3x3_2_reduce"
}
layer {
  name: "inception_a2_3x3_2"
  type: "ConvolutionData"
  bottom: "inception_a2_3x3_2_reduce"
  top: "inception_a2_3x3_2"
  convolution_param {
    bias_term: false
    num_output: 96
    pad: 1
    kernel_size: 3
    stride: 1
  }
}
layer {
  name: "inception_a2_3x3_2_bn_dy"
  type: "BNData"
  bottom: "inception_a2_3x3_2"
  top: "inception_a2_3x3_2"
  param { lr_mult: 1 decay_mult: 0 } param { lr_mult: 1 decay_mult: 0 }
  bn_param {frozen: false scale_filler { type: "constant" value: 1 } shift_filler { type: "constant" value: 0 } }
}

layer {
  name: "inception_a2_3x3_2_relu"
  type: "ReLU"
  bottom: "inception_a2_3x3_2"
  top: "inception_a2_3x3_2"
}
layer {
  name: "inception_a2_3x3_3"
  type: "ConvolutionData"
  bottom: "inception_a2_3x3_2"
  top: "inception_a2_3x3_3"
  convolution_param {
    bias_term: false
    num_output: 96
    pad: 1
    kernel_size: 3
    stride: 1
  }
}
layer {
  name: "inception_a2_3x3_3_bn_dy"
  type: "BNData"
  bottom: "inception_a2_3x3_3"
  top: "inception_a2_3x3_3"
  param { lr_mult: 1 decay_mult: 0 } param { lr_mult: 1 decay_mult: 0 }
  bn_param {frozen: false scale_filler { type: "constant" value: 1 } shift_filler { type: "constant" value: 0 } }
}

layer {
  name: "inception_a2_3x3_3_relu"
  type: "ReLU"
  bottom: "inception_a2_3x3_3"
  top: "inception_a2_3x3_3"
}
layer {
  name: "inception_a2_pool_ave"
  type: "Pooling"
  bottom: "inception_a1_concat"
  top: "inception_a2_pool_ave"
  pooling_param {
    pool: AVE
    kernel_size: 3
    stride: 1
    pad: 1
  }
}
layer {
  name: "inception_a2_1x1"
  type: "ConvolutionData"
  bottom: "inception_a2_pool_ave"
  top: "inception_a2_1x1"
  convolution_param {
    bias_term: false
    num_output: 96
    pad: 0
    kernel_size: 1
    stride: 1
  }
}
layer {
  name: "inception_a2_1x1_bn_dy"
  type: "BNData"
  bottom: "inception_a2_1x1"
  top: "inception_a2_1x1"
  param { lr_mult: 1 decay_mult: 0 } param { lr_mult: 1 decay_mult: 0 }
  bn_param {frozen: false scale_filler { type: "constant" value: 1 } shift_filler { type: "constant" value: 0 } }
}

layer {
  name: "inception_a2_1x1_relu"
  type: "ReLU"
  bottom: "inception_a2_1x1"
  top: "inception_a2_1x1"
}
layer {
  name: "inception_a2_concat"
  type: "Concat"
  bottom: "inception_a2_1x1_2"
  bottom: "inception_a2_3x3"
  bottom: "inception_a2_3x3_3"
  bottom: "inception_a2_1x1"
  top: "inception_a2_concat"
}
layer {
  name: "inception_a3_1x1_2"
  type: "ConvolutionData"
  bottom: "inception_a2_concat"
  top: "inception_a3_1x1_2"
  convolution_param {
    bias_term: false
    num_output: 96
    pad: 0
    kernel_size: 1
    stride: 1
  }
}
layer {
  name: "inception_a3_1x1_2_bn_dy"
  type: "BNData"
  bottom: "inception_a3_1x1_2"
  top: "inception_a3_1x1_2"
  param { lr_mult: 1 decay_mult: 0 } param { lr_mult: 1 decay_mult: 0 }
  bn_param {frozen: false scale_filler { type: "constant" value: 1 } shift_filler { type: "constant" value: 0 } }
}

layer {
  name: "inception_a3_1x1_2_relu"
  type: "ReLU"
  bottom: "inception_a3_1x1_2"
  top: "inception_a3_1x1_2"
}
layer {
  name: "inception_a3_3x3_reduce"
  type: "ConvolutionData"
  bottom: "inception_a2_concat"
  top: "inception_a3_3x3_reduce"
  convolution_param {
    bias_term: false
    num_output: 64
    pad: 0
    kernel_size: 1
    stride: 1
  }
}
layer {
  name: "inception_a3_3x3_reduce_bn_dy"
  type: "BNData"
  bottom: "inception_a3_3x3_reduce"
  top: "inception_a3_3x3_reduce"
  param { lr_mult: 1 decay_mult: 0 } param { lr_mult: 1 decay_mult: 0 }
  bn_param {frozen: false scale_filler { type: "constant" value: 1 } shift_filler { type: "constant" value: 0 } }
}

layer {
  name: "inception_a3_3x3_reduce_relu"
  type: "ReLU"
  bottom: "inception_a3_3x3_reduce"
  top: "inception_a3_3x3_reduce"
}
layer {
  name: "inception_a3_3x3"
  type: "ConvolutionData"
  bottom: "inception_a3_3x3_reduce"
  top: "inception_a3_3x3"
  convolution_param {
    bias_term: false
    num_output: 96
    pad: 1
    kernel_size: 3
    stride: 1
  }
}
layer {
  name: "inception_a3_3x3_bn_dy"
  type: "BNData"
  bottom: "inception_a3_3x3"
  top: "inception_a3_3x3"
  param { lr_mult: 1 decay_mult: 0 } param { lr_mult: 1 decay_mult: 0 }
  bn_param {frozen: false scale_filler { type: "constant" value: 1 } shift_filler { type: "constant" value: 0 } }
}

layer {
  name: "inception_a3_3x3_relu"
  type: "ReLU"
  bottom: "inception_a3_3x3"
  top: "inception_a3_3x3"
}
layer {
  name: "inception_a3_3x3_2_reduce"
  type: "ConvolutionData"
  bottom: "inception_a2_concat"
  top: "inception_a3_3x3_2_reduce"
  convolution_param {
    bias_term: false
    num_output: 64
    pad: 0
    kernel_size: 1
    stride: 1
  }
}
layer {
  name: "inception_a3_3x3_2_reduce_bn_dy"
  type: "BNData"
  bottom: "inception_a3_3x3_2_reduce"
  top: "inception_a3_3x3_2_reduce"
  param { lr_mult: 1 decay_mult: 0 } param { lr_mult: 1 decay_mult: 0 }
  bn_param {frozen: false scale_filler { type: "constant" value: 1 } shift_filler { type: "constant" value: 0 } }
}

layer {
  name: "inception_a3_3x3_2_reduce_relu"
  type: "ReLU"
  bottom: "inception_a3_3x3_2_reduce"
  top: "inception_a3_3x3_2_reduce"
}
layer {
  name: "inception_a3_3x3_2"
  type: "ConvolutionData"
  bottom: "inception_a3_3x3_2_reduce"
  top: "inception_a3_3x3_2"
  convolution_param {
    bias_term: false
    num_output: 96
    pad: 1
    kernel_size: 3
    stride: 1
  }
}
layer {
  name: "inception_a3_3x3_2_bn_dy"
  type: "BNData"
  bottom: "inception_a3_3x3_2"
  top: "inception_a3_3x3_2"
  param { lr_mult: 1 decay_mult: 0 } param { lr_mult: 1 decay_mult: 0 }
  bn_param {frozen: false scale_filler { type: "constant" value: 1 } shift_filler { type: "constant" value: 0 } }
}

layer {
  name: "inception_a3_3x3_2_relu"
  type: "ReLU"
  bottom: "inception_a3_3x3_2"
  top: "inception_a3_3x3_2"
}
layer {
  name: "inception_a3_3x3_3"
  type: "ConvolutionData"
  bottom: "inception_a3_3x3_2"
  top: "inception_a3_3x3_3"
  convolution_param {
    bias_term: false
    num_output: 96
    pad: 1
    kernel_size: 3
    stride: 1
  }
}
layer {
  name: "inception_a3_3x3_3_bn_dy"
  type: "BNData"
  bottom: "inception_a3_3x3_3"
  top: "inception_a3_3x3_3"
  param { lr_mult: 1 decay_mult: 0 } param { lr_mult: 1 decay_mult: 0 }
  bn_param {frozen: false scale_filler { type: "constant" value: 1 } shift_filler { type: "constant" value: 0 } }
}

layer {
  name: "inception_a3_3x3_3_relu"
  type: "ReLU"
  bottom: "inception_a3_3x3_3"
  top: "inception_a3_3x3_3"
}
layer {
  name: "inception_a3_pool_ave"
  type: "Pooling"
  bottom: "inception_a2_concat"
  top: "inception_a3_pool_ave"
  pooling_param {
    pool: AVE
    kernel_size: 3
    stride: 1
    pad: 1
  }
}
layer {
  name: "inception_a3_1x1"
  type: "ConvolutionData"
  bottom: "inception_a3_pool_ave"
  top: "inception_a3_1x1"
  convolution_param {
    bias_term: false
    num_output: 96
    pad: 0
    kernel_size: 1
    stride: 1
  }
}
layer {
  name: "inception_a3_1x1_bn_dy"
  type: "BNData"
  bottom: "inception_a3_1x1"
  top: "inception_a3_1x1"
  param { lr_mult: 1 decay_mult: 0 } param { lr_mult: 1 decay_mult: 0 }
  bn_param {frozen: false scale_filler { type: "constant" value: 1 } shift_filler { type: "constant" value: 0 } }
}

layer {
  name: "inception_a3_1x1_relu"
  type: "ReLU"
  bottom: "inception_a3_1x1"
  top: "inception_a3_1x1"
}
layer {
  name: "inception_a3_concat"
  type: "Concat"
  bottom: "inception_a3_1x1_2"
  bottom: "inception_a3_3x3"
  bottom: "inception_a3_3x3_3"
  bottom: "inception_a3_1x1"
  top: "inception_a3_concat"
}
layer {
  name: "inception_a4_1x1_2"
  type: "ConvolutionData"
  bottom: "inception_a3_concat"
  top: "inception_a4_1x1_2"
  convolution_param {
    bias_term: false
    num_output: 96
    pad: 0
    kernel_size: 1
    stride: 1
  }
}
layer {
  name: "inception_a4_1x1_2_bn_dy"
  type: "BNData"
  bottom: "inception_a4_1x1_2"
  top: "inception_a4_1x1_2"
  param { lr_mult: 1 decay_mult: 0 } param { lr_mult: 1 decay_mult: 0 }
  bn_param {frozen: false scale_filler { type: "constant" value: 1 } shift_filler { type: "constant" value: 0 } }
}

layer {
  name: "inception_a4_1x1_2_relu"
  type: "ReLU"
  bottom: "inception_a4_1x1_2"
  top: "inception_a4_1x1_2"
}
layer {
  name: "inception_a4_3x3_reduce"
  type: "ConvolutionData"
  bottom: "inception_a3_concat"
  top: "inception_a4_3x3_reduce"
  convolution_param {
    bias_term: false
    num_output: 64
    pad: 0
    kernel_size: 1
    stride: 1
  }
}
layer {
  name: "inception_a4_3x3_reduce_bn_dy"
  type: "BNData"
  bottom: "inception_a4_3x3_reduce"
  top: "inception_a4_3x3_reduce"
  param { lr_mult: 1 decay_mult: 0 } param { lr_mult: 1 decay_mult: 0 }
  bn_param {frozen: false scale_filler { type: "constant" value: 1 } shift_filler { type: "constant" value: 0 } }
}

layer {
  name: "inception_a4_3x3_reduce_relu"
  type: "ReLU"
  bottom: "inception_a4_3x3_reduce"
  top: "inception_a4_3x3_reduce"
}
layer {
  name: "inception_a4_3x3"
  type: "ConvolutionData"
  bottom: "inception_a4_3x3_reduce"
  top: "inception_a4_3x3"
  convolution_param {
    bias_term: false
    num_output: 96
    pad: 1
    kernel_size: 3
    stride: 1
  }
}
layer {
  name: "inception_a4_3x3_bn_dy"
  type: "BNData"
  bottom: "inception_a4_3x3"
  top: "inception_a4_3x3"
  param { lr_mult: 1 decay_mult: 0 } param { lr_mult: 1 decay_mult: 0 }
  bn_param {frozen: false scale_filler { type: "constant" value: 1 } shift_filler { type: "constant" value: 0 } }
}

layer {
  name: "inception_a4_3x3_relu"
  type: "ReLU"
  bottom: "inception_a4_3x3"
  top: "inception_a4_3x3"
}
layer {
  name: "inception_a4_3x3_2_reduce"
  type: "ConvolutionData"
  bottom: "inception_a3_concat"
  top: "inception_a4_3x3_2_reduce"
  convolution_param {
    bias_term: false
    num_output: 64
    pad: 0
    kernel_size: 1
    stride: 1
  }
}
layer {
  name: "inception_a4_3x3_2_reduce_bn_dy"
  type: "BNData"
  bottom: "inception_a4_3x3_2_reduce"
  top: "inception_a4_3x3_2_reduce"
  param { lr_mult: 1 decay_mult: 0 } param { lr_mult: 1 decay_mult: 0 }
  bn_param {frozen: false scale_filler { type: "constant" value: 1 } shift_filler { type: "constant" value: 0 } }
}

layer {
  name: "inception_a4_3x3_2_reduce_relu"
  type: "ReLU"
  bottom: "inception_a4_3x3_2_reduce"
  top: "inception_a4_3x3_2_reduce"
}
layer {
  name: "inception_a4_3x3_2"
  type: "ConvolutionData"
  bottom: "inception_a4_3x3_2_reduce"
  top: "inception_a4_3x3_2"
  convolution_param {
    bias_term: false
    num_output: 96
    pad: 1
    kernel_size: 3
    stride: 1
  }
}
layer {
  name: "inception_a4_3x3_2_bn_dy"
  type: "BNData"
  bottom: "inception_a4_3x3_2"
  top: "inception_a4_3x3_2"
  param { lr_mult: 1 decay_mult: 0 } param { lr_mult: 1 decay_mult: 0 }
  bn_param {frozen: false scale_filler { type: "constant" value: 1 } shift_filler { type: "constant" value: 0 } }
}

layer {
  name: "inception_a4_3x3_2_relu"
  type: "ReLU"
  bottom: "inception_a4_3x3_2"
  top: "inception_a4_3x3_2"
}
layer {
  name: "inception_a4_3x3_3"
  type: "ConvolutionData"
  bottom: "inception_a4_3x3_2"
  top: "inception_a4_3x3_3"
  convolution_param {
    bias_term: false
    num_output: 96
    pad: 1
    kernel_size: 3
    stride: 1
  }
}
layer {
  name: "inception_a4_3x3_3_bn_dy"
  type: "BNData"
  bottom: "inception_a4_3x3_3"
  top: "inception_a4_3x3_3"
  param { lr_mult: 1 decay_mult: 0 } param { lr_mult: 1 decay_mult: 0 }
  bn_param {frozen: false scale_filler { type: "constant" value: 1 } shift_filler { type: "constant" value: 0 } }
}

layer {
  name: "inception_a4_3x3_3_relu"
  type: "ReLU"
  bottom: "inception_a4_3x3_3"
  top: "inception_a4_3x3_3"
}
layer {
  name: "inception_a4_pool_ave"
  type: "Pooling"
  bottom: "inception_a3_concat"
  top: "inception_a4_pool_ave"
  pooling_param {
    pool: AVE
    kernel_size: 3
    stride: 1
    pad: 1
  }
}
layer {
  name: "inception_a4_1x1"
  type: "ConvolutionData"
  bottom: "inception_a4_pool_ave"
  top: "inception_a4_1x1"
  convolution_param {
    bias_term: false
    num_output: 96
    pad: 0
    kernel_size: 1
    stride: 1
  }
}
layer {
  name: "inception_a4_1x1_bn_dy"
  type: "BNData"
  bottom: "inception_a4_1x1"
  top: "inception_a4_1x1"
  param { lr_mult: 1 decay_mult: 0 } param { lr_mult: 1 decay_mult: 0 }
  bn_param {frozen: false scale_filler { type: "constant" value: 1 } shift_filler { type: "constant" value: 0 } }
}

layer {
  name: "inception_a4_1x1_relu"
  type: "ReLU"
  bottom: "inception_a4_1x1"
  top: "inception_a4_1x1"
}
layer {
  name: "inception_a4_concat"
  type: "Concat"
  bottom: "inception_a4_1x1_2"
  bottom: "inception_a4_3x3"
  bottom: "inception_a4_3x3_3"
  bottom: "inception_a4_1x1"
  top: "inception_a4_concat"
}
layer {
  name: "reduction_a_3x3"
  type: "ConvolutionData"
  bottom: "inception_a4_concat"
  top: "reduction_a_3x3"
  convolution_param {
    bias_term: false
    num_output: 384
    pad: 0
    kernel_size: 3
    stride: 2
  }
}
layer {
  name: "reduction_a_3x3_bn_dy"
  type: "BNData"
  bottom: "reduction_a_3x3"
  top: "reduction_a_3x3"
  param { lr_mult: 1 decay_mult: 0 } param { lr_mult: 1 decay_mult: 0 }
  bn_param {frozen: false scale_filler { type: "constant" value: 1 } shift_filler { type: "constant" value: 0 } }
}

layer {
  name: "reduction_a_3x3_relu"
  type: "ReLU"
  bottom: "reduction_a_3x3"
  top: "reduction_a_3x3"
}
layer {
  name: "reduction_a_3x3_2_reduce"
  type: "ConvolutionData"
  bottom: "inception_a4_concat"
  top: "reduction_a_3x3_2_reduce"
  convolution_param {
    bias_term: false
    num_output: 192
    pad: 0
    kernel_size: 1
    stride: 1
  }
}
layer {
  name: "reduction_a_3x3_2_reduce_bn_dy"
  type: "BNData"
  bottom: "reduction_a_3x3_2_reduce"
  top: "reduction_a_3x3_2_reduce"
  param { lr_mult: 1 decay_mult: 0 } param { lr_mult: 1 decay_mult: 0 }
  bn_param {frozen: false scale_filler { type: "constant" value: 1 } shift_filler { type: "constant" value: 0 } }
}

layer {
  name: "reduction_a_3x3_2_reduce_relu"
  type: "ReLU"
  bottom: "reduction_a_3x3_2_reduce"
  top: "reduction_a_3x3_2_reduce"
}
layer {
  name: "reduction_a_3x3_2"
  type: "ConvolutionData"
  bottom: "reduction_a_3x3_2_reduce"
  top: "reduction_a_3x3_2"
  convolution_param {
    bias_term: false
    num_output: 224
    pad: 1
    kernel_size: 3
    stride: 1
  }
}
layer {
  name: "reduction_a_3x3_2_bn_dy"
  type: "BNData"
  bottom: "reduction_a_3x3_2"
  top: "reduction_a_3x3_2"
  param { lr_mult: 1 decay_mult: 0 } param { lr_mult: 1 decay_mult: 0 }
  bn_param {frozen: false scale_filler { type: "constant" value: 1 } shift_filler { type: "constant" value: 0 } }
}

layer {
  name: "reduction_a_3x3_2_relu"
  type: "ReLU"
  bottom: "reduction_a_3x3_2"
  top: "reduction_a_3x3_2"
}
layer {
  name: "reduction_a_3x3_3"
  type: "ConvolutionData"
  bottom: "reduction_a_3x3_2"
  top: "reduction_a_3x3_3"
  convolution_param {
    bias_term: false
    num_output: 256
    pad: 0
    kernel_size: 3
    stride: 2
  }
}
layer {
  name: "reduction_a_3x3_3_bn_dy"
  type: "BNData"
  bottom: "reduction_a_3x3_3"
  top: "reduction_a_3x3_3"
  param { lr_mult: 1 decay_mult: 0 } param { lr_mult: 1 decay_mult: 0 }
  bn_param {frozen: false scale_filler { type: "constant" value: 1 } shift_filler { type: "constant" value: 0 } }
}

layer {
  name: "reduction_a_3x3_3_relu"
  type: "ReLU"
  bottom: "reduction_a_3x3_3"
  top: "reduction_a_3x3_3"
}
layer {
  name: "reduction_a_pool"
  type: "Pooling"
  bottom: "inception_a4_concat"
  top: "reduction_a_pool"
  pooling_param {
    pool: MAX
    kernel_size: 3
    stride: 2
  }
}
layer {
  name: "reduction_a_concat"
  type: "Concat"
  bottom: "reduction_a_3x3"
  bottom: "reduction_a_3x3_3"
  bottom: "reduction_a_pool"
  top: "reduction_a_concat"
}
layer {
  name: "inception_b1_1x1_2"
  type: "ConvolutionData"
  bottom: "reduction_a_concat"
  top: "inception_b1_1x1_2"
  convolution_param {
    bias_term: false
    num_output: 384
    pad: 0
    kernel_size: 1
    stride: 1
  }
}
layer {
  name: "inception_b1_1x1_2_bn_dy"
  type: "BNData"
  bottom: "inception_b1_1x1_2"
  top: "inception_b1_1x1_2"
  param { lr_mult: 1 decay_mult: 0 } param { lr_mult: 1 decay_mult: 0 }
  bn_param {frozen: false scale_filler { type: "constant" value: 1 } shift_filler { type: "constant" value: 0 } }
}

layer {
  name: "inception_b1_1x1_2_relu"
  type: "ReLU"
  bottom: "inception_b1_1x1_2"
  top: "inception_b1_1x1_2"
}
layer {
  name: "inception_b1_1x7_reduce"
  type: "ConvolutionData"
  bottom: "reduction_a_concat"
  top: "inception_b1_1x7_reduce"
  convolution_param {
    bias_term: false
    num_output: 192
    pad: 0
    kernel_size: 1
    stride: 1
  }
}
layer {
  name: "inception_b1_1x7_reduce_bn_dy"
  type: "BNData"
  bottom: "inception_b1_1x7_reduce"
  top: "inception_b1_1x7_reduce"
  param { lr_mult: 1 decay_mult: 0 } param { lr_mult: 1 decay_mult: 0 }
  bn_param {frozen: false scale_filler { type: "constant" value: 1 } shift_filler { type: "constant" value: 0 } }
}

layer {
  name: "inception_b1_1x7_reduce_relu"
  type: "ReLU"
  bottom: "inception_b1_1x7_reduce"
  top: "inception_b1_1x7_reduce"
}
layer {
  name: "inception_b1_1x7"
  type: "ConvolutionData"
  bottom: "inception_b1_1x7_reduce"
  top: "inception_b1_1x7"
  convolution_param {
    bias_term: false
    num_output: 224
    stride: 1
    pad_h: 0
    pad_w: 3
    kernel_h: 1
    kernel_w: 7
  }
}
layer {
  name: "inception_b1_1x7_bn_dy"
  type: "BNData"
  bottom: "inception_b1_1x7"
  top: "inception_b1_1x7"
  param { lr_mult: 1 decay_mult: 0 } param { lr_mult: 1 decay_mult: 0 }
  bn_param {frozen: false scale_filler { type: "constant" value: 1 } shift_filler { type: "constant" value: 0 } }
}

layer {
  name: "inception_b1_1x7_relu"
  type: "ReLU"
  bottom: "inception_b1_1x7"
  top: "inception_b1_1x7"
}
layer {
  name: "inception_b1_7x1"
  type: "ConvolutionData"
  bottom: "inception_b1_1x7"
  top: "inception_b1_7x1"
  convolution_param {
    bias_term: false
    num_output: 256
    stride: 1
    pad_h: 3
    pad_w: 0
    kernel_h: 7
    kernel_w: 1
  }
}
layer {
  name: "inception_b1_7x1_bn_dy"
  type: "BNData"
  bottom: "inception_b1_7x1"
  top: "inception_b1_7x1"
  param { lr_mult: 1 decay_mult: 0 } param { lr_mult: 1 decay_mult: 0 }
  bn_param {frozen: false scale_filler { type: "constant" value: 1 } shift_filler { type: "constant" value: 0 } }
}

layer {
  name: "inception_b1_7x1_relu"
  type: "ReLU"
  bottom: "inception_b1_7x1"
  top: "inception_b1_7x1"
}
layer {
  name: "inception_b1_7x1_2_reduce"
  type: "ConvolutionData"
  bottom: "reduction_a_concat"
  top: "inception_b1_7x1_2_reduce"
  convolution_param {
    bias_term: false
    num_output: 192
    pad: 0
    kernel_size: 1
    stride: 1
  }
}
layer {
  name: "inception_b1_7x1_2_reduce_bn_dy"
  type: "BNData"
  bottom: "inception_b1_7x1_2_reduce"
  top: "inception_b1_7x1_2_reduce"
  param { lr_mult: 1 decay_mult: 0 } param { lr_mult: 1 decay_mult: 0 }
  bn_param {frozen: false scale_filler { type: "constant" value: 1 } shift_filler { type: "constant" value: 0 } }
}

layer {
  name: "inception_b1_7x1_2_reduce_relu"
  type: "ReLU"
  bottom: "inception_b1_7x1_2_reduce"
  top: "inception_b1_7x1_2_reduce"
}
layer {
  name: "inception_b1_7x1_2"
  type: "ConvolutionData"
  bottom: "inception_b1_7x1_2_reduce"
  top: "inception_b1_7x1_2"
  convolution_param {
    bias_term: false
    num_output: 192
    stride: 1
    pad_h: 3
    pad_w: 0
    kernel_h: 7
    kernel_w: 1
  }
}
layer {
  name: "inception_b1_7x1_2_bn_dy"
  type: "BNData"
  bottom: "inception_b1_7x1_2"
  top: "inception_b1_7x1_2"
  param { lr_mult: 1 decay_mult: 0 } param { lr_mult: 1 decay_mult: 0 }
  bn_param {frozen: false scale_filler { type: "constant" value: 1 } shift_filler { type: "constant" value: 0 } }
}

layer {
  name: "inception_b1_7x1_2_relu"
  type: "ReLU"
  bottom: "inception_b1_7x1_2"
  top: "inception_b1_7x1_2"
}
layer {
  name: "inception_b1_1x7_2"
  type: "ConvolutionData"
  bottom: "inception_b1_7x1_2"
  top: "inception_b1_1x7_2"
  convolution_param {
    bias_term: false
    num_output: 224
    stride: 1
    pad_h: 0
    pad_w: 3
    kernel_h: 1
    kernel_w: 7
  }
}
layer {
  name: "inception_b1_1x7_2_bn_dy"
  type: "BNData"
  bottom: "inception_b1_1x7_2"
  top: "inception_b1_1x7_2"
  param { lr_mult: 1 decay_mult: 0 } param { lr_mult: 1 decay_mult: 0 }
  bn_param {frozen: false scale_filler { type: "constant" value: 1 } shift_filler { type: "constant" value: 0 } }
}

layer {
  name: "inception_b1_1x7_2_relu"
  type: "ReLU"
  bottom: "inception_b1_1x7_2"
  top: "inception_b1_1x7_2"
}
layer {
  name: "inception_b1_7x1_3"
  type: "ConvolutionData"
  bottom: "inception_b1_1x7_2"
  top: "inception_b1_7x1_3"
  convolution_param {
    bias_term: false
    num_output: 224
    stride: 1
    pad_h: 3
    pad_w: 0
    kernel_h: 7
    kernel_w: 1
  }
}
layer {
  name: "inception_b1_7x1_3_bn_dy"
  type: "BNData"
  bottom: "inception_b1_7x1_3"
  top: "inception_b1_7x1_3"
  param { lr_mult: 1 decay_mult: 0 } param { lr_mult: 1 decay_mult: 0 }
  bn_param {frozen: false scale_filler { type: "constant" value: 1 } shift_filler { type: "constant" value: 0 } }
}

layer {
  name: "inception_b1_7x1_3_relu"
  type: "ReLU"
  bottom: "inception_b1_7x1_3"
  top: "inception_b1_7x1_3"
}
layer {
  name: "inception_b1_1x7_3"
  type: "ConvolutionData"
  bottom: "inception_b1_7x1_3"
  top: "inception_b1_1x7_3"
  convolution_param {
    bias_term: false
    num_output: 256
    stride: 1
    pad_h: 0
    pad_w: 3
    kernel_h: 1
    kernel_w: 7
  }
}
layer {
  name: "inception_b1_1x7_3_bn_dy"
  type: "BNData"
  bottom: "inception_b1_1x7_3"
  top: "inception_b1_1x7_3"
  param { lr_mult: 1 decay_mult: 0 } param { lr_mult: 1 decay_mult: 0 }
  bn_param {frozen: false scale_filler { type: "constant" value: 1 } shift_filler { type: "constant" value: 0 } }
}

layer {
  name: "inception_b1_1x7_3_relu"
  type: "ReLU"
  bottom: "inception_b1_1x7_3"
  top: "inception_b1_1x7_3"
}
layer {
  name: "inception_b1_pool_ave"
  type: "Pooling"
  bottom: "reduction_a_concat"
  top: "inception_b1_pool_ave"
  pooling_param {
    pool: AVE
    kernel_size: 3
    stride: 1
    pad: 1
  }
}
layer {
  name: "inception_b1_1x1"
  type: "ConvolutionData"
  bottom: "inception_b1_pool_ave"
  top: "inception_b1_1x1"
  convolution_param {
    bias_term: false
    num_output: 128
    pad: 0
    kernel_size: 1
    stride: 1
  }
}
layer {
  name: "inception_b1_1x1_bn_dy"
  type: "BNData"
  bottom: "inception_b1_1x1"
  top: "inception_b1_1x1"
  param { lr_mult: 1 decay_mult: 0 } param { lr_mult: 1 decay_mult: 0 }
  bn_param {frozen: false scale_filler { type: "constant" value: 1 } shift_filler { type: "constant" value: 0 } }
}

layer {
  name: "inception_b1_1x1_relu"
  type: "ReLU"
  bottom: "inception_b1_1x1"
  top: "inception_b1_1x1"
}
layer {
  name: "inception_b1_concat"
  type: "Concat"
  bottom: "inception_b1_1x1_2"
  bottom: "inception_b1_7x1"
  bottom: "inception_b1_1x7_3"
  bottom: "inception_b1_1x1"
  top: "inception_b1_concat"
}
layer {
  name: "inception_b2_1x1_2"
  type: "ConvolutionData"
  bottom: "inception_b1_concat"
  top: "inception_b2_1x1_2"
  convolution_param {
    bias_term: false
    num_output: 384
    pad: 0
    kernel_size: 1
    stride: 1
  }
}
layer {
  name: "inception_b2_1x1_2_bn_dy"
  type: "BNData"
  bottom: "inception_b2_1x1_2"
  top: "inception_b2_1x1_2"
  param { lr_mult: 1 decay_mult: 0 } param { lr_mult: 1 decay_mult: 0 }
  bn_param {frozen: false scale_filler { type: "constant" value: 1 } shift_filler { type: "constant" value: 0 } }
}

layer {
  name: "inception_b2_1x1_2_relu"
  type: "ReLU"
  bottom: "inception_b2_1x1_2"
  top: "inception_b2_1x1_2"
}
layer {
  name: "inception_b2_1x7_reduce"
  type: "ConvolutionData"
  bottom: "inception_b1_concat"
  top: "inception_b2_1x7_reduce"
  convolution_param {
    bias_term: false
    num_output: 192
    pad: 0
    kernel_size: 1
    stride: 1
  }
}
layer {
  name: "inception_b2_1x7_reduce_bn_dy"
  type: "BNData"
  bottom: "inception_b2_1x7_reduce"
  top: "inception_b2_1x7_reduce"
  param { lr_mult: 1 decay_mult: 0 } param { lr_mult: 1 decay_mult: 0 }
  bn_param {frozen: false scale_filler { type: "constant" value: 1 } shift_filler { type: "constant" value: 0 } }
}

layer {
  name: "inception_b2_1x7_reduce_relu"
  type: "ReLU"
  bottom: "inception_b2_1x7_reduce"
  top: "inception_b2_1x7_reduce"
}
layer {
  name: "inception_b2_1x7"
  type: "ConvolutionData"
  bottom: "inception_b2_1x7_reduce"
  top: "inception_b2_1x7"
  convolution_param {
    bias_term: false
    num_output: 224
    stride: 1
    pad_h: 0
    pad_w: 3
    kernel_h: 1
    kernel_w: 7
  }
}
layer {
  name: "inception_b2_1x7_bn_dy"
  type: "BNData"
  bottom: "inception_b2_1x7"
  top: "inception_b2_1x7"
  param { lr_mult: 1 decay_mult: 0 } param { lr_mult: 1 decay_mult: 0 }
  bn_param {frozen: false scale_filler { type: "constant" value: 1 } shift_filler { type: "constant" value: 0 } }
}

layer {
  name: "inception_b2_1x7_relu"
  type: "ReLU"
  bottom: "inception_b2_1x7"
  top: "inception_b2_1x7"
}
layer {
  name: "inception_b2_7x1"
  type: "ConvolutionData"
  bottom: "inception_b2_1x7"
  top: "inception_b2_7x1"
  convolution_param {
    bias_term: false
    num_output: 256
    stride: 1
    pad_h: 3
    pad_w: 0
    kernel_h: 7
    kernel_w: 1
  }
}
layer {
  name: "inception_b2_7x1_bn_dy"
  type: "BNData"
  bottom: "inception_b2_7x1"
  top: "inception_b2_7x1"
  param { lr_mult: 1 decay_mult: 0 } param { lr_mult: 1 decay_mult: 0 }
  bn_param {frozen: false scale_filler { type: "constant" value: 1 } shift_filler { type: "constant" value: 0 } }
}

layer {
  name: "inception_b2_7x1_relu"
  type: "ReLU"
  bottom: "inception_b2_7x1"
  top: "inception_b2_7x1"
}
layer {
  name: "inception_b2_7x1_2_reduce"
  type: "ConvolutionData"
  bottom: "inception_b1_concat"
  top: "inception_b2_7x1_2_reduce"
  convolution_param {
    bias_term: false
    num_output: 192
    pad: 0
    kernel_size: 1
    stride: 1
  }
}
layer {
  name: "inception_b2_7x1_2_reduce_bn_dy"
  type: "BNData"
  bottom: "inception_b2_7x1_2_reduce"
  top: "inception_b2_7x1_2_reduce"
  param { lr_mult: 1 decay_mult: 0 } param { lr_mult: 1 decay_mult: 0 }
  bn_param {frozen: false scale_filler { type: "constant" value: 1 } shift_filler { type: "constant" value: 0 } }
}

layer {
  name: "inception_b2_7x1_2_reduce_relu"
  type: "ReLU"
  bottom: "inception_b2_7x1_2_reduce"
  top: "inception_b2_7x1_2_reduce"
}
layer {
  name: "inception_b2_7x1_2"
  type: "ConvolutionData"
  bottom: "inception_b2_7x1_2_reduce"
  top: "inception_b2_7x1_2"
  convolution_param {
    bias_term: false
    num_output: 192
    stride: 1
    pad_h: 3
    pad_w: 0
    kernel_h: 7
    kernel_w: 1
  }
}
layer {
  name: "inception_b2_7x1_2_bn_dy"
  type: "BNData"
  bottom: "inception_b2_7x1_2"
  top: "inception_b2_7x1_2"
  param { lr_mult: 1 decay_mult: 0 } param { lr_mult: 1 decay_mult: 0 }
  bn_param {frozen: false scale_filler { type: "constant" value: 1 } shift_filler { type: "constant" value: 0 } }
}

layer {
  name: "inception_b2_7x1_2_relu"
  type: "ReLU"
  bottom: "inception_b2_7x1_2"
  top: "inception_b2_7x1_2"
}
layer {
  name: "inception_b2_1x7_2"
  type: "ConvolutionData"
  bottom: "inception_b2_7x1_2"
  top: "inception_b2_1x7_2"
  convolution_param {
    bias_term: false
    num_output: 224
    stride: 1
    pad_h: 0
    pad_w: 3
    kernel_h: 1
    kernel_w: 7
  }
}
layer {
  name: "inception_b2_1x7_2_bn_dy"
  type: "BNData"
  bottom: "inception_b2_1x7_2"
  top: "inception_b2_1x7_2"
  param { lr_mult: 1 decay_mult: 0 } param { lr_mult: 1 decay_mult: 0 }
  bn_param {frozen: false scale_filler { type: "constant" value: 1 } shift_filler { type: "constant" value: 0 } }
}

layer {
  name: "inception_b2_1x7_2_relu"
  type: "ReLU"
  bottom: "inception_b2_1x7_2"
  top: "inception_b2_1x7_2"
}
layer {
  name: "inception_b2_7x1_3"
  type: "ConvolutionData"
  bottom: "inception_b2_1x7_2"
  top: "inception_b2_7x1_3"
  convolution_param {
    bias_term: false
    num_output: 224
    stride: 1
    pad_h: 3
    pad_w: 0
    kernel_h: 7
    kernel_w: 1
  }
}
layer {
  name: "inception_b2_7x1_3_bn_dy"
  type: "BNData"
  bottom: "inception_b2_7x1_3"
  top: "inception_b2_7x1_3"
  param { lr_mult: 1 decay_mult: 0 } param { lr_mult: 1 decay_mult: 0 }
  bn_param {frozen: false scale_filler { type: "constant" value: 1 } shift_filler { type: "constant" value: 0 } }
}

layer {
  name: "inception_b2_7x1_3_relu"
  type: "ReLU"
  bottom: "inception_b2_7x1_3"
  top: "inception_b2_7x1_3"
}
layer {
  name: "inception_b2_1x7_3"
  type: "ConvolutionData"
  bottom: "inception_b2_7x1_3"
  top: "inception_b2_1x7_3"
  convolution_param {
    bias_term: false
    num_output: 256
    stride: 1
    pad_h: 0
    pad_w: 3
    kernel_h: 1
    kernel_w: 7
  }
}
layer {
  name: "inception_b2_1x7_3_bn_dy"
  type: "BNData"
  bottom: "inception_b2_1x7_3"
  top: "inception_b2_1x7_3"
  param { lr_mult: 1 decay_mult: 0 } param { lr_mult: 1 decay_mult: 0 }
  bn_param {frozen: false scale_filler { type: "constant" value: 1 } shift_filler { type: "constant" value: 0 } }
}

layer {
  name: "inception_b2_1x7_3_relu"
  type: "ReLU"
  bottom: "inception_b2_1x7_3"
  top: "inception_b2_1x7_3"
}
layer {
  name: "inception_b2_pool_ave"
  type: "Pooling"
  bottom: "inception_b1_concat"
  top: "inception_b2_pool_ave"
  pooling_param {
    pool: AVE
    kernel_size: 3
    stride: 1
    pad: 1
  }
}
layer {
  name: "inception_b2_1x1"
  type: "ConvolutionData"
  bottom: "inception_b2_pool_ave"
  top: "inception_b2_1x1"
  convolution_param {
    bias_term: false
    num_output: 128
    pad: 0
    kernel_size: 1
    stride: 1
  }
}
layer {
  name: "inception_b2_1x1_bn_dy"
  type: "BNData"
  bottom: "inception_b2_1x1"
  top: "inception_b2_1x1"
  param { lr_mult: 1 decay_mult: 0 } param { lr_mult: 1 decay_mult: 0 }
  bn_param {frozen: false scale_filler { type: "constant" value: 1 } shift_filler { type: "constant" value: 0 } }
}

layer {
  name: "inception_b2_1x1_relu"
  type: "ReLU"
  bottom: "inception_b2_1x1"
  top: "inception_b2_1x1"
}
layer {
  name: "inception_b2_concat"
  type: "Concat"
  bottom: "inception_b2_1x1_2"
  bottom: "inception_b2_7x1"
  bottom: "inception_b2_1x7_3"
  bottom: "inception_b2_1x1"
  top: "inception_b2_concat"
}
layer {
  name: "inception_b3_1x1_2"
  type: "ConvolutionData"
  bottom: "inception_b2_concat"
  top: "inception_b3_1x1_2"
  convolution_param {
    bias_term: false
    num_output: 384
    pad: 0
    kernel_size: 1
    stride: 1
  }
}
layer {
  name: "inception_b3_1x1_2_bn_dy"
  type: "BNData"
  bottom: "inception_b3_1x1_2"
  top: "inception_b3_1x1_2"
  param { lr_mult: 1 decay_mult: 0 } param { lr_mult: 1 decay_mult: 0 }
  bn_param {frozen: false scale_filler { type: "constant" value: 1 } shift_filler { type: "constant" value: 0 } }
}

layer {
  name: "inception_b3_1x1_2_relu"
  type: "ReLU"
  bottom: "inception_b3_1x1_2"
  top: "inception_b3_1x1_2"
}
layer {
  name: "inception_b3_1x7_reduce"
  type: "ConvolutionData"
  bottom: "inception_b2_concat"
  top: "inception_b3_1x7_reduce"
  convolution_param {
    bias_term: false
    num_output: 192
    pad: 0
    kernel_size: 1
    stride: 1
  }
}
layer {
  name: "inception_b3_1x7_reduce_bn_dy"
  type: "BNData"
  bottom: "inception_b3_1x7_reduce"
  top: "inception_b3_1x7_reduce"
  param { lr_mult: 1 decay_mult: 0 } param { lr_mult: 1 decay_mult: 0 }
  bn_param {frozen: false scale_filler { type: "constant" value: 1 } shift_filler { type: "constant" value: 0 } }
}

layer {
  name: "inception_b3_1x7_reduce_relu"
  type: "ReLU"
  bottom: "inception_b3_1x7_reduce"
  top: "inception_b3_1x7_reduce"
}
layer {
  name: "inception_b3_1x7"
  type: "ConvolutionData"
  bottom: "inception_b3_1x7_reduce"
  top: "inception_b3_1x7"
  convolution_param {
    bias_term: false
    num_output: 224
    stride: 1
    pad_h: 0
    pad_w: 3
    kernel_h: 1
    kernel_w: 7
  }
}
layer {
  name: "inception_b3_1x7_bn_dy"
  type: "BNData"
  bottom: "inception_b3_1x7"
  top: "inception_b3_1x7"
  param { lr_mult: 1 decay_mult: 0 } param { lr_mult: 1 decay_mult: 0 }
  bn_param {frozen: false scale_filler { type: "constant" value: 1 } shift_filler { type: "constant" value: 0 } }
}

layer {
  name: "inception_b3_1x7_relu"
  type: "ReLU"
  bottom: "inception_b3_1x7"
  top: "inception_b3_1x7"
}
layer {
  name: "inception_b3_7x1"
  type: "ConvolutionData"
  bottom: "inception_b3_1x7"
  top: "inception_b3_7x1"
  convolution_param {
    bias_term: false
    num_output: 256
    stride: 1
    pad_h: 3
    pad_w: 0
    kernel_h: 7
    kernel_w: 1
  }
}
layer {
  name: "inception_b3_7x1_bn_dy"
  type: "BNData"
  bottom: "inception_b3_7x1"
  top: "inception_b3_7x1"
  param { lr_mult: 1 decay_mult: 0 } param { lr_mult: 1 decay_mult: 0 }
  bn_param {frozen: false scale_filler { type: "constant" value: 1 } shift_filler { type: "constant" value: 0 } }
}

layer {
  name: "inception_b3_7x1_relu"
  type: "ReLU"
  bottom: "inception_b3_7x1"
  top: "inception_b3_7x1"
}
layer {
  name: "inception_b3_7x1_2_reduce"
  type: "ConvolutionData"
  bottom: "inception_b2_concat"
  top: "inception_b3_7x1_2_reduce"
  convolution_param {
    bias_term: false
    num_output: 192
    pad: 0
    kernel_size: 1
    stride: 1
  }
}
layer {
  name: "inception_b3_7x1_2_reduce_bn_dy"
  type: "BNData"
  bottom: "inception_b3_7x1_2_reduce"
  top: "inception_b3_7x1_2_reduce"
  param { lr_mult: 1 decay_mult: 0 } param { lr_mult: 1 decay_mult: 0 }
  bn_param {frozen: false scale_filler { type: "constant" value: 1 } shift_filler { type: "constant" value: 0 } }
}


layer {
  name: "inception_b3_7x1_2_reduce_relu"
  type: "ReLU"
  bottom: "inception_b3_7x1_2_reduce"
  top: "inception_b3_7x1_2_reduce"
}
layer {
  name: "inception_b3_7x1_2"
  type: "ConvolutionData"
  bottom: "inception_b3_7x1_2_reduce"
  top: "inception_b3_7x1_2"
  convolution_param {
    bias_term: false
    num_output: 192
    stride: 1
    pad_h: 3
    pad_w: 0
    kernel_h: 7
    kernel_w: 1
  }
}
layer {
  name: "inception_b3_7x1_2_bn_dy"
  type: "BNData"
  bottom: "inception_b3_7x1_2"
  top: "inception_b3_7x1_2"
  param { lr_mult: 1 decay_mult: 0 } param { lr_mult: 1 decay_mult: 0 }
  bn_param {frozen: false scale_filler { type: "constant" value: 1 } shift_filler { type: "constant" value: 0 } }
}

layer {
  name: "inception_b3_7x1_2_relu"
  type: "ReLU"
  bottom: "inception_b3_7x1_2"
  top: "inception_b3_7x1_2"
}
layer {
  name: "inception_b3_1x7_2"
  type: "ConvolutionData"
  bottom: "inception_b3_7x1_2"
  top: "inception_b3_1x7_2"
  convolution_param {
    bias_term: false
    num_output: 224
    stride: 1
    pad_h: 0
    pad_w: 3
    kernel_h: 1
    kernel_w: 7
  }
}
layer {
  name: "inception_b3_1x7_2_bn_dy"
  type: "BNData"
  bottom: "inception_b3_1x7_2"
  top: "inception_b3_1x7_2"
  param { lr_mult: 1 decay_mult: 0 } param { lr_mult: 1 decay_mult: 0 }
  bn_param {frozen: false scale_filler { type: "constant" value: 1 } shift_filler { type: "constant" value: 0 } }
}

layer {
  name: "inception_b3_1x7_2_relu"
  type: "ReLU"
  bottom: "inception_b3_1x7_2"
  top: "inception_b3_1x7_2"
}
layer {
  name: "inception_b3_7x1_3"
  type: "ConvolutionData"
  bottom: "inception_b3_1x7_2"
  top: "inception_b3_7x1_3"
  convolution_param {
    bias_term: false
    num_output: 224
    stride: 1
    pad_h: 3
    pad_w: 0
    kernel_h: 7
    kernel_w: 1
  }
}
layer {
  name: "inception_b3_7x1_3_bn_dy"
  type: "BNData"
  bottom: "inception_b3_7x1_3"
  top: "inception_b3_7x1_3"
  param { lr_mult: 1 decay_mult: 0 } param { lr_mult: 1 decay_mult: 0 }
  bn_param {frozen: false scale_filler { type: "constant" value: 1 } shift_filler { type: "constant" value: 0 } }
}

layer {
  name: "inception_b3_7x1_3_relu"
  type: "ReLU"
  bottom: "inception_b3_7x1_3"
  top: "inception_b3_7x1_3"
}
layer {
  name: "inception_b3_1x7_3"
  type: "ConvolutionData"
  bottom: "inception_b3_7x1_3"
  top: "inception_b3_1x7_3"
  convolution_param {
    bias_term: false
    num_output: 256
    stride: 1
    pad_h: 0
    pad_w: 3
    kernel_h: 1
    kernel_w: 7
  }
}
layer {
  name: "inception_b3_1x7_3_bn_dy"
  type: "BNData"
  bottom: "inception_b3_1x7_3"
  top: "inception_b3_1x7_3"
  param { lr_mult: 1 decay_mult: 0 } param { lr_mult: 1 decay_mult: 0 }
  bn_param {frozen: false scale_filler { type: "constant" value: 1 } shift_filler { type: "constant" value: 0 } }
}

layer {
  name: "inception_b3_1x7_3_relu"
  type: "ReLU"
  bottom: "inception_b3_1x7_3"
  top: "inception_b3_1x7_3"
}
layer {
  name: "inception_b3_pool_ave"
  type: "Pooling"
  bottom: "inception_b2_concat"
  top: "inception_b3_pool_ave"
  pooling_param {
    pool: AVE
    kernel_size: 3
    stride: 1
    pad: 1
  }
}
layer {
  name: "inception_b3_1x1"
  type: "ConvolutionData"
  bottom: "inception_b3_pool_ave"
  top: "inception_b3_1x1"
  convolution_param {
    bias_term: false
    num_output: 128
    pad: 0
    kernel_size: 1
    stride: 1
  }
}
layer {
  name: "inception_b3_1x1_bn_dy"
  type: "BNData"
  bottom: "inception_b3_1x1"
  top: "inception_b3_1x1"
  param { lr_mult: 1 decay_mult: 0 } param { lr_mult: 1 decay_mult: 0 }
  bn_param {frozen: false scale_filler { type: "constant" value: 1 } shift_filler { type: "constant" value: 0 } }
}

layer {
  name: "inception_b3_1x1_relu"
  type: "ReLU"
  bottom: "inception_b3_1x1"
  top: "inception_b3_1x1"
}
layer {
  name: "inception_b3_concat"
  type: "Concat"
  bottom: "inception_b3_1x1_2"
  bottom: "inception_b3_7x1"
  bottom: "inception_b3_1x7_3"
  bottom: "inception_b3_1x1"
  top: "inception_b3_concat"
}
layer {
  name: "inception_b4_1x1_2"
  type: "ConvolutionData"
  bottom: "inception_b3_concat"
  top: "inception_b4_1x1_2"
  convolution_param {
    bias_term: false
    num_output: 384
    pad: 0
    kernel_size: 1
    stride: 1
  }
}
layer {
  name: "inception_b4_1x1_2_bn_dy"
  type: "BNData"
  bottom: "inception_b4_1x1_2"
  top: "inception_b4_1x1_2"
  param { lr_mult: 1 decay_mult: 0 } param { lr_mult: 1 decay_mult: 0 }
  bn_param {frozen: false scale_filler { type: "constant" value: 1 } shift_filler { type: "constant" value: 0 } }
}

layer {
  name: "inception_b4_1x1_2_relu"
  type: "ReLU"
  bottom: "inception_b4_1x1_2"
  top: "inception_b4_1x1_2"
}
layer {
  name: "inception_b4_1x7_reduce"
  type: "ConvolutionData"
  bottom: "inception_b3_concat"
  top: "inception_b4_1x7_reduce"
  convolution_param {
    bias_term: false
    num_output: 192
    pad: 0
    kernel_size: 1
    stride: 1
  }
}
layer {
  name: "inception_b4_1x7_reduce_bn_dy"
  type: "BNData"
  bottom: "inception_b4_1x7_reduce"
  top: "inception_b4_1x7_reduce"
  param { lr_mult: 1 decay_mult: 0 } param { lr_mult: 1 decay_mult: 0 }
  bn_param {frozen: false scale_filler { type: "constant" value: 1 } shift_filler { type: "constant" value: 0 } }
}

layer {
  name: "inception_b4_1x7_reduce_relu"
  type: "ReLU"
  bottom: "inception_b4_1x7_reduce"
  top: "inception_b4_1x7_reduce"
}
layer {
  name: "inception_b4_1x7"
  type: "ConvolutionData"
  bottom: "inception_b4_1x7_reduce"
  top: "inception_b4_1x7"
  convolution_param {
    bias_term: false
    num_output: 224
    stride: 1
    pad_h: 0
    pad_w: 3
    kernel_h: 1
    kernel_w: 7
  }
}
layer {
  name: "inception_b4_1x7_bn_dy"
  type: "BNData"
  bottom: "inception_b4_1x7"
  top: "inception_b4_1x7"
  param { lr_mult: 1 decay_mult: 0 } param { lr_mult: 1 decay_mult: 0 }
  bn_param {frozen: false scale_filler { type: "constant" value: 1 } shift_filler { type: "constant" value: 0 } }
}

layer {
  name: "inception_b4_1x7_relu"
  type: "ReLU"
  bottom: "inception_b4_1x7"
  top: "inception_b4_1x7"
}
layer {
  name: "inception_b4_7x1"
  type: "ConvolutionData"
  bottom: "inception_b4_1x7"
  top: "inception_b4_7x1"
  convolution_param {
    bias_term: false
    num_output: 256
    stride: 1
    pad_h: 3
    pad_w: 0
    kernel_h: 7
    kernel_w: 1
  }
}
layer {
  name: "inception_b4_7x1_bn_dy"
  type: "BNData"
  bottom: "inception_b4_7x1"
  top: "inception_b4_7x1"
  param { lr_mult: 1 decay_mult: 0 } param { lr_mult: 1 decay_mult: 0 }
  bn_param {frozen: false scale_filler { type: "constant" value: 1 } shift_filler { type: "constant" value: 0 } }
}

layer {
  name: "inception_b4_7x1_relu"
  type: "ReLU"
  bottom: "inception_b4_7x1"
  top: "inception_b4_7x1"
}
layer {
  name: "inception_b4_7x1_2_reduce"
  type: "ConvolutionData"
  bottom: "inception_b3_concat"
  top: "inception_b4_7x1_2_reduce"
  convolution_param {
    bias_term: false
    num_output: 192
    pad: 0
    kernel_size: 1
    stride: 1
  }
}
layer {
  name: "inception_b4_7x1_2_reduce_bn_dy"
  type: "BNData"
  bottom: "inception_b4_7x1_2_reduce"
  top: "inception_b4_7x1_2_reduce"
  param { lr_mult: 1 decay_mult: 0 } param { lr_mult: 1 decay_mult: 0 }
  bn_param {frozen: false scale_filler { type: "constant" value: 1 } shift_filler { type: "constant" value: 0 } }
}

layer {
  name: "inception_b4_7x1_2_reduce_relu"
  type: "ReLU"
  bottom: "inception_b4_7x1_2_reduce"
  top: "inception_b4_7x1_2_reduce"
}
layer {
  name: "inception_b4_7x1_2"
  type: "ConvolutionData"
  bottom: "inception_b4_7x1_2_reduce"
  top: "inception_b4_7x1_2"
  convolution_param {
    bias_term: false
    num_output: 192
    stride: 1
    pad_h: 3
    pad_w: 0
    kernel_h: 7
    kernel_w: 1
  }
}
layer {
  name: "inception_b4_7x1_2_bn_dy"
  type: "BNData"
  bottom: "inception_b4_7x1_2"
  top: "inception_b4_7x1_2"
  param { lr_mult: 1 decay_mult: 0 } param { lr_mult: 1 decay_mult: 0 }
  bn_param {frozen: false scale_filler { type: "constant" value: 1 } shift_filler { type: "constant" value: 0 } }
}

layer {
  name: "inception_b4_7x1_2_relu"
  type: "ReLU"
  bottom: "inception_b4_7x1_2"
  top: "inception_b4_7x1_2"
}
layer {
  name: "inception_b4_1x7_2"
  type: "ConvolutionData"
  bottom: "inception_b4_7x1_2"
  top: "inception_b4_1x7_2"
  convolution_param {
    bias_term: false
    num_output: 224
    stride: 1
    pad_h: 0
    pad_w: 3
    kernel_h: 1
    kernel_w: 7
  }
}
layer {
  name: "inception_b4_1x7_2_bn_dy"
  type: "BNData"
  bottom: "inception_b4_1x7_2"
  top: "inception_b4_1x7_2"
  param { lr_mult: 1 decay_mult: 0 } param { lr_mult: 1 decay_mult: 0 }
  bn_param {frozen: false scale_filler { type: "constant" value: 1 } shift_filler { type: "constant" value: 0 } }
}

layer {
  name: "inception_b4_1x7_2_relu"
  type: "ReLU"
  bottom: "inception_b4_1x7_2"
  top: "inception_b4_1x7_2"
}
layer {
  name: "inception_b4_7x1_3"
  type: "ConvolutionData"
  bottom: "inception_b4_1x7_2"
  top: "inception_b4_7x1_3"
  convolution_param {
    bias_term: false
    num_output: 224
    stride: 1
    pad_h: 3
    pad_w: 0
    kernel_h: 7
    kernel_w: 1
  }
}
layer {
  name: "inception_b4_7x1_3_bn_dy"
  type: "BNData"
  bottom: "inception_b4_7x1_3"
  top: "inception_b4_7x1_3"
  param { lr_mult: 1 decay_mult: 0 } param { lr_mult: 1 decay_mult: 0 }
  bn_param {frozen: false scale_filler { type: "constant" value: 1 } shift_filler { type: "constant" value: 0 } }
}

layer {
  name: "inception_b4_7x1_3_relu"
  type: "ReLU"
  bottom: "inception_b4_7x1_3"
  top: "inception_b4_7x1_3"
}
layer {
  name: "inception_b4_1x7_3"
  type: "ConvolutionData"
  bottom: "inception_b4_7x1_3"
  top: "inception_b4_1x7_3"
  convolution_param {
    bias_term: false
    num_output: 256
    stride: 1
    pad_h: 0
    pad_w: 3
    kernel_h: 1
    kernel_w: 7
  }
}
layer {
  name: "inception_b4_1x7_3_bn_dy"
  type: "BNData"
  bottom: "inception_b4_1x7_3"
  top: "inception_b4_1x7_3"
  param { lr_mult: 1 decay_mult: 0 } param { lr_mult: 1 decay_mult: 0 }
  bn_param {frozen: false scale_filler { type: "constant" value: 1 } shift_filler { type: "constant" value: 0 } }
}

layer {
  name: "inception_b4_1x7_3_relu"
  type: "ReLU"
  bottom: "inception_b4_1x7_3"
  top: "inception_b4_1x7_3"
}
layer {
  name: "inception_b4_pool_ave"
  type: "Pooling"
  bottom: "inception_b3_concat"
  top: "inception_b4_pool_ave"
  pooling_param {
    pool: AVE
    kernel_size: 3
    stride: 1
    pad: 1
  }
}
layer {
  name: "inception_b4_1x1"
  type: "ConvolutionData"
  bottom: "inception_b4_pool_ave"
  top: "inception_b4_1x1"
  convolution_param {
    bias_term: false
    num_output: 128
    pad: 0
    kernel_size: 1
    stride: 1
  }
}
layer {
  name: "inception_b4_1x1_bn_dy"
  type: "BNData"
  bottom: "inception_b4_1x1"
  top: "inception_b4_1x1"
  param { lr_mult: 1 decay_mult: 0 } param { lr_mult: 1 decay_mult: 0 }
  bn_param {frozen: false scale_filler { type: "constant" value: 1 } shift_filler { type: "constant" value: 0 } }
}

layer {
  name: "inception_b4_1x1_relu"
  type: "ReLU"
  bottom: "inception_b4_1x1"
  top: "inception_b4_1x1"
}
layer {
  name: "inception_b4_concat"
  type: "Concat"
  bottom: "inception_b4_1x1_2"
  bottom: "inception_b4_7x1"
  bottom: "inception_b4_1x7_3"
  bottom: "inception_b4_1x1"
  top: "inception_b4_concat"
}
layer {
  name: "inception_b5_1x1_2"
  type: "ConvolutionData"
  bottom: "inception_b4_concat"
  top: "inception_b5_1x1_2"
  convolution_param {
    bias_term: false
    num_output: 384
    pad: 0
    kernel_size: 1
    stride: 1
  }
}
layer {
  name: "inception_b5_1x1_2_bn_dy"
  type: "BNData"
  bottom: "inception_b5_1x1_2"
  top: "inception_b5_1x1_2"
  param { lr_mult: 1 decay_mult: 0 } param { lr_mult: 1 decay_mult: 0 }
  bn_param {frozen: false scale_filler { type: "constant" value: 1 } shift_filler { type: "constant" value: 0 } }
}

layer {
  name: "inception_b5_1x1_2_relu"
  type: "ReLU"
  bottom: "inception_b5_1x1_2"
  top: "inception_b5_1x1_2"
}
layer {
  name: "inception_b5_1x7_reduce"
  type: "ConvolutionData"
  bottom: "inception_b4_concat"
  top: "inception_b5_1x7_reduce"
  convolution_param {
    bias_term: false
    num_output: 192
    pad: 0
    kernel_size: 1
    stride: 1
  }
}
layer {
  name: "inception_b5_1x7_reduce_bn_dy"
  type: "BNData"
  bottom: "inception_b5_1x7_reduce"
  top: "inception_b5_1x7_reduce"
  param { lr_mult: 1 decay_mult: 0 } param { lr_mult: 1 decay_mult: 0 }
  bn_param {frozen: false scale_filler { type: "constant" value: 1 } shift_filler { type: "constant" value: 0 } }
}

layer {
  name: "inception_b5_1x7_reduce_relu"
  type: "ReLU"
  bottom: "inception_b5_1x7_reduce"
  top: "inception_b5_1x7_reduce"
}
layer {
  name: "inception_b5_1x7"
  type: "ConvolutionData"
  bottom: "inception_b5_1x7_reduce"
  top: "inception_b5_1x7"
  convolution_param {
    bias_term: false
    num_output: 224
    stride: 1
    pad_h: 0
    pad_w: 3
    kernel_h: 1
    kernel_w: 7
  }
}
layer {
  name: "inception_b5_1x7_bn_dy"
  type: "BNData"
  bottom: "inception_b5_1x7"
  top: "inception_b5_1x7"
  param { lr_mult: 1 decay_mult: 0 } param { lr_mult: 1 decay_mult: 0 }
  bn_param {frozen: false scale_filler { type: "constant" value: 1 } shift_filler { type: "constant" value: 0 } }
}
layer {
  name: "inception_b5_1x7_relu"
  type: "ReLU"
  bottom: "inception_b5_1x7"
  top: "inception_b5_1x7"
}
layer {
  name: "inception_b5_7x1"
  type: "ConvolutionData"
  bottom: "inception_b5_1x7"
  top: "inception_b5_7x1"
  convolution_param {
    bias_term: false
    num_output: 256
    stride: 1
    pad_h: 3
    pad_w: 0
    kernel_h: 7
    kernel_w: 1
  }
}
layer {
  name: "inception_b5_7x1_bn_dy"
  type: "BNData"
  bottom: "inception_b5_7x1"
  top: "inception_b5_7x1"
  param { lr_mult: 1 decay_mult: 0 } param { lr_mult: 1 decay_mult: 0 }
  bn_param {frozen: false scale_filler { type: "constant" value: 1 } shift_filler { type: "constant" value: 0 } }
}

layer {
  name: "inception_b5_7x1_relu"
  type: "ReLU"
  bottom: "inception_b5_7x1"
  top: "inception_b5_7x1"
}
layer {
  name: "inception_b5_7x1_2_reduce"
  type: "ConvolutionData"
  bottom: "inception_b4_concat"
  top: "inception_b5_7x1_2_reduce"
  convolution_param {
    bias_term: false
    num_output: 192
    pad: 0
    kernel_size: 1
    stride: 1
  }
}
layer {
  name: "inception_b5_7x1_2_reduce_bn_dy"
  type: "BNData"
  bottom: "inception_b5_7x1_2_reduce"
  top: "inception_b5_7x1_2_reduce"
  param { lr_mult: 1 decay_mult: 0 } param { lr_mult: 1 decay_mult: 0 }
  bn_param {frozen: false scale_filler { type: "constant" value: 1 } shift_filler { type: "constant" value: 0 } }
}

layer {
  name: "inception_b5_7x1_2_reduce_relu"
  type: "ReLU"
  bottom: "inception_b5_7x1_2_reduce"
  top: "inception_b5_7x1_2_reduce"
}
layer {
  name: "inception_b5_7x1_2"
  type: "ConvolutionData"
  bottom: "inception_b5_7x1_2_reduce"
  top: "inception_b5_7x1_2"
  convolution_param {
    bias_term: false
    num_output: 192
    stride: 1
    pad_h: 3
    pad_w: 0
    kernel_h: 7
    kernel_w: 1
  }
}
layer {
  name: "inception_b5_7x1_2_bn_dy"
  type: "BNData"
  bottom: "inception_b5_7x1_2"
  top: "inception_b5_7x1_2"
  param { lr_mult: 1 decay_mult: 0 } param { lr_mult: 1 decay_mult: 0 }
  bn_param {frozen: false scale_filler { type: "constant" value: 1 } shift_filler { type: "constant" value: 0 } }
}

layer {
  name: "inception_b5_7x1_2_relu"
  type: "ReLU"
  bottom: "inception_b5_7x1_2"
  top: "inception_b5_7x1_2"
}
layer {
  name: "inception_b5_1x7_2"
  type: "ConvolutionData"
  bottom: "inception_b5_7x1_2"
  top: "inception_b5_1x7_2"
  convolution_param {
    bias_term: false
    num_output: 224
    stride: 1
    pad_h: 0
    pad_w: 3
    kernel_h: 1
    kernel_w: 7
  }
}
layer {
  name: "inception_b5_1x7_2_bn_dy"
  type: "BNData"
  bottom: "inception_b5_1x7_2"
  top: "inception_b5_1x7_2"
  param { lr_mult: 1 decay_mult: 0 } param { lr_mult: 1 decay_mult: 0 }
  bn_param {frozen: false scale_filler { type: "constant" value: 1 } shift_filler { type: "constant" value: 0 } }
}

layer {
  name: "inception_b5_1x7_2_relu"
  type: "ReLU"
  bottom: "inception_b5_1x7_2"
  top: "inception_b5_1x7_2"
}
layer {
  name: "inception_b5_7x1_3"
  type: "ConvolutionData"
  bottom: "inception_b5_1x7_2"
  top: "inception_b5_7x1_3"
  convolution_param {
    bias_term: false
    num_output: 224
    stride: 1
    pad_h: 3
    pad_w: 0
    kernel_h: 7
    kernel_w: 1
  }
}
layer {
  name: "inception_b5_7x1_3_bn_dy"
  type: "BNData"
  bottom: "inception_b5_7x1_3"
  top: "inception_b5_7x1_3"
  param { lr_mult: 1 decay_mult: 0 } param { lr_mult: 1 decay_mult: 0 }
  bn_param {frozen: false scale_filler { type: "constant" value: 1 } shift_filler { type: "constant" value: 0 } }
}
layer {
  name: "inception_b5_7x1_3_relu"
  type: "ReLU"
  bottom: "inception_b5_7x1_3"
  top: "inception_b5_7x1_3"
}
layer {
  name: "inception_b5_1x7_3"
  type: "ConvolutionData"
  bottom: "inception_b5_7x1_3"
  top: "inception_b5_1x7_3"
  convolution_param {
    bias_term: false
    num_output: 256
    stride: 1
    pad_h: 0
    pad_w: 3
    kernel_h: 1
    kernel_w: 7
  }
}
layer {
  name: "inception_b5_1x7_3_bn_dy"
  type: "BNData"
  bottom: "inception_b5_1x7_3"
  top: "inception_b5_1x7_3"
  param { lr_mult: 1 decay_mult: 0 } param { lr_mult: 1 decay_mult: 0 }
  bn_param {frozen: false scale_filler { type: "constant" value: 1 } shift_filler { type: "constant" value: 0 } }
}

layer {
  name: "inception_b5_1x7_3_relu"
  type: "ReLU"
  bottom: "inception_b5_1x7_3"
  top: "inception_b5_1x7_3"
}
layer {
  name: "inception_b5_pool_ave"
  type: "Pooling"
  bottom: "inception_b4_concat"
  top: "inception_b5_pool_ave"
  pooling_param {
    pool: AVE
    kernel_size: 3
    stride: 1
    pad: 1
  }
}
layer {
  name: "inception_b5_1x1"
  type: "ConvolutionData"
  bottom: "inception_b5_pool_ave"
  top: "inception_b5_1x1"
  convolution_param {
    bias_term: false
    num_output: 128
    pad: 0
    kernel_size: 1
    stride: 1
  }
}
layer {
  name: "inception_b5_1x1_bn_dy"
  type: "BNData"
  bottom: "inception_b5_1x1"
  top: "inception_b5_1x1"
  param { lr_mult: 1 decay_mult: 0 } param { lr_mult: 1 decay_mult: 0 }
  bn_param {frozen: false scale_filler { type: "constant" value: 1 } shift_filler { type: "constant" value: 0 } }
}

layer {
  name: "inception_b5_1x1_relu"
  type: "ReLU"
  bottom: "inception_b5_1x1"
  top: "inception_b5_1x1"
}
layer {
  name: "inception_b5_concat"
  type: "Concat"
  bottom: "inception_b5_1x1_2"
  bottom: "inception_b5_7x1"
  bottom: "inception_b5_1x7_3"
  bottom: "inception_b5_1x1"
  top: "inception_b5_concat"
}
layer {
  name: "inception_b6_1x1_2"
  type: "ConvolutionData"
  bottom: "inception_b5_concat"
  top: "inception_b6_1x1_2"
  convolution_param {
    bias_term: false
    num_output: 384
    pad: 0
    kernel_size: 1
    stride: 1
  }
}
layer {
  name: "inception_b6_1x1_2_bn_dy"
  type: "BNData"
  bottom: "inception_b6_1x1_2"
  top: "inception_b6_1x1_2"
  param { lr_mult: 1 decay_mult: 0 } param { lr_mult: 1 decay_mult: 0 }
  bn_param {frozen: false scale_filler { type: "constant" value: 1 } shift_filler { type: "constant" value: 0 } }
}

layer {
  name: "inception_b6_1x1_2_relu"
  type: "ReLU"
  bottom: "inception_b6_1x1_2"
  top: "inception_b6_1x1_2"
}
layer {
  name: "inception_b6_1x7_reduce"
  type: "ConvolutionData"
  bottom: "inception_b5_concat"
  top: "inception_b6_1x7_reduce"
  convolution_param {
    bias_term: false
    num_output: 192
    pad: 0
    kernel_size: 1
    stride: 1
  }
}
layer {
  name: "inception_b6_1x7_reduce_bn_dy"
  type: "BNData"
  bottom: "inception_b6_1x7_reduce"
  top: "inception_b6_1x7_reduce"
  param { lr_mult: 1 decay_mult: 0 } param { lr_mult: 1 decay_mult: 0 }
  bn_param {frozen: false scale_filler { type: "constant" value: 1 } shift_filler { type: "constant" value: 0 } }
}

layer {
  name: "inception_b6_1x7_reduce_relu"
  type: "ReLU"
  bottom: "inception_b6_1x7_reduce"
  top: "inception_b6_1x7_reduce"
}
layer {
  name: "inception_b6_1x7"
  type: "ConvolutionData"
  bottom: "inception_b6_1x7_reduce"
  top: "inception_b6_1x7"
  convolution_param {
    bias_term: false
    num_output: 224
    stride: 1
    pad_h: 0
    pad_w: 3
    kernel_h: 1
    kernel_w: 7
  }
}
layer {
  name: "inception_b6_1x7_bn_dy"
  type: "BNData"
  bottom: "inception_b6_1x7"
  top: "inception_b6_1x7"
  param { lr_mult: 1 decay_mult: 0 } param { lr_mult: 1 decay_mult: 0 }
  bn_param {frozen: false scale_filler { type: "constant" value: 1 } shift_filler { type: "constant" value: 0 } }
}

layer {
  name: "inception_b6_1x7_relu"
  type: "ReLU"
  bottom: "inception_b6_1x7"
  top: "inception_b6_1x7"
}
layer {
  name: "inception_b6_7x1"
  type: "ConvolutionData"
  bottom: "inception_b6_1x7"
  top: "inception_b6_7x1"
  convolution_param {
    bias_term: false
    num_output: 256
    stride: 1
    pad_h: 3
    pad_w: 0
    kernel_h: 7
    kernel_w: 1
  }
}
layer {
  name: "inception_b6_7x1_bn_dy"
  type: "BNData"
  bottom: "inception_b6_7x1"
  top: "inception_b6_7x1"
  param { lr_mult: 1 decay_mult: 0 } param { lr_mult: 1 decay_mult: 0 }
  bn_param {frozen: false scale_filler { type: "constant" value: 1 } shift_filler { type: "constant" value: 0 } }
}

layer {
  name: "inception_b6_7x1_relu"
  type: "ReLU"
  bottom: "inception_b6_7x1"
  top: "inception_b6_7x1"
}
layer {
  name: "inception_b6_7x1_2_reduce"
  type: "ConvolutionData"
  bottom: "inception_b5_concat"
  top: "inception_b6_7x1_2_reduce"
  convolution_param {
    bias_term: false
    num_output: 192
    pad: 0
    kernel_size: 1
    stride: 1
  }
}
layer {
  name: "inception_b6_7x1_2_reduce_bn_dy"
  type: "BNData"
  bottom: "inception_b6_7x1_2_reduce"
  top: "inception_b6_7x1_2_reduce"
  param { lr_mult: 1 decay_mult: 0 } param { lr_mult: 1 decay_mult: 0 }
  bn_param {frozen: false scale_filler { type: "constant" value: 1 } shift_filler { type: "constant" value: 0 } }
}

layer {
  name: "inception_b6_7x1_2_reduce_relu"
  type: "ReLU"
  bottom: "inception_b6_7x1_2_reduce"
  top: "inception_b6_7x1_2_reduce"
}
layer {
  name: "inception_b6_7x1_2"
  type: "ConvolutionData"
  bottom: "inception_b6_7x1_2_reduce"
  top: "inception_b6_7x1_2"
  convolution_param {
    bias_term: false
    num_output: 192
    stride: 1
    pad_h: 3
    pad_w: 0
    kernel_h: 7
    kernel_w: 1
  }
}
layer {
  name: "inception_b6_7x1_2_bn_dy"
  type: "BNData"
  bottom: "inception_b6_7x1_2"
  top: "inception_b6_7x1_2"
  param { lr_mult: 1 decay_mult: 0 } param { lr_mult: 1 decay_mult: 0 }
  bn_param {frozen: false scale_filler { type: "constant" value: 1 } shift_filler { type: "constant" value: 0 } }
}

layer {
  name: "inception_b6_7x1_2_relu"
  type: "ReLU"
  bottom: "inception_b6_7x1_2"
  top: "inception_b6_7x1_2"
}
layer {
  name: "inception_b6_1x7_2"
  type: "ConvolutionData"
  bottom: "inception_b6_7x1_2"
  top: "inception_b6_1x7_2"
  convolution_param {
    bias_term: false
    num_output: 224
    stride: 1
    pad_h: 0
    pad_w: 3
    kernel_h: 1
    kernel_w: 7
  }
}
layer {
  name: "inception_b6_1x7_2_bn_dy"
  type: "BNData"
  bottom: "inception_b6_1x7_2"
  top: "inception_b6_1x7_2"
  param { lr_mult: 1 decay_mult: 0 } param { lr_mult: 1 decay_mult: 0 }
  bn_param {frozen: false scale_filler { type: "constant" value: 1 } shift_filler { type: "constant" value: 0 } }
}

layer {
  name: "inception_b6_1x7_2_relu"
  type: "ReLU"
  bottom: "inception_b6_1x7_2"
  top: "inception_b6_1x7_2"
}
layer {
  name: "inception_b6_7x1_3"
  type: "ConvolutionData"
  bottom: "inception_b6_1x7_2"
  top: "inception_b6_7x1_3"
  convolution_param {
    bias_term: false
    num_output: 224
    stride: 1
    pad_h: 3
    pad_w: 0
    kernel_h: 7
    kernel_w: 1
  }
}
layer {
  name: "inception_b6_7x1_3_bn_dy"
  type: "BNData"
  bottom: "inception_b6_7x1_3"
  top: "inception_b6_7x1_3"
  param { lr_mult: 1 decay_mult: 0 } param { lr_mult: 1 decay_mult: 0 }
  bn_param {frozen: false scale_filler { type: "constant" value: 1 } shift_filler { type: "constant" value: 0 } }
}

layer {
  name: "inception_b6_7x1_3_relu"
  type: "ReLU"
  bottom: "inception_b6_7x1_3"
  top: "inception_b6_7x1_3"
}
layer {
  name: "inception_b6_1x7_3"
  type: "ConvolutionData"
  bottom: "inception_b6_7x1_3"
  top: "inception_b6_1x7_3"
  convolution_param {
    bias_term: false
    num_output: 256
    stride: 1
    pad_h: 0
    pad_w: 3
    kernel_h: 1
    kernel_w: 7
  }
}
layer {
  name: "inception_b6_1x7_3_bn_dy"
  type: "BNData"
  bottom: "inception_b6_1x7_3"
  top: "inception_b6_1x7_3"
  param { lr_mult: 1 decay_mult: 0 } param { lr_mult: 1 decay_mult: 0 }
  bn_param {frozen: false scale_filler { type: "constant" value: 1 } shift_filler { type: "constant" value: 0 } }
}

layer {
  name: "inception_b6_1x7_3_relu"
  type: "ReLU"
  bottom: "inception_b6_1x7_3"
  top: "inception_b6_1x7_3"
}
layer {
  name: "inception_b6_pool_ave"
  type: "Pooling"
  bottom: "inception_b5_concat"
  top: "inception_b6_pool_ave"
  pooling_param {
    pool: AVE
    kernel_size: 3
    stride: 1
    pad: 1
  }
}
layer {
  name: "inception_b6_1x1"
  type: "ConvolutionData"
  bottom: "inception_b6_pool_ave"
  top: "inception_b6_1x1"
  convolution_param {
    bias_term: false
    num_output: 128
    pad: 0
    kernel_size: 1
    stride: 1
  }
}
layer {
  name: "inception_b6_1x1_bn_dy"
  type: "BNData"
  bottom: "inception_b6_1x1"
  top: "inception_b6_1x1"
  param { lr_mult: 1 decay_mult: 0 } param { lr_mult: 1 decay_mult: 0 }
  bn_param {frozen: false scale_filler { type: "constant" value: 1 } shift_filler { type: "constant" value: 0 } }
}

layer {
  name: "inception_b6_1x1_relu"
  type: "ReLU"
  bottom: "inception_b6_1x1"
  top: "inception_b6_1x1"
}
layer {
  name: "inception_b6_concat"
  type: "Concat"
  bottom: "inception_b6_1x1_2"
  bottom: "inception_b6_7x1"
  bottom: "inception_b6_1x7_3"
  bottom: "inception_b6_1x1"
  top: "inception_b6_concat"
}
layer {
  name: "inception_b7_1x1_2"
  type: "ConvolutionData"
  bottom: "inception_b6_concat"
  top: "inception_b7_1x1_2"
  convolution_param {
    bias_term: false
    num_output: 384
    pad: 0
    kernel_size: 1
    stride: 1
  }
}
layer {
  name: "inception_b7_1x1_2_bn_dy"
  type: "BNData"
  bottom: "inception_b7_1x1_2"
  top: "inception_b7_1x1_2"
  param { lr_mult: 1 decay_mult: 0 } param { lr_mult: 1 decay_mult: 0 }
  bn_param {frozen: false scale_filler { type: "constant" value: 1 } shift_filler { type: "constant" value: 0 } }
}

layer {
  name: "inception_b7_1x1_2_relu"
  type: "ReLU"
  bottom: "inception_b7_1x1_2"
  top: "inception_b7_1x1_2"
}
layer {
  name: "inception_b7_1x7_reduce"
  type: "ConvolutionData"
  bottom: "inception_b6_concat"
  top: "inception_b7_1x7_reduce"
  convolution_param {
    bias_term: false
    num_output: 192
    pad: 0
    kernel_size: 1
    stride: 1
  }
}
layer {
  name: "inception_b7_1x7_reduce_bn_dy"
  type: "BNData"
  bottom: "inception_b7_1x7_reduce"
  top: "inception_b7_1x7_reduce"
  param { lr_mult: 1 decay_mult: 0 } param { lr_mult: 1 decay_mult: 0 }
  bn_param {frozen: false scale_filler { type: "constant" value: 1 } shift_filler { type: "constant" value: 0 } }
}

layer {
  name: "inception_b7_1x7_reduce_relu"
  type: "ReLU"
  bottom: "inception_b7_1x7_reduce"
  top: "inception_b7_1x7_reduce"
}
layer {
  name: "inception_b7_1x7"
  type: "ConvolutionData"
  bottom: "inception_b7_1x7_reduce"
  top: "inception_b7_1x7"
  convolution_param {
    bias_term: false
    num_output: 224
    stride: 1
    pad_h: 0
    pad_w: 3
    kernel_h: 1
    kernel_w: 7
  }
}
layer {
  name: "inception_b7_1x7_bn_dy"
  type: "BNData"
  bottom: "inception_b7_1x7"
  top: "inception_b7_1x7"
  param { lr_mult: 1 decay_mult: 0 } param { lr_mult: 1 decay_mult: 0 }
  bn_param {frozen: false scale_filler { type: "constant" value: 1 } shift_filler { type: "constant" value: 0 } }
}

layer {
  name: "inception_b7_1x7_relu"
  type: "ReLU"
  bottom: "inception_b7_1x7"
  top: "inception_b7_1x7"
}
layer {
  name: "inception_b7_7x1"
  type: "ConvolutionData"
  bottom: "inception_b7_1x7"
  top: "inception_b7_7x1"
  convolution_param {
    bias_term: false
    num_output: 256
    stride: 1
    pad_h: 3
    pad_w: 0
    kernel_h: 7
    kernel_w: 1
  }
}
layer {
  name: "inception_b7_7x1_bn_dy"
  type: "BNData"
  bottom: "inception_b7_7x1"
  top: "inception_b7_7x1"
  param { lr_mult: 1 decay_mult: 0 } param { lr_mult: 1 decay_mult: 0 }
  bn_param {frozen: false scale_filler { type: "constant" value: 1 } shift_filler { type: "constant" value: 0 } }
}

layer {
  name: "inception_b7_7x1_relu"
  type: "ReLU"
  bottom: "inception_b7_7x1"
  top: "inception_b7_7x1"
}
layer {
  name: "inception_b7_7x1_2_reduce"
  type: "ConvolutionData"
  bottom: "inception_b6_concat"
  top: "inception_b7_7x1_2_reduce"
  convolution_param {
    bias_term: false
    num_output: 192
    pad: 0
    kernel_size: 1
    stride: 1
  }
}
layer {
  name: "inception_b7_7x1_2_reduce_bn_dy"
  type: "BNData"
  bottom: "inception_b7_7x1_2_reduce"
  top: "inception_b7_7x1_2_reduce"
  param { lr_mult: 1 decay_mult: 0 } param { lr_mult: 1 decay_mult: 0 }
  bn_param {frozen: false scale_filler { type: "constant" value: 1 } shift_filler { type: "constant" value: 0 } }
}

layer {
  name: "inception_b7_7x1_2_reduce_relu"
  type: "ReLU"
  bottom: "inception_b7_7x1_2_reduce"
  top: "inception_b7_7x1_2_reduce"
}
layer {
  name: "inception_b7_7x1_2"
  type: "ConvolutionData"
  bottom: "inception_b7_7x1_2_reduce"
  top: "inception_b7_7x1_2"
  convolution_param {
    bias_term: false
    num_output: 192
    stride: 1
    pad_h: 3
    pad_w: 0
    kernel_h: 7
    kernel_w: 1
  }
}
layer {
  name: "inception_b7_7x1_2_bn_dy"
  type: "BNData"
  bottom: "inception_b7_7x1_2"
  top: "inception_b7_7x1_2"
  param { lr_mult: 1 decay_mult: 0 } param { lr_mult: 1 decay_mult: 0 }
  bn_param {frozen: false scale_filler { type: "constant" value: 1 } shift_filler { type: "constant" value: 0 } }
}

layer {
  name: "inception_b7_7x1_2_relu"
  type: "ReLU"
  bottom: "inception_b7_7x1_2"
  top: "inception_b7_7x1_2"
}
layer {
  name: "inception_b7_1x7_2"
  type: "ConvolutionData"
  bottom: "inception_b7_7x1_2"
  top: "inception_b7_1x7_2"
  convolution_param {
    bias_term: false
    num_output: 224
    stride: 1
    pad_h: 0
    pad_w: 3
    kernel_h: 1
    kernel_w: 7
  }
}
layer {
  name: "inception_b7_1x7_2_bn_dy"
  type: "BNData"
  bottom: "inception_b7_1x7_2"
  top: "inception_b7_1x7_2"
  param { lr_mult: 1 decay_mult: 0 } param { lr_mult: 1 decay_mult: 0 }
  bn_param {frozen: false scale_filler { type: "constant" value: 1 } shift_filler { type: "constant" value: 0 } }
}

layer {
  name: "inception_b7_1x7_2_relu"
  type: "ReLU"
  bottom: "inception_b7_1x7_2"
  top: "inception_b7_1x7_2"
}
layer {
  name: "inception_b7_7x1_3"
  type: "ConvolutionData"
  bottom: "inception_b7_1x7_2"
  top: "inception_b7_7x1_3"
  convolution_param {
    bias_term: false
    num_output: 224
    stride: 1
    pad_h: 3
    pad_w: 0
    kernel_h: 7
    kernel_w: 1
  }
}
layer {
  name: "inception_b7_7x1_3_bn_dy"
  type: "BNData"
  bottom: "inception_b7_7x1_3"
  top: "inception_b7_7x1_3"
  param { lr_mult: 1 decay_mult: 0 } param { lr_mult: 1 decay_mult: 0 }
  bn_param {frozen: false scale_filler { type: "constant" value: 1 } shift_filler { type: "constant" value: 0 } }
}

layer {
  name: "inception_b7_7x1_3_relu"
  type: "ReLU"
  bottom: "inception_b7_7x1_3"
  top: "inception_b7_7x1_3"
}
layer {
  name: "inception_b7_1x7_3"
  type: "ConvolutionData"
  bottom: "inception_b7_7x1_3"
  top: "inception_b7_1x7_3"
  convolution_param {
    bias_term: false
    num_output: 256
    stride: 1
    pad_h: 0
    pad_w: 3
    kernel_h: 1
    kernel_w: 7
  }
}
layer {
  name: "inception_b7_1x7_3_bn_dy"
  type: "BNData"
  bottom: "inception_b7_1x7_3"
  top: "inception_b7_1x7_3"
  param { lr_mult: 1 decay_mult: 0 } param { lr_mult: 1 decay_mult: 0 }
  bn_param {frozen: false scale_filler { type: "constant" value: 1 } shift_filler { type: "constant" value: 0 } }
}

layer {
  name: "inception_b7_1x7_3_relu"
  type: "ReLU"
  bottom: "inception_b7_1x7_3"
  top: "inception_b7_1x7_3"
}
layer {
  name: "inception_b7_pool_ave"
  type: "Pooling"
  bottom: "inception_b6_concat"
  top: "inception_b7_pool_ave"
  pooling_param {
    pool: AVE
    kernel_size: 3
    stride: 1
    pad: 1
  }
}
layer {
  name: "inception_b7_1x1"
  type: "ConvolutionData"
  bottom: "inception_b7_pool_ave"
  top: "inception_b7_1x1"
  convolution_param {
    bias_term: false
    num_output: 128
    pad: 0
    kernel_size: 1
    stride: 1
  }
}
layer {
  name: "inception_b7_1x1_bn_dy"
  type: "BNData"
  bottom: "inception_b7_1x1"
  top: "inception_b7_1x1"
  param { lr_mult: 1 decay_mult: 0 } param { lr_mult: 1 decay_mult: 0 }
  bn_param {frozen: false scale_filler { type: "constant" value: 1 } shift_filler { type: "constant" value: 0 } }
}

layer {
  name: "inception_b7_1x1_relu"
  type: "ReLU"
  bottom: "inception_b7_1x1"
  top: "inception_b7_1x1"
}
layer {
  name: "inception_b7_concat"
  type: "Concat"
  bottom: "inception_b7_1x1_2"
  bottom: "inception_b7_7x1"
  bottom: "inception_b7_1x7_3"
  bottom: "inception_b7_1x1"
  top: "inception_b7_concat"
}
layer {
  name: "reduction_b_3x3_reduce"
  type: "ConvolutionData"
  bottom: "inception_b7_concat"
  top: "reduction_b_3x3_reduce"
  convolution_param {
    bias_term: false
    num_output: 192
    pad: 0
    kernel_size: 1
    stride: 1
  }
}
layer {
  name: "reduction_b_3x3_reduce_bn_dy"
  type: "BNData"
  bottom: "reduction_b_3x3_reduce"
  top: "reduction_b_3x3_reduce"
  param { lr_mult: 1 decay_mult: 0 } param { lr_mult: 1 decay_mult: 0 }
  bn_param {frozen: false scale_filler { type: "constant" value: 1 } shift_filler { type: "constant" value: 0 } }
}

layer {
  name: "reduction_b_3x3_reduce_relu"
  type: "ReLU"
  bottom: "reduction_b_3x3_reduce"
  top: "reduction_b_3x3_reduce"
}
layer {
  name: "reduction_b_3x3"
  type: "ConvolutionData"
  bottom: "reduction_b_3x3_reduce"
  top: "reduction_b_3x3"
  convolution_param {
    bias_term: false
    num_output: 192
    pad: 0
    kernel_size: 3
    stride: 2
  }
}
layer {
  name: "reduction_b_3x3_bn_dy"
  type: "BNData"
  bottom: "reduction_b_3x3"
  top: "reduction_b_3x3"
  param { lr_mult: 1 decay_mult: 0 } param { lr_mult: 1 decay_mult: 0 }
  bn_param {frozen: false scale_filler { type: "constant" value: 1 } shift_filler { type: "constant" value: 0 } }
}

layer {
  name: "reduction_b_3x3_relu"
  type: "ReLU"
  bottom: "reduction_b_3x3"
  top: "reduction_b_3x3"
}
layer {
  name: "reduction_b_1x7_reduce"
  type: "ConvolutionData"
  bottom: "inception_b7_concat"
  top: "reduction_b_1x7_reduce"
  convolution_param {
    bias_term: false
    num_output: 256
    pad: 0
    kernel_size: 1
    stride: 1
  }
}
layer {
  name: "reduction_b_1x7_reduce_bn_dy"
  type: "BNData"
  bottom: "reduction_b_1x7_reduce"
  top: "reduction_b_1x7_reduce"
  param { lr_mult: 1 decay_mult: 0 } param { lr_mult: 1 decay_mult: 0 }
  bn_param {frozen: false scale_filler { type: "constant" value: 1 } shift_filler { type: "constant" value: 0 } }
}

layer {
  name: "reduction_b_1x7_reduce_relu"
  type: "ReLU"
  bottom: "reduction_b_1x7_reduce"
  top: "reduction_b_1x7_reduce"
}
layer {
  name: "reduction_b_1x7"
  type: "ConvolutionData"
  bottom: "reduction_b_1x7_reduce"
  top: "reduction_b_1x7"
  convolution_param {
    bias_term: false
    num_output: 256
    stride: 1
    pad_h: 0
    pad_w: 3
    kernel_h: 1
    kernel_w: 7
  }
}
layer {
  name: "reduction_b_1x7_bn_dy"
  type: "BNData"
  bottom: "reduction_b_1x7"
  top: "reduction_b_1x7"
  param { lr_mult: 1 decay_mult: 0 } param { lr_mult: 1 decay_mult: 0 }
  bn_param {frozen: false scale_filler { type: "constant" value: 1 } shift_filler { type: "constant" value: 0 } }
}

layer {
  name: "reduction_b_1x7_relu"
  type: "ReLU"
  bottom: "reduction_b_1x7"
  top: "reduction_b_1x7"
}
layer {
  name: "reduction_b_7x1"
  type: "ConvolutionData"
  bottom: "reduction_b_1x7"
  top: "reduction_b_7x1"
  convolution_param {
    bias_term: false
    num_output: 320
    stride: 1
    pad_h: 3
    pad_w: 0
    kernel_h: 7
    kernel_w: 1
  }
}
layer {
  name: "reduction_b_7x1_bn_dy"
  type: "BNData"
  bottom: "reduction_b_7x1"
  top: "reduction_b_7x1"
  param { lr_mult: 1 decay_mult: 0 } param { lr_mult: 1 decay_mult: 0 }
  bn_param {frozen: false scale_filler { type: "constant" value: 1 } shift_filler { type: "constant" value: 0 } }
}

layer {
  name: "reduction_b_7x1_relu"
  type: "ReLU"
  bottom: "reduction_b_7x1"
  top: "reduction_b_7x1"
}
layer {
  name: "reduction_b_3x3_2"
  type: "ConvolutionData"
  bottom: "reduction_b_7x1"
  top: "reduction_b_3x3_2"
  convolution_param {
    bias_term: false
    num_output: 320
    pad: 0
    kernel_size: 3
    stride: 2
  }
}
layer {
  name: "reduction_b_3x3_2_bn_dy"
  type: "BNData"
  bottom: "reduction_b_3x3_2"
  top: "reduction_b_3x3_2"
  param { lr_mult: 1 decay_mult: 0 } param { lr_mult: 1 decay_mult: 0 }
  bn_param {frozen: false scale_filler { type: "constant" value: 1 } shift_filler { type: "constant" value: 0 } }
}

layer {
  name: "reduction_b_3x3_2_relu"
  type: "ReLU"
  bottom: "reduction_b_3x3_2"
  top: "reduction_b_3x3_2"
}
layer {
  name: "reduction_b_pool"
  type: "Pooling"
  bottom: "inception_b7_concat"
  top: "reduction_b_pool"
  pooling_param {
    pool: MAX
    kernel_size: 3
    stride: 2
  }
}
layer {
  name: "reduction_b_concat"
  type: "Concat"
  bottom: "reduction_b_3x3"
  bottom: "reduction_b_3x3_2"
  bottom: "reduction_b_pool"
  top: "reduction_b_concat"
}
layer {
  name: "inception_c1_1x1_2"
  type: "ConvolutionData"
  bottom: "reduction_b_concat"
  top: "inception_c1_1x1_2"
  convolution_param {
    bias_term: false
    num_output: 256
    pad: 0
    kernel_size: 1
    stride: 1
  }
}
layer {
  name: "inception_c1_1x1_2_bn_dy"
  type: "BNData"
  bottom: "inception_c1_1x1_2"
  top: "inception_c1_1x1_2"
  param { lr_mult: 1 decay_mult: 0 } param { lr_mult: 1 decay_mult: 0 }
  bn_param {frozen: false scale_filler { type: "constant" value: 1 } shift_filler { type: "constant" value: 0 } }
}

layer {
  name: "inception_c1_1x1_2_relu"
  type: "ReLU"
  bottom: "inception_c1_1x1_2"
  top: "inception_c1_1x1_2"
}
layer {
  name: "inception_c1_1x1_3"
  type: "ConvolutionData"
  bottom: "reduction_b_concat"
  top: "inception_c1_1x1_3"
  convolution_param {
    bias_term: false
    num_output: 384
    pad: 0
    kernel_size: 1
    stride: 1
  }
}
layer {
  name: "inception_c1_1x1_3_bn_dy"
  type: "BNData"
  bottom: "inception_c1_1x1_3"
  top: "inception_c1_1x1_3"
  param { lr_mult: 1 decay_mult: 0 } param { lr_mult: 1 decay_mult: 0 }
  bn_param {frozen: false scale_filler { type: "constant" value: 1 } shift_filler { type: "constant" value: 0 } }
}

layer {
  name: "inception_c1_1x1_3_relu"
  type: "ReLU"
  bottom: "inception_c1_1x1_3"
  top: "inception_c1_1x1_3"
}
layer {
  name: "inception_c1_1x3"
  type: "ConvolutionData"
  bottom: "inception_c1_1x1_3"
  top: "inception_c1_1x3"
  convolution_param {
    bias_term: false
    num_output: 256
    stride: 1
    pad_h: 0
    pad_w: 1
    kernel_h: 1
    kernel_w: 3
  }
}
layer {
  name: "inception_c1_1x3_bn_dy"
  type: "BNData"
  bottom: "inception_c1_1x3"
  top: "inception_c1_1x3"
  param { lr_mult: 1 decay_mult: 0 } param { lr_mult: 1 decay_mult: 0 }
  bn_param {frozen: false scale_filler { type: "constant" value: 1 } shift_filler { type: "constant" value: 0 } }
}

layer {
  name: "inception_c1_1x3_relu"
  type: "ReLU"
  bottom: "inception_c1_1x3"
  top: "inception_c1_1x3"
}
layer {
  name: "inception_c1_3x1"
  type: "ConvolutionData"
  bottom: "inception_c1_1x1_3"
  top: "inception_c1_3x1"
  convolution_param {
    bias_term: false
    num_output: 256
    stride: 1
    pad_h: 1
    pad_w: 0
    kernel_h: 3
    kernel_w: 1
  }
}
layer {
  name: "inception_c1_3x1_bn_dy"
  type: "BNData"
  bottom: "inception_c1_3x1"
  top: "inception_c1_3x1"
  param { lr_mult: 1 decay_mult: 0 } param { lr_mult: 1 decay_mult: 0 }
  bn_param {frozen: false scale_filler { type: "constant" value: 1 } shift_filler { type: "constant" value: 0 } }
}

layer {
  name: "inception_c1_3x1_relu"
  type: "ReLU"
  bottom: "inception_c1_3x1"
  top: "inception_c1_3x1"
}
layer {
  name: "inception_c1_1x1_4"
  type: "ConvolutionData"
  bottom: "reduction_b_concat"
  top: "inception_c1_1x1_4"
  convolution_param {
    bias_term: false
    num_output: 384
    pad: 0
    kernel_size: 1
    stride: 1
  }
}
layer {
  name: "inception_c1_1x1_4_bn_dy"
  type: "BNData"
  bottom: "inception_c1_1x1_4"
  top: "inception_c1_1x1_4"
  param { lr_mult: 1 decay_mult: 0 } param { lr_mult: 1 decay_mult: 0 }
  bn_param {frozen: false scale_filler { type: "constant" value: 1 } shift_filler { type: "constant" value: 0 } }
}

layer {
  name: "inception_c1_1x1_4_relu"
  type: "ReLU"
  bottom: "inception_c1_1x1_4"
  top: "inception_c1_1x1_4"
}
layer {
  name: "inception_c1_3x1_2"
  type: "ConvolutionData"
  bottom: "inception_c1_1x1_4"
  top: "inception_c1_3x1_2"
  convolution_param {
    bias_term: false
    num_output: 448
    stride: 1
    pad_h: 1
    pad_w: 0
    kernel_h: 3
    kernel_w: 1
  }
}
layer {
  name: "inception_c1_3x1_2_bn_dy"
  type: "BNData"
  bottom: "inception_c1_3x1_2"
  top: "inception_c1_3x1_2"
  param { lr_mult: 1 decay_mult: 0 } param { lr_mult: 1 decay_mult: 0 }
  bn_param {frozen: false scale_filler { type: "constant" value: 1 } shift_filler { type: "constant" value: 0 } }
}


layer {
  name: "inception_c1_3x1_2_relu"
  type: "ReLU"
  bottom: "inception_c1_3x1_2"
  top: "inception_c1_3x1_2"
}
layer {
  name: "inception_c1_1x3_2"
  type: "ConvolutionData"
  bottom: "inception_c1_3x1_2"
  top: "inception_c1_1x3_2"
  convolution_param {
    bias_term: false
    num_output: 512
    stride: 1
    pad_h: 0
    pad_w: 1
    kernel_h: 1
    kernel_w: 3
  }
}
layer {
  name: "inception_c1_1x3_2_bn_dy"
  type: "BNData"
  bottom: "inception_c1_1x3_2"
  top: "inception_c1_1x3_2"
  param { lr_mult: 1 decay_mult: 0 } param { lr_mult: 1 decay_mult: 0 }
  bn_param {frozen: false scale_filler { type: "constant" value: 1 } shift_filler { type: "constant" value: 0 } }
}

layer {
  name: "inception_c1_1x3_2_relu"
  type: "ReLU"
  bottom: "inception_c1_1x3_2"
  top: "inception_c1_1x3_2"
}
layer {
  name: "inception_c1_1x3_3"
  type: "ConvolutionData"
  bottom: "inception_c1_1x3_2"
  top: "inception_c1_1x3_3"
  convolution_param {
    bias_term: false
    num_output: 256
    stride: 1
    pad_h: 0
    pad_w: 1
    kernel_h: 1
    kernel_w: 3
  }
}
layer {
  name: "inception_c1_1x3_3_bn_dy"
  type: "BNData"
  bottom: "inception_c1_1x3_3"
  top: "inception_c1_1x3_3"
  param { lr_mult: 1 decay_mult: 0 } param { lr_mult: 1 decay_mult: 0 }
  bn_param {frozen: false scale_filler { type: "constant" value: 1 } shift_filler { type: "constant" value: 0 } }
}

layer {
  name: "inception_c1_1x3_3_relu"
  type: "ReLU"
  bottom: "inception_c1_1x3_3"
  top: "inception_c1_1x3_3"
}
layer {
  name: "inception_c1_3x1_3"
  type: "ConvolutionData"
  bottom: "inception_c1_1x3_2"
  top: "inception_c1_3x1_3"
  convolution_param {
    bias_term: false
    num_output: 256
    stride: 1
    pad_h: 1
    pad_w: 0
    kernel_h: 3
    kernel_w: 1
  }
}
layer {
  name: "inception_c1_3x1_3_bn_dy"
  type: "BNData"
  bottom: "inception_c1_3x1_3"
  top: "inception_c1_3x1_3"
  param { lr_mult: 1 decay_mult: 0 } param { lr_mult: 1 decay_mult: 0 }
  bn_param {frozen: false scale_filler { type: "constant" value: 1 } shift_filler { type: "constant" value: 0 } }
}

layer {
  name: "inception_c1_3x1_3_relu"
  type: "ReLU"
  bottom: "inception_c1_3x1_3"
  top: "inception_c1_3x1_3"
}
layer {
  name: "inception_c1_pool_ave"
  type: "Pooling"
  bottom: "reduction_b_concat"
  top: "inception_c1_pool_ave"
  pooling_param {
    pool: AVE
    kernel_size: 3
    stride: 1
    pad: 1
  }
}
layer {
  name: "inception_c1_1x1"
  type: "ConvolutionData"
  bottom: "inception_c1_pool_ave"
  top: "inception_c1_1x1"
  convolution_param {
    bias_term: false
    num_output: 256
    pad: 0
    kernel_size: 1
    stride: 1
  }
}
layer {
  name: "inception_c1_1x1_bn_dy"
  type: "BNData"
  bottom: "inception_c1_1x1"
  top: "inception_c1_1x1"
  param { lr_mult: 1 decay_mult: 0 } param { lr_mult: 1 decay_mult: 0 }
  bn_param {frozen: false scale_filler { type: "constant" value: 1 } shift_filler { type: "constant" value: 0 } }
}

layer {
  name: "inception_c1_1x1_relu"
  type: "ReLU"
  bottom: "inception_c1_1x1"
  top: "inception_c1_1x1"
}
layer {
  name: "inception_c1_concat"
  type: "Concat"
  bottom: "inception_c1_1x1_2"
  bottom: "inception_c1_1x3"
  bottom: "inception_c1_3x1"
  bottom: "inception_c1_1x3_3"
  bottom: "inception_c1_3x1_3"
  bottom: "inception_c1_1x1"
  top: "inception_c1_concat"
}
layer {
  name: "inception_c2_1x1_2"
  type: "ConvolutionData"
  bottom: "inception_c1_concat"
  top: "inception_c2_1x1_2"
  convolution_param {
    bias_term: false
    num_output: 256
    pad: 0
    kernel_size: 1
    stride: 1
  }
}
layer {
  name: "inception_c2_1x1_2_bn_dy"
  type: "BNData"
  bottom: "inception_c2_1x1_2"
  top: "inception_c2_1x1_2"
  param { lr_mult: 1 decay_mult: 0 } param { lr_mult: 1 decay_mult: 0 }
  bn_param {frozen: false scale_filler { type: "constant" value: 1 } shift_filler { type: "constant" value: 0 } }
}

layer {
  name: "inception_c2_1x1_2_relu"
  type: "ReLU"
  bottom: "inception_c2_1x1_2"
  top: "inception_c2_1x1_2"
}
layer {
  name: "inception_c2_1x1_3"
  type: "ConvolutionData"
  bottom: "inception_c1_concat"
  top: "inception_c2_1x1_3"
  convolution_param {
    bias_term: false
    num_output: 384
    pad: 0
    kernel_size: 1
    stride: 1
  }
}
layer {
  name: "inception_c2_1x1_3_bn_dy"
  type: "BNData"
  bottom: "inception_c2_1x1_3"
  top: "inception_c2_1x1_3"
  param { lr_mult: 1 decay_mult: 0 } param { lr_mult: 1 decay_mult: 0 }
  bn_param {frozen: false scale_filler { type: "constant" value: 1 } shift_filler { type: "constant" value: 0 } }
}

layer {
  name: "inception_c2_1x1_3_relu"
  type: "ReLU"
  bottom: "inception_c2_1x1_3"
  top: "inception_c2_1x1_3"
}
layer {
  name: "inception_c2_1x3"
  type: "ConvolutionData"
  bottom: "inception_c2_1x1_3"
  top: "inception_c2_1x3"
  convolution_param {
    bias_term: false
    num_output: 256
    stride: 1
    pad_h: 0
    pad_w: 1
    kernel_h: 1
    kernel_w: 3
  }
}
layer {
  name: "inception_c2_1x3_bn_dy"
  type: "BNData"
  bottom: "inception_c2_1x3"
  top: "inception_c2_1x3"
  param { lr_mult: 1 decay_mult: 0 } param { lr_mult: 1 decay_mult: 0 }
  bn_param {frozen: false scale_filler { type: "constant" value: 1 } shift_filler { type: "constant" value: 0 } }
}

layer {
  name: "inception_c2_1x3_relu"
  type: "ReLU"
  bottom: "inception_c2_1x3"
  top: "inception_c2_1x3"
}
layer {
  name: "inception_c2_3x1"
  type: "ConvolutionData"
  bottom: "inception_c2_1x1_3"
  top: "inception_c2_3x1"
  convolution_param {
    bias_term: false
    num_output: 256
    stride: 1
    pad_h: 1
    pad_w: 0
    kernel_h: 3
    kernel_w: 1
  }
}
layer {
  name: "inception_c2_3x1_bn_dy"
  type: "BNData"
  bottom: "inception_c2_3x1"
  top: "inception_c2_3x1"
  param { lr_mult: 1 decay_mult: 0 } param { lr_mult: 1 decay_mult: 0 }
  bn_param {frozen: false scale_filler { type: "constant" value: 1 } shift_filler { type: "constant" value: 0 } }
}

layer {
  name: "inception_c2_3x1_relu"
  type: "ReLU"
  bottom: "inception_c2_3x1"
  top: "inception_c2_3x1"
}
layer {
  name: "inception_c2_1x1_4"
  type: "ConvolutionData"
  bottom: "inception_c1_concat"
  top: "inception_c2_1x1_4"
  convolution_param {
    bias_term: false
    num_output: 384
    pad: 0
    kernel_size: 1
    stride: 1
  }
}
layer {
  name: "inception_c2_1x1_4_bn_dy"
  type: "BNData"
  bottom: "inception_c2_1x1_4"
  top: "inception_c2_1x1_4"
  param { lr_mult: 1 decay_mult: 0 } param { lr_mult: 1 decay_mult: 0 }
  bn_param {frozen: false scale_filler { type: "constant" value: 1 } shift_filler { type: "constant" value: 0 } }
}

layer {
  name: "inception_c2_1x1_4_relu"
  type: "ReLU"
  bottom: "inception_c2_1x1_4"
  top: "inception_c2_1x1_4"
}
layer {
  name: "inception_c2_3x1_2"
  type: "ConvolutionData"
  bottom: "inception_c2_1x1_4"
  top: "inception_c2_3x1_2"
  convolution_param {
    bias_term: false
    num_output: 448
    stride: 1
    pad_h: 1
    pad_w: 0
    kernel_h: 3
    kernel_w: 1
  }
}
layer {
  name: "inception_c2_3x1_2_bn_dy"
  type: "BNData"
  bottom: "inception_c2_3x1_2"
  top: "inception_c2_3x1_2"
  param { lr_mult: 1 decay_mult: 0 } param { lr_mult: 1 decay_mult: 0 }
  bn_param {frozen: false scale_filler { type: "constant" value: 1 } shift_filler { type: "constant" value: 0 } }
}

layer {
  name: "inception_c2_3x1_2_relu"
  type: "ReLU"
  bottom: "inception_c2_3x1_2"
  top: "inception_c2_3x1_2"
}
layer {
  name: "inception_c2_1x3_2"
  type: "ConvolutionData"
  bottom: "inception_c2_3x1_2"
  top: "inception_c2_1x3_2"
  convolution_param {
    bias_term: false
    num_output: 512
    stride: 1
    pad_h: 0
    pad_w: 1
    kernel_h: 1
    kernel_w: 3
  }
}
layer {
  name: "inception_c2_1x3_2_bn_dy"
  type: "BNData"
  bottom: "inception_c2_1x3_2"
  top: "inception_c2_1x3_2"
  param { lr_mult: 1 decay_mult: 0 } param { lr_mult: 1 decay_mult: 0 }
  bn_param {frozen: false scale_filler { type: "constant" value: 1 } shift_filler { type: "constant" value: 0 } }
}

layer {
  name: "inception_c2_1x3_2_relu"
  type: "ReLU"
  bottom: "inception_c2_1x3_2"
  top: "inception_c2_1x3_2"
}
layer {
  name: "inception_c2_1x3_3"
  type: "ConvolutionData"
  bottom: "inception_c2_1x3_2"
  top: "inception_c2_1x3_3"
  convolution_param {
    bias_term: false
    num_output: 256
    stride: 1
    pad_h: 0
    pad_w: 1
    kernel_h: 1
    kernel_w: 3
  }
}
layer {
  name: "inception_c2_1x3_3_bn_dy"
  type: "BNData"
  bottom: "inception_c2_1x3_3"
  top: "inception_c2_1x3_3"
  param { lr_mult: 1 decay_mult: 0 } param { lr_mult: 1 decay_mult: 0 }
  bn_param {frozen: false scale_filler { type: "constant" value: 1 } shift_filler { type: "constant" value: 0 } }
}

layer {
  name: "inception_c2_1x3_3_relu"
  type: "ReLU"
  bottom: "inception_c2_1x3_3"
  top: "inception_c2_1x3_3"
}
layer {
  name: "inception_c2_3x1_3"
  type: "ConvolutionData"
  bottom: "inception_c2_1x3_2"
  top: "inception_c2_3x1_3"
  convolution_param {
    bias_term: false
    num_output: 256
    stride: 1
    pad_h: 1
    pad_w: 0
    kernel_h: 3
    kernel_w: 1
  }
}
layer {
  name: "inception_c2_3x1_3_bn_dy"
  type: "BNData"
  bottom: "inception_c2_3x1_3"
  top: "inception_c2_3x1_3"
  param { lr_mult: 1 decay_mult: 0 } param { lr_mult: 1 decay_mult: 0 }
  bn_param {frozen: false scale_filler { type: "constant" value: 1 } shift_filler { type: "constant" value: 0 } }
}

layer {
  name: "inception_c2_3x1_3_relu"
  type: "ReLU"
  bottom: "inception_c2_3x1_3"
  top: "inception_c2_3x1_3"
}
layer {
  name: "inception_c2_pool_ave"
  type: "Pooling"
  bottom: "inception_c1_concat"
  top: "inception_c2_pool_ave"
  pooling_param {
    pool: AVE
    kernel_size: 3
    stride: 1
    pad: 1
  }
}
layer {
  name: "inception_c2_1x1"
  type: "ConvolutionData"
  bottom: "inception_c2_pool_ave"
  top: "inception_c2_1x1"
  convolution_param {
    bias_term: false
    num_output: 256
    pad: 0
    kernel_size: 1
    stride: 1
  }
}
layer {
  name: "inception_c2_1x1_bn_dy"
  type: "BNData"
  bottom: "inception_c2_1x1"
  top: "inception_c2_1x1"
  param { lr_mult: 1 decay_mult: 0 } param { lr_mult: 1 decay_mult: 0 }
  bn_param {frozen: false scale_filler { type: "constant" value: 1 } shift_filler { type: "constant" value: 0 } }
}

layer {
  name: "inception_c2_1x1_relu"
  type: "ReLU"
  bottom: "inception_c2_1x1"
  top: "inception_c2_1x1"
}
layer {
  name: "inception_c2_concat"
  type: "Concat"
  bottom: "inception_c2_1x1_2"
  bottom: "inception_c2_1x3"
  bottom: "inception_c2_3x1"
  bottom: "inception_c2_1x3_3"
  bottom: "inception_c2_3x1_3"
  bottom: "inception_c2_1x1"
  top: "inception_c2_concat"
}
layer {
  name: "inception_c3_1x1_2"
  type: "ConvolutionData"
  bottom: "inception_c2_concat"
  top: "inception_c3_1x1_2"
  convolution_param {
    bias_term: false
    num_output: 256
    pad: 0
    kernel_size: 1
    stride: 1
  }
}
layer {
  name: "inception_c3_1x1_2_bn_dy"
  type: "BNData"
  bottom: "inception_c3_1x1_2"
  top: "inception_c3_1x1_2"
  param { lr_mult: 1 decay_mult: 0 } param { lr_mult: 1 decay_mult: 0 }
  bn_param {frozen: false scale_filler { type: "constant" value: 1 } shift_filler { type: "constant" value: 0 } }
}

layer {
  name: "inception_c3_1x1_2_relu"
  type: "ReLU"
  bottom: "inception_c3_1x1_2"
  top: "inception_c3_1x1_2"
}
layer {
  name: "inception_c3_1x1_3"
  type: "ConvolutionData"
  bottom: "inception_c2_concat"
  top: "inception_c3_1x1_3"
  convolution_param {
    bias_term: false
    num_output: 384
    pad: 0
    kernel_size: 1
    stride: 1
  }
}
layer {
  name: "inception_c3_1x1_3_bn_dy"
  type: "BNData"
  bottom: "inception_c3_1x1_3"
  top: "inception_c3_1x1_3"
  param { lr_mult: 1 decay_mult: 0 } param { lr_mult: 1 decay_mult: 0 }
  bn_param {frozen: false scale_filler { type: "constant" value: 1 } shift_filler { type: "constant" value: 0 } }
}

layer {
  name: "inception_c3_1x1_3_relu"
  type: "ReLU"
  bottom: "inception_c3_1x1_3"
  top: "inception_c3_1x1_3"
}
layer {
  name: "inception_c3_1x3"
  type: "ConvolutionData"
  bottom: "inception_c3_1x1_3"
  top: "inception_c3_1x3"
  convolution_param {
    bias_term: false
    num_output: 256
    stride: 1
    pad_h: 0
    pad_w: 1
    kernel_h: 1
    kernel_w: 3
  }
}
layer {
  name: "inception_c3_1x3_bn_dy"
  type: "BNData"
  bottom: "inception_c3_1x3"
  top: "inception_c3_1x3"
  param { lr_mult: 1 decay_mult: 0 } param { lr_mult: 1 decay_mult: 0 }
  bn_param {frozen: false scale_filler { type: "constant" value: 1 } shift_filler { type: "constant" value: 0 } }
}

layer {
  name: "inception_c3_1x3_relu"
  type: "ReLU"
  bottom: "inception_c3_1x3"
  top: "inception_c3_1x3"
}
layer {
  name: "inception_c3_3x1"
  type: "ConvolutionData"
  bottom: "inception_c3_1x1_3"
  top: "inception_c3_3x1"
  convolution_param {
    bias_term: false
    num_output: 256
    stride: 1
    pad_h: 1
    pad_w: 0
    kernel_h: 3
    kernel_w: 1
  }
}
layer {
  name: "inception_c3_3x1_bn_dy"
  type: "BNData"
  bottom: "inception_c3_3x1"
  top: "inception_c3_3x1"
  param { lr_mult: 1 decay_mult: 0 } param { lr_mult: 1 decay_mult: 0 }
  bn_param {frozen: false scale_filler { type: "constant" value: 1 } shift_filler { type: "constant" value: 0 } }
}

layer {
  name: "inception_c3_3x1_relu"
  type: "ReLU"
  bottom: "inception_c3_3x1"
  top: "inception_c3_3x1"
}
layer {
  name: "inception_c3_1x1_4"
  type: "ConvolutionData"
  bottom: "inception_c2_concat"
  top: "inception_c3_1x1_4"
  convolution_param {
    bias_term: false
    num_output: 384
    pad: 0
    kernel_size: 1
    stride: 1
  }
}
layer {
  name: "inception_c3_1x1_4_bn_dy"
  type: "BNData"
  bottom: "inception_c3_1x1_4"
  top: "inception_c3_1x1_4"
  param { lr_mult: 1 decay_mult: 0 } param { lr_mult: 1 decay_mult: 0 }
  bn_param {frozen: false scale_filler { type: "constant" value: 1 } shift_filler { type: "constant" value: 0 } }
}

layer {
  name: "inception_c3_1x1_4_relu"
  type: "ReLU"
  bottom: "inception_c3_1x1_4"
  top: "inception_c3_1x1_4"
}
layer {
  name: "inception_c3_3x1_2"
  type: "ConvolutionData"
  bottom: "inception_c3_1x1_4"
  top: "inception_c3_3x1_2"
  convolution_param {
    bias_term: false
    num_output: 448
    stride: 1
    pad_h: 1
    pad_w: 0
    kernel_h: 3
    kernel_w: 1
  }
}
layer {
  name: "inception_c3_3x1_2_bn_dy"
  type: "BNData"
  bottom: "inception_c3_3x1_2"
  top: "inception_c3_3x1_2"
  param { lr_mult: 1 decay_mult: 0 } param { lr_mult: 1 decay_mult: 0 }
  bn_param {frozen: false scale_filler { type: "constant" value: 1 } shift_filler { type: "constant" value: 0 } }
}

layer {
  name: "inception_c3_3x1_2_relu"
  type: "ReLU"
  bottom: "inception_c3_3x1_2"
  top: "inception_c3_3x1_2"
}
layer {
  name: "inception_c3_1x3_2"
  type: "ConvolutionData"
  bottom: "inception_c3_3x1_2"
  top: "inception_c3_1x3_2"
  convolution_param {
    bias_term: false
    num_output: 512
    stride: 1
    pad_h: 0
    pad_w: 1
    kernel_h: 1
    kernel_w: 3
  }
}
layer {
  name: "inception_c3_1x3_2_bn_dy"
  type: "BNData"
  bottom: "inception_c3_1x3_2"
  top: "inception_c3_1x3_2"
  param { lr_mult: 1 decay_mult: 0 } param { lr_mult: 1 decay_mult: 0 }
  bn_param {frozen: false scale_filler { type: "constant" value: 1 } shift_filler { type: "constant" value: 0 } }
}


layer {
  name: "inception_c3_1x3_2_relu"
  type: "ReLU"
  bottom: "inception_c3_1x3_2"
  top: "inception_c3_1x3_2"
}
layer {
  name: "inception_c3_1x3_3"
  type: "ConvolutionData"
  bottom: "inception_c3_1x3_2"
  top: "inception_c3_1x3_3"
  convolution_param {
    bias_term: false
    num_output: 256
    stride: 1
    pad_h: 0
    pad_w: 1
    kernel_h: 1
    kernel_w: 3
  }
}
layer {
  name: "inception_c3_1x3_3_bn_dy"
  type: "BNData"
  bottom: "inception_c3_1x3_3"
  top: "inception_c3_1x3_3"
  param { lr_mult: 1 decay_mult: 0 } param { lr_mult: 1 decay_mult: 0 }
  bn_param {frozen: false scale_filler { type: "constant" value: 1 } shift_filler { type: "constant" value: 0 } }
}

layer {
  name: "inception_c3_1x3_3_relu"
  type: "ReLU"
  bottom: "inception_c3_1x3_3"
  top: "inception_c3_1x3_3"
}
layer {
  name: "inception_c3_3x1_3"
  type: "ConvolutionData"
  bottom: "inception_c3_1x3_2"
  top: "inception_c3_3x1_3"
  convolution_param {
    bias_term: false
    num_output: 256
    stride: 1
    pad_h: 1
    pad_w: 0
    kernel_h: 3
    kernel_w: 1
  }
}
layer {
  name: "inception_c3_3x1_3_bn_dy"
  type: "BNData"
  bottom: "inception_c3_3x1_3"
  top: "inception_c3_3x1_3"
  param { lr_mult: 1 decay_mult: 0 } param { lr_mult: 1 decay_mult: 0 }
  bn_param {frozen: false scale_filler { type: "constant" value: 1 } shift_filler { type: "constant" value: 0 } }
}

layer {
  name: "inception_c3_3x1_3_relu"
  type: "ReLU"
  bottom: "inception_c3_3x1_3"
  top: "inception_c3_3x1_3"
}
layer {
  name: "inception_c3_pool_ave"
  type: "Pooling"
  bottom: "inception_c2_concat"
  top: "inception_c3_pool_ave"
  pooling_param {
    pool: AVE
    kernel_size: 3
    stride: 1
    pad: 1
  }
}
layer {
  name: "inception_c3_1x1"
  type: "ConvolutionData"
  bottom: "inception_c3_pool_ave"
  top: "inception_c3_1x1"
  convolution_param {
    bias_term: false
    num_output: 256
    pad: 0
    kernel_size: 1
    stride: 1
  }
}
layer {
  name: "inception_c3_1x1_bn_dy"
  type: "BNData"
  bottom: "inception_c3_1x1"
  top: "inception_c3_1x1"
  param { lr_mult: 1 decay_mult: 0 } param { lr_mult: 1 decay_mult: 0 }
  bn_param {frozen: false scale_filler { type: "constant" value: 1 } shift_filler { type: "constant" value: 0 } }
}

layer {
  name: "inception_c3_1x1_relu"
  type: "ReLU"
  bottom: "inception_c3_1x1"
  top: "inception_c3_1x1"
}
layer {
  name: "inception_c3_concat"
  type: "Concat"
  bottom: "inception_c3_1x1_2"
  bottom: "inception_c3_1x3"
  bottom: "inception_c3_3x1"
  bottom: "inception_c3_1x3_3"
  bottom: "inception_c3_3x1_3"
  bottom: "inception_c3_1x1"
  top: "inception_c3_concat"
}
################################# global pool #####################################
layer {
  name: "pool_8x8_s1"
  type: "Pooling"
  bottom: "inception_c3_concat"
  top: "global_pool"
  pooling_param {
    pool: AVE
    global_pooling: true
  }
}
################################### gather ##########################################
layer {
   name: "gather1"
   type: "Gather"
   bottom: "global_pool"
   top: "global_pool_g"
}
####################################### loss1 #######################################
layer {name: "loss1/ave_pool" type: "Pooling"  bottom: "reduction_a_concat"  top: "loss1/ave_pool"   
  pooling_param {  pool: AVE    kernel_size: 5    stride: 3 }}
layer { name: "loss1/conv" type: "ConvolutionData" bottom: "loss1/ave_pool" top: "loss1/conv"
  param { lr_mult: 1 decay_mult: 1 } param { lr_mult: 2 decay_mult: 0 }
  convolution_param { num_output: 256  kernel_size: 1
    weight_filler { type: "xavier" }
    bias_filler { type: "constant" value: 0.2 } } }
layer { name: "loss1/conv_relu" type: "ReLU" bottom: "loss1/conv" top: "loss1/conv" }
layer {
   name: "gather2"
   type: "Gather"
   bottom: "loss1/conv"
   top: "loss1/conv_g"
 }

layer {  name: "loss1_fc2_dy"  type: "InnerProduct"  bottom: "loss1/conv_g"  top: "loss1_fc2"
  param { lr_mult: 1 decay_mult: 1  } param { lr_mult: 1 decay_mult: 0  }
  inner_product_param {    num_output: 1024    weight_filler {      type: "gaussian"      std: 0.01    }
    bias_filler {      type: "constant"      value: 0    } } }
layer { name: "loss1/fc2_relu" type: "ReLU" bottom: "loss1_fc2" top: "loss1_fc2" }
layer { name: "loss1/drop2_fc"  type: "Dropout"  bottom: "loss1_fc2"  top: "loss1_fc2"  dropout_param {dropout_ratio: 0.8 } }
layer {name: "loss1/classifier_dy" type: "InnerProduct"  bottom: "loss1_fc2"  top: "loss1/classifier"
  param {lr_mult: 1 decay_mult: 1} param {lr_mult: 1 decay_mult: 0 }
  inner_product_param { num_output: 10 weight_filler {type: "xavier" } bias_filler {type: "constant" value: 0} } }
layer {
  name: "loss1/loss"
  type: "SoftmaxWithLoss" 
  bottom: "loss1/classifier"
  bottom: "label_g"
  top: "loss1/loss"
  propagate_down: 1
  propagate_down: 0
  loss_weight: 0.3
}
layer {
  name: "loss1/accuracy"
  type: "Accuracy"
  bottom: "loss1/classifier"
  bottom: "label_g"
  top: "accuracy/1"
}
####################################### loss2 #######################################
layer {name: "loss2/ave_pool" type: "Pooling"  bottom: "reduction_b_concat"  top: "loss2/ave_pool"  
  pooling_param {  pool: AVE    kernel_size: 5    stride: 3 }}
layer { name: "loss2/conv" type: "ConvolutionData" bottom: "loss2/ave_pool" top: "loss2/conv"
  param { lr_mult: 1 decay_mult: 1 } param { lr_mult: 2 decay_mult: 0 }
  convolution_param { num_output: 256  kernel_size: 1
    weight_filler { type: "xavier" }
    bias_filler { type: "constant" value: 0.2 } } }
layer { name: "loss2/conv_relu" type: "ReLU" bottom: "loss2/conv" top: "loss2/conv" }

layer {
   name: "gather3"
   type: "Gather"
   bottom: "loss2/conv"
   top: "loss2/conv_g"
 }
layer {  name: "loss2_fc2"  type: "InnerProduct"  bottom: "loss2/conv_g"  top: "loss2_fc2"
  param { lr_mult: 1 decay_mult: 1  } param { lr_mult: 1 decay_mult: 0  }
  inner_product_param {    num_output: 1024    weight_filler {      type: "gaussian"      std: 0.01    }
    bias_filler {      type: "constant"      value: 0    } } }
layer { name: "loss2/fc2_relu" type: "ReLU" bottom: "loss2_fc2" top: "loss2_fc2" }
layer { name: "loss2/drop2_fc"  type: "Dropout"  bottom: "loss2_fc2"  top: "loss2_fc2"  dropout_param {dropout_ratio: 0.8 } }
layer {name: "loss2/classifier_dy" type: "InnerProduct"  bottom: "loss2_fc2"  top: "loss2/classifier"
  param {lr_mult: 1 decay_mult: 1} param {lr_mult: 1 decay_mult: 0 }
  inner_product_param { num_output: 10 weight_filler {type: "xavier" } bias_filler {type: "constant" value: 0} } }
layer {
  name: "loss2/loss"
  type: "SoftmaxWithLoss" 
  bottom: "loss2/classifier"
  bottom: "label_g"
  top: "loss2/loss"
  propagate_down: 1
  propagate_down: 0
  loss_weight: 0.3
}
layer {
  name: "loss2/accuracy"
  type:"Accuracy"
  bottom: "loss2/classifier"
  bottom: "label_g"
  top: "accuracy/2"
}
####################################### loss3 ##########################################
layer {
  name: "pool5/drop_7x7"
  type: "Dropout"
  bottom: "global_pool_g"
  top: "global_pool_dp"
  dropout_param {
    dropout_ratio: 0.4
  }
}
layer {  name: "loss3_fc1_dy"  type: "InnerProduct"  bottom: "global_pool_dp"  top: "loss3_fc1"
  param { lr_mult: 1 decay_mult: 1  } param { lr_mult: 1 decay_mult: 0  }
  inner_product_param {    num_output: 256    weight_filler {      type: "gaussian"      std: 0.01    }
  bias_filler {      type: "constant"      value: 0    } } }
layer { name: "loss3/relu_fc1"  type: "ReLU"  bottom: "loss3_fc1"  top: "loss3_fc1"}
layer { name: "loss3/drop_fc1"  type: "Dropout"  bottom: "loss3_fc1"  top: "loss3_fc1"  
  dropout_param {dropout_ratio: 0.8 }}


layer {name: "loss3/classifier_dy" type: "InnerProduct"  bottom: "loss3_fc1"  top: "loss3/classifier"
  param {lr_mult: 1 decay_mult: 1} param {lr_mult: 1 decay_mult: 0 }
  inner_product_param { num_output: 10 weight_filler {type: "xavier" } bias_filler {type: "constant" value: 0} } }
layer {
  name: "loss3/loss"
  type: "SoftmaxWithLoss" 
  bottom: "loss3/classifier"
  bottom: "label_g"
  top: "loss3/loss"
  propagate_down: 1
  propagate_down: 0
  loss_weight: 1
}
layer {
  name: "loss3/accuracy"
  type:"Accuracy"
  bottom: "loss3/classifier"
  bottom: "label_g"
  top: "accuracy/3"
}
